<?xml version="1.0" ?>
<net name="pretrainedResnet" version="11">
	<layers>
		<layer id="97" name="input_1" type="Parameter" version="opset1">
			<data shape="1,32,32,3" element_type="f32"/>
			<rt_info>
				<attribute name="fused_names" version="0" value="input_1"/>
			</rt_info>
			<output>
				<port id="0" precision="FP32" names="input_1">
					<dim>1</dim>
					<dim>32</dim>
					<dim>32</dim>
					<dim>3</dim>
					<rt_info/>
				</port>
			</output>
		</layer>
		<layer id="0" name="Constant_1922043927" type="Const" version="opset1">
			<data offset="0" size="16" shape="2" element_type="i64"/>
			<output>
				<port id="0" precision="I64">
					<dim>2</dim>
				</port>
			</output>
		</layer>
		<layer id="1" name="100910133747" type="Const" version="opset1">
			<data offset="16" size="4" shape="" element_type="f32"/>
			<output>
				<port id="0" precision="FP32"/>
			</output>
		</layer>
		<layer id="2" name="101010143504" type="Const" version="opset1">
			<data offset="20" size="4" shape="" element_type="f32"/>
			<output>
				<port id="0" precision="FP32"/>
			</output>
		</layer>
		<layer id="3" name="101110154050" type="Const" version="opset1">
			<data offset="16" size="4" shape="" element_type="f32"/>
			<output>
				<port id="0" precision="FP32"/>
			</output>
		</layer>
		<layer id="4" name="101210163492" type="Const" version="opset1">
			<data offset="20" size="4" shape="" element_type="f32"/>
			<output>
				<port id="0" precision="FP32"/>
			</output>
		</layer>
		<layer id="5" name="99910034131" type="Const" version="opset1">
			<data offset="24" size="4" shape="" element_type="f32"/>
			<output>
				<port id="0" precision="FP32"/>
			</output>
		</layer>
		<layer id="6" name="100010043846" type="Const" version="opset1">
			<data offset="28" size="4" shape="" element_type="f32"/>
			<output>
				<port id="0" precision="FP32"/>
			</output>
		</layer>
		<layer id="7" name="100110053957" type="Const" version="opset1">
			<data offset="24" size="4" shape="" element_type="f32"/>
			<output>
				<port id="0" precision="FP32"/>
			</output>
		</layer>
		<layer id="8" name="100210064095" type="Const" version="opset1">
			<data offset="28" size="4" shape="" element_type="f32"/>
			<output>
				<port id="0" precision="FP32"/>
			</output>
		</layer>
		<layer id="9" name="9599633726" type="Const" version="opset1">
			<data offset="32" size="4" shape="" element_type="f32"/>
			<output>
				<port id="0" precision="FP32"/>
			</output>
		</layer>
		<layer id="10" name="9609644011" type="Const" version="opset1">
			<data offset="36" size="4" shape="" element_type="f32"/>
			<output>
				<port id="0" precision="FP32"/>
			</output>
		</layer>
		<layer id="11" name="9619653723" type="Const" version="opset1">
			<data offset="32" size="4" shape="" element_type="f32"/>
			<output>
				<port id="0" precision="FP32"/>
			</output>
		</layer>
		<layer id="12" name="9629663792" type="Const" version="opset1">
			<data offset="36" size="4" shape="" element_type="f32"/>
			<output>
				<port id="0" precision="FP32"/>
			</output>
		</layer>
		<layer id="13" name="9399434164" type="Const" version="opset1">
			<data offset="40" size="4" shape="" element_type="f32"/>
			<output>
				<port id="0" precision="FP32"/>
			</output>
		</layer>
		<layer id="14" name="9409443603" type="Const" version="opset1">
			<data offset="28" size="4" shape="" element_type="f32"/>
			<output>
				<port id="0" precision="FP32"/>
			</output>
		</layer>
		<layer id="15" name="9419454161" type="Const" version="opset1">
			<data offset="40" size="4" shape="" element_type="f32"/>
			<output>
				<port id="0" precision="FP32"/>
			</output>
		</layer>
		<layer id="16" name="9429464134" type="Const" version="opset1">
			<data offset="28" size="4" shape="" element_type="f32"/>
			<output>
				<port id="0" precision="FP32"/>
			</output>
		</layer>
		<layer id="17" name="Constant_1391623939" type="Const" version="opset1">
			<data offset="0" size="16" shape="2" element_type="i64"/>
			<output>
				<port id="0" precision="I64">
					<dim>2</dim>
				</port>
			</output>
		</layer>
		<layer id="18" name="Identity48/FlattenONNX_/Reshape/shape1603849" type="Const" version="opset1">
			<data offset="44" size="16" shape="2" element_type="i64"/>
			<rt_info>
				<attribute name="fused_names" version="0" value="Identity48/FlattenONNX_/Reshape/shape"/>
			</rt_info>
			<output>
				<port id="0" precision="I64">
					<dim>2</dim>
				</port>
			</output>
		</layer>
		<layer id="19" name="9899934083" type="Const" version="opset1">
			<data offset="60" size="4" shape="" element_type="f32"/>
			<output>
				<port id="0" precision="FP32"/>
			</output>
		</layer>
		<layer id="20" name="9909943972" type="Const" version="opset1">
			<data offset="64" size="4" shape="" element_type="f32"/>
			<output>
				<port id="0" precision="FP32"/>
			</output>
		</layer>
		<layer id="21" name="9919953873" type="Const" version="opset1">
			<data offset="60" size="4" shape="" element_type="f32"/>
			<output>
				<port id="0" precision="FP32"/>
			</output>
		</layer>
		<layer id="22" name="9929963981" type="Const" version="opset1">
			<data offset="64" size="4" shape="" element_type="f32"/>
			<output>
				<port id="0" precision="FP32"/>
			</output>
		</layer>
		<layer id="23" name="9799833804" type="Const" version="opset1">
			<data offset="68" size="4" shape="" element_type="f32"/>
			<output>
				<port id="0" precision="FP32"/>
			</output>
		</layer>
		<layer id="24" name="9809843795" type="Const" version="opset1">
			<data offset="72" size="4" shape="" element_type="f32"/>
			<output>
				<port id="0" precision="FP32"/>
			</output>
		</layer>
		<layer id="25" name="9819853474" type="Const" version="opset1">
			<data offset="68" size="4" shape="" element_type="f32"/>
			<output>
				<port id="0" precision="FP32"/>
			</output>
		</layer>
		<layer id="26" name="9829864062" type="Const" version="opset1">
			<data offset="72" size="4" shape="" element_type="f32"/>
			<output>
				<port id="0" precision="FP32"/>
			</output>
		</layer>
		<layer id="27" name="const_fold_opt__1241564125" type="Const" version="opset1">
			<data offset="76" size="2560" shape="10,64" element_type="f32"/>
			<rt_info>
				<attribute name="fused_names" version="0" value="const_fold_opt__124"/>
			</rt_info>
			<output>
				<port id="0" precision="FP32" names="const_fold_opt__124">
					<dim>10</dim>
					<dim>64</dim>
				</port>
			</output>
		</layer>
		<layer id="28" name="model/dense/MatMul;model/dense/BiasAdd/fq_weights_1" type="FakeQuantize" version="opset1">
			<data levels="65535" auto_broadcast="numpy"/>
			<input>
				<port id="0">
					<dim>10</dim>
					<dim>64</dim>
				</port>
				<port id="1"/>
				<port id="2"/>
				<port id="3"/>
				<port id="4"/>
			</input>
			<output>
				<port id="5" precision="FP32">
					<dim>10</dim>
					<dim>64</dim>
				</port>
			</output>
		</layer>
		<layer id="29" name="const_fold_opt__1151543612" type="Const" version="opset1">
			<data offset="2636" size="16" shape="2" element_type="i64"/>
			<rt_info>
				<attribute name="fused_names" version="0" value="const_fold_opt__115"/>
			</rt_info>
			<output>
				<port id="0" precision="I64" names="const_fold_opt__115">
					<dim>2</dim>
				</port>
			</output>
		</layer>
		<layer id="30" name="181118154071" type="Const" version="opset1">
			<data offset="2652" size="4" shape="" element_type="f32"/>
			<output>
				<port id="0" precision="FP32"/>
			</output>
		</layer>
		<layer id="31" name="181218164158" type="Const" version="opset1">
			<data offset="2656" size="4" shape="" element_type="f32"/>
			<output>
				<port id="0" precision="FP32"/>
			</output>
		</layer>
		<layer id="32" name="181318173534" type="Const" version="opset1">
			<data offset="2652" size="4" shape="" element_type="f32"/>
			<output>
				<port id="0" precision="FP32"/>
			</output>
		</layer>
		<layer id="33" name="181418184107" type="Const" version="opset1">
			<data offset="2656" size="4" shape="" element_type="f32"/>
			<output>
				<port id="0" precision="FP32"/>
			</output>
		</layer>
		<layer id="34" name="7097133840" type="Const" version="opset1">
			<data offset="2660" size="4" shape="" element_type="f32"/>
			<output>
				<port id="0" precision="FP32"/>
			</output>
		</layer>
		<layer id="35" name="7107143711" type="Const" version="opset1">
			<data offset="2664" size="4" shape="" element_type="f32"/>
			<output>
				<port id="0" precision="FP32"/>
			</output>
		</layer>
		<layer id="36" name="7117153753" type="Const" version="opset1">
			<data offset="2660" size="4" shape="" element_type="f32"/>
			<output>
				<port id="0" precision="FP32"/>
			</output>
		</layer>
		<layer id="37" name="7127164086" type="Const" version="opset1">
			<data offset="2664" size="4" shape="" element_type="f32"/>
			<output>
				<port id="0" precision="FP32"/>
			</output>
		</layer>
		<layer id="38" name="7397434053" type="Const" version="opset1">
			<data offset="2668" size="4" shape="" element_type="f32"/>
			<output>
				<port id="0" precision="FP32"/>
			</output>
		</layer>
		<layer id="39" name="7407443963" type="Const" version="opset1">
			<data offset="2672" size="4" shape="" element_type="f32"/>
			<output>
				<port id="0" precision="FP32"/>
			</output>
		</layer>
		<layer id="40" name="7417454077" type="Const" version="opset1">
			<data offset="2668" size="4" shape="" element_type="f32"/>
			<output>
				<port id="0" precision="FP32"/>
			</output>
		</layer>
		<layer id="41" name="7427463570" type="Const" version="opset1">
			<data offset="2672" size="4" shape="" element_type="f32"/>
			<output>
				<port id="0" precision="FP32"/>
			</output>
		</layer>
		<layer id="42" name="8498533825" type="Const" version="opset1">
			<data offset="2676" size="4" shape="" element_type="f32"/>
			<output>
				<port id="0" precision="FP32"/>
			</output>
		</layer>
		<layer id="43" name="8508544143" type="Const" version="opset1">
			<data offset="2680" size="4" shape="" element_type="f32"/>
			<output>
				<port id="0" precision="FP32"/>
			</output>
		</layer>
		<layer id="44" name="8518553705" type="Const" version="opset1">
			<data offset="2676" size="4" shape="" element_type="f32"/>
			<output>
				<port id="0" precision="FP32"/>
			</output>
		</layer>
		<layer id="45" name="8528563639" type="Const" version="opset1">
			<data offset="2680" size="4" shape="" element_type="f32"/>
			<output>
				<port id="0" precision="FP32"/>
			</output>
		</layer>
		<layer id="46" name="8398433618" type="Const" version="opset1">
			<data offset="2684" size="4" shape="" element_type="f32"/>
			<output>
				<port id="0" precision="FP32"/>
			</output>
		</layer>
		<layer id="47" name="8408443960" type="Const" version="opset1">
			<data offset="2688" size="4" shape="" element_type="f32"/>
			<output>
				<port id="0" precision="FP32"/>
			</output>
		</layer>
		<layer id="48" name="8418453762" type="Const" version="opset1">
			<data offset="2684" size="4" shape="" element_type="f32"/>
			<output>
				<port id="0" precision="FP32"/>
			</output>
		</layer>
		<layer id="49" name="8428463885" type="Const" version="opset1">
			<data offset="2688" size="4" shape="" element_type="f32"/>
			<output>
				<port id="0" precision="FP32"/>
			</output>
		</layer>
		<layer id="50" name="Constant_1311383714" type="Const" version="opset1">
			<data offset="2692" size="32768" shape="64,32,2,2" element_type="f32"/>
			<output>
				<port id="0" precision="FP32">
					<dim>64</dim>
					<dim>32</dim>
					<dim>2</dim>
					<dim>2</dim>
				</port>
			</output>
		</layer>
		<layer id="51" name="Convolution_132/fq_weights_1" type="FakeQuantize" version="opset1">
			<data levels="65535" auto_broadcast="numpy"/>
			<input>
				<port id="0">
					<dim>64</dim>
					<dim>32</dim>
					<dim>2</dim>
					<dim>2</dim>
				</port>
				<port id="1"/>
				<port id="2"/>
				<port id="3"/>
				<port id="4"/>
			</input>
			<output>
				<port id="5" precision="FP32">
					<dim>64</dim>
					<dim>32</dim>
					<dim>2</dim>
					<dim>2</dim>
				</port>
			</output>
		</layer>
		<layer id="52" name="102910334152" type="Const" version="opset1">
			<data offset="35460" size="4" shape="" element_type="f32"/>
			<output>
				<port id="0" precision="FP32"/>
			</output>
		</layer>
		<layer id="53" name="103010343768" type="Const" version="opset1">
			<data offset="35464" size="4" shape="" element_type="f32"/>
			<output>
				<port id="0" precision="FP32"/>
			</output>
		</layer>
		<layer id="54" name="103110353525" type="Const" version="opset1">
			<data offset="35460" size="4" shape="" element_type="f32"/>
			<output>
				<port id="0" precision="FP32"/>
			</output>
		</layer>
		<layer id="55" name="103210363609" type="Const" version="opset1">
			<data offset="35464" size="4" shape="" element_type="f32"/>
			<output>
				<port id="0" precision="FP32"/>
			</output>
		</layer>
		<layer id="56" name="106910734017" type="Const" version="opset1">
			<data offset="35468" size="4" shape="" element_type="f32"/>
			<output>
				<port id="0" precision="FP32"/>
			</output>
		</layer>
		<layer id="57" name="107010743540" type="Const" version="opset1">
			<data offset="35472" size="4" shape="" element_type="f32"/>
			<output>
				<port id="0" precision="FP32"/>
			</output>
		</layer>
		<layer id="58" name="107110753660" type="Const" version="opset1">
			<data offset="35468" size="4" shape="" element_type="f32"/>
			<output>
				<port id="0" precision="FP32"/>
			</output>
		</layer>
		<layer id="59" name="107210763477" type="Const" version="opset1">
			<data offset="35472" size="4" shape="" element_type="f32"/>
			<output>
				<port id="0" precision="FP32"/>
			</output>
		</layer>
		<layer id="60" name="8999033657" type="Const" version="opset1">
			<data offset="35476" size="4" shape="" element_type="f32"/>
			<output>
				<port id="0" precision="FP32"/>
			</output>
		</layer>
		<layer id="61" name="9009043549" type="Const" version="opset1">
			<data offset="35480" size="4" shape="" element_type="f32"/>
			<output>
				<port id="0" precision="FP32"/>
			</output>
		</layer>
		<layer id="62" name="9019054110" type="Const" version="opset1">
			<data offset="35476" size="4" shape="" element_type="f32"/>
			<output>
				<port id="0" precision="FP32"/>
			</output>
		</layer>
		<layer id="63" name="9029063777" type="Const" version="opset1">
			<data offset="35480" size="4" shape="" element_type="f32"/>
			<output>
				<port id="0" precision="FP32"/>
			</output>
		</layer>
		<layer id="64" name="8898934167" type="Const" version="opset1">
			<data offset="35484" size="4" shape="" element_type="f32"/>
			<output>
				<port id="0" precision="FP32"/>
			</output>
		</layer>
		<layer id="65" name="8908943585" type="Const" version="opset1">
			<data offset="35488" size="4" shape="" element_type="f32"/>
			<output>
				<port id="0" precision="FP32"/>
			</output>
		</layer>
		<layer id="66" name="8918954056" type="Const" version="opset1">
			<data offset="35484" size="4" shape="" element_type="f32"/>
			<output>
				<port id="0" precision="FP32"/>
			</output>
		</layer>
		<layer id="67" name="8928963561" type="Const" version="opset1">
			<data offset="35488" size="4" shape="" element_type="f32"/>
			<output>
				<port id="0" precision="FP32"/>
			</output>
		</layer>
		<layer id="68" name="Constant_1291233738" type="Const" version="opset1">
			<data offset="35492" size="8192" shape="32,16,2,2" element_type="f32"/>
			<output>
				<port id="0" precision="FP32">
					<dim>32</dim>
					<dim>16</dim>
					<dim>2</dim>
					<dim>2</dim>
				</port>
			</output>
		</layer>
		<layer id="69" name="Convolution_130/fq_weights_1" type="FakeQuantize" version="opset1">
			<data levels="65535" auto_broadcast="numpy"/>
			<input>
				<port id="0">
					<dim>32</dim>
					<dim>16</dim>
					<dim>2</dim>
					<dim>2</dim>
				</port>
				<port id="1"/>
				<port id="2"/>
				<port id="3"/>
				<port id="4"/>
			</input>
			<output>
				<port id="5" precision="FP32">
					<dim>32</dim>
					<dim>16</dim>
					<dim>2</dim>
					<dim>2</dim>
				</port>
			</output>
		</layer>
		<layer id="70" name="5495533516" type="Const" version="opset1">
			<data offset="43684" size="4" shape="" element_type="f32"/>
			<output>
				<port id="0" precision="FP32"/>
			</output>
		</layer>
		<layer id="71" name="5505543900" type="Const" version="opset1">
			<data offset="43688" size="4" shape="" element_type="f32"/>
			<output>
				<port id="0" precision="FP32"/>
			</output>
		</layer>
		<layer id="72" name="5515553621" type="Const" version="opset1">
			<data offset="43684" size="4" shape="" element_type="f32"/>
			<output>
				<port id="0" precision="FP32"/>
			</output>
		</layer>
		<layer id="73" name="5525563936" type="Const" version="opset1">
			<data offset="43688" size="4" shape="" element_type="f32"/>
			<output>
				<port id="0" precision="FP32"/>
			</output>
		</layer>
		<layer id="74" name="6396434023" type="Const" version="opset1">
			<data offset="43692" size="4" shape="" element_type="f32"/>
			<output>
				<port id="0" precision="FP32"/>
			</output>
		</layer>
		<layer id="75" name="6406444170" type="Const" version="opset1">
			<data offset="43696" size="4" shape="" element_type="f32"/>
			<output>
				<port id="0" precision="FP32"/>
			</output>
		</layer>
		<layer id="76" name="6416453888" type="Const" version="opset1">
			<data offset="43692" size="4" shape="" element_type="f32"/>
			<output>
				<port id="0" precision="FP32"/>
			</output>
		</layer>
		<layer id="77" name="6426463954" type="Const" version="opset1">
			<data offset="43696" size="4" shape="" element_type="f32"/>
			<output>
				<port id="0" precision="FP32"/>
			</output>
		</layer>
		<layer id="78" name="5795833684" type="Const" version="opset1">
			<data offset="43700" size="4" shape="" element_type="f32"/>
			<output>
				<port id="0" precision="FP32"/>
			</output>
		</layer>
		<layer id="79" name="5805843582" type="Const" version="opset1">
			<data offset="43704" size="4" shape="" element_type="f32"/>
			<output>
				<port id="0" precision="FP32"/>
			</output>
		</layer>
		<layer id="80" name="5815853519" type="Const" version="opset1">
			<data offset="43700" size="4" shape="" element_type="f32"/>
			<output>
				<port id="0" precision="FP32"/>
			</output>
		</layer>
		<layer id="81" name="5825863984" type="Const" version="opset1">
			<data offset="43704" size="4" shape="" element_type="f32"/>
			<output>
				<port id="0" precision="FP32"/>
			</output>
		</layer>
		<layer id="82" name="118911933882" type="Const" version="opset1">
			<data offset="43708" size="4" shape="" element_type="f32"/>
			<output>
				<port id="0" precision="FP32"/>
			</output>
		</layer>
		<layer id="83" name="119011944065" type="Const" version="opset1">
			<data offset="43704" size="4" shape="" element_type="f32"/>
			<output>
				<port id="0" precision="FP32"/>
			</output>
		</layer>
		<layer id="84" name="119111953690" type="Const" version="opset1">
			<data offset="43708" size="4" shape="" element_type="f32"/>
			<output>
				<port id="0" precision="FP32"/>
			</output>
		</layer>
		<layer id="85" name="119211963741" type="Const" version="opset1">
			<data offset="43704" size="4" shape="" element_type="f32"/>
			<output>
				<port id="0" precision="FP32"/>
			</output>
		</layer>
		<layer id="86" name="117911833837" type="Const" version="opset1">
			<data offset="43712" size="4" shape="" element_type="f32"/>
			<output>
				<port id="0" precision="FP32"/>
			</output>
		</layer>
		<layer id="87" name="118011843987" type="Const" version="opset1">
			<data offset="43716" size="4" shape="" element_type="f32"/>
			<output>
				<port id="0" precision="FP32"/>
			</output>
		</layer>
		<layer id="88" name="118111854029" type="Const" version="opset1">
			<data offset="43712" size="4" shape="" element_type="f32"/>
			<output>
				<port id="0" precision="FP32"/>
			</output>
		</layer>
		<layer id="89" name="118211863579" type="Const" version="opset1">
			<data offset="43716" size="4" shape="" element_type="f32"/>
			<output>
				<port id="0" precision="FP32"/>
			</output>
		</layer>
		<layer id="90" name="const_fold_opt__1131073693" type="Const" version="opset1">
			<data offset="43720" size="1728" shape="16,3,3,3" element_type="f32"/>
			<rt_info>
				<attribute name="fused_names" version="0" value="const_fold_opt__113"/>
			</rt_info>
			<output>
				<port id="0" precision="FP32" names="const_fold_opt__113">
					<dim>16</dim>
					<dim>3</dim>
					<dim>3</dim>
					<dim>3</dim>
				</port>
			</output>
		</layer>
		<layer id="91" name="model/activation/Relu;model/batch_normalization/FusedBatchNormV3;model/conv2d/BiasAdd/ReadVariableOp/resource;model/conv2d/BiasAdd;model/conv2d_2/Conv2D;model/conv2d/Conv2D1/WithoutBiases/fq_weights_1" type="FakeQuantize" version="opset1">
			<data levels="65535" auto_broadcast="numpy"/>
			<input>
				<port id="0">
					<dim>16</dim>
					<dim>3</dim>
					<dim>3</dim>
					<dim>3</dim>
				</port>
				<port id="1"/>
				<port id="2"/>
				<port id="3"/>
				<port id="4"/>
			</input>
			<output>
				<port id="5" precision="FP32">
					<dim>16</dim>
					<dim>3</dim>
					<dim>3</dim>
					<dim>3</dim>
				</port>
			</output>
		</layer>
		<layer id="92" name="501053903" type="Const" version="opset1">
			<data offset="45448" size="32" shape="4" element_type="i64"/>
			<rt_info>
				<attribute name="fused_names" version="0" value="50"/>
			</rt_info>
			<output>
				<port id="0" precision="I64">
					<dim>4</dim>
				</port>
			</output>
		</layer>
		<layer id="93" name="122912333615" type="Const" version="opset1">
			<data offset="45480" size="4" shape="" element_type="f32"/>
			<output>
				<port id="0" precision="FP32"/>
			</output>
		</layer>
		<layer id="94" name="123012343813" type="Const" version="opset1">
			<data offset="45484" size="4" shape="" element_type="f32"/>
			<output>
				<port id="0" precision="FP32"/>
			</output>
		</layer>
		<layer id="95" name="123112353588" type="Const" version="opset1">
			<data offset="45480" size="4" shape="" element_type="f32"/>
			<output>
				<port id="0" precision="FP32"/>
			</output>
		</layer>
		<layer id="96" name="123212363735" type="Const" version="opset1">
			<data offset="45484" size="4" shape="" element_type="f32"/>
			<output>
				<port id="0" precision="FP32"/>
			</output>
		</layer>
		<layer id="98" name="input_1/fq_output_0_0" type="FakeQuantize" version="opset1">
			<data levels="65536" auto_broadcast="numpy"/>
			<input>
				<port id="0">
					<dim>1</dim>
					<dim>32</dim>
					<dim>32</dim>
					<dim>3</dim>
				</port>
				<port id="1"/>
				<port id="2"/>
				<port id="3"/>
				<port id="4"/>
			</input>
			<output>
				<port id="5" precision="FP32">
					<dim>1</dim>
					<dim>32</dim>
					<dim>32</dim>
					<dim>3</dim>
				</port>
			</output>
		</layer>
		<layer id="99" name="model/activation/Relu;model/batch_normalization/FusedBatchNormV3;model/conv2d/BiasAdd/ReadVariableOp/resource;model/conv2d/BiasAdd;model/conv2d_2/Conv2D;model/conv2d/Conv2D1__31" type="Transpose" version="opset1">
			<rt_info>
				<attribute name="fused_names" version="0" value="model/activation/Relu;model/batch_normalization/FusedBatchNormV3;model/conv2d/BiasAdd/ReadVariableOp/resource;model/conv2d/BiasAdd;model/conv2d_2/Conv2D;model/conv2d/Conv2D1__31"/>
			</rt_info>
			<input>
				<port id="0">
					<dim>1</dim>
					<dim>32</dim>
					<dim>32</dim>
					<dim>3</dim>
				</port>
				<port id="1">
					<dim>4</dim>
				</port>
			</input>
			<output>
				<port id="2" precision="FP32" names="model/activation/Relu;model/batch_normalization/FusedBatchNormV3;model/conv2d/BiasAdd/ReadVariableOp/resource;model/conv2d/BiasAdd;model/conv2d_2/Conv2D;model/conv2d/Conv2D1__31:0">
					<dim>1</dim>
					<dim>3</dim>
					<dim>32</dim>
					<dim>32</dim>
				</port>
			</output>
		</layer>
		<layer id="100" name="model/activation/Relu;model/batch_normalization/FusedBatchNormV3;model/conv2d/BiasAdd/ReadVariableOp/resource;model/conv2d/BiasAdd;model/conv2d_2/Conv2D;model/conv2d/Conv2D1/WithoutBiases" type="Convolution" version="opset1">
			<data auto_pad="explicit" strides="1,1" dilations="1,1" pads_begin="1,1" pads_end="1,1"/>
			<rt_info>
				<attribute name="fused_names" version="0" value="model/activation/Relu;model/batch_normalization/FusedBatchNormV3;model/conv2d/BiasAdd/ReadVariableOp/resource;model/conv2d/BiasAdd;model/conv2d_2/Conv2D;model/conv2d/Conv2D1/WithoutBiases"/>
			</rt_info>
			<input>
				<port id="0">
					<dim>1</dim>
					<dim>3</dim>
					<dim>32</dim>
					<dim>32</dim>
				</port>
				<port id="1">
					<dim>16</dim>
					<dim>3</dim>
					<dim>3</dim>
					<dim>3</dim>
				</port>
			</input>
			<output>
				<port id="2" precision="FP32">
					<dim>1</dim>
					<dim>16</dim>
					<dim>32</dim>
					<dim>32</dim>
				</port>
			</output>
		</layer>
		<layer id="101" name="model/activation/Relu;model/batch_normalization/FusedBatchNormV3;model/conv2d/BiasAdd/ReadVariableOp/resource;model/conv2d/BiasAdd;model/conv2d_2/Conv2D;model/conv2d/Conv2D1/Dims4931093606" type="Const" version="opset1">
			<data offset="45488" size="64" shape="1,16,1,1" element_type="f32"/>
			<rt_info>
				<attribute name="fused_names" version="0" value="model/activation/Relu;model/batch_normalization/FusedBatchNormV3;model/conv2d/BiasAdd/ReadVariableOp/resource;model/conv2d/BiasAdd;model/conv2d_2/Conv2D;model/conv2d/Conv2D1/Dims493"/>
			</rt_info>
			<output>
				<port id="0" precision="FP32">
					<dim>1</dim>
					<dim>16</dim>
					<dim>1</dim>
					<dim>1</dim>
				</port>
			</output>
		</layer>
		<layer id="102" name="model/activation/Relu;model/batch_normalization/FusedBatchNormV3;model/conv2d/BiasAdd/ReadVariableOp/resource;model/conv2d/BiasAdd;model/conv2d_2/Conv2D;model/conv2d/Conv2D1" type="Add" version="opset1">
			<data auto_broadcast="numpy"/>
			<rt_info>
				<attribute name="fused_names" version="0" value="model/activation/Relu;model/batch_normalization/FusedBatchNormV3;model/conv2d/BiasAdd/ReadVariableOp/resource;model/conv2d/BiasAdd;model/conv2d_2/Conv2D;model/conv2d/Conv2D1"/>
			</rt_info>
			<input>
				<port id="0">
					<dim>1</dim>
					<dim>16</dim>
					<dim>32</dim>
					<dim>32</dim>
				</port>
				<port id="1">
					<dim>1</dim>
					<dim>16</dim>
					<dim>1</dim>
					<dim>1</dim>
				</port>
			</input>
			<output>
				<port id="2" precision="FP32">
					<dim>1</dim>
					<dim>16</dim>
					<dim>32</dim>
					<dim>32</dim>
				</port>
			</output>
		</layer>
		<layer id="103" name="model/activation/Relu;model/batch_normalization/FusedBatchNormV3;model/conv2d/BiasAdd/ReadVariableOp/resource;model/conv2d/BiasAdd;model/conv2d_2/Conv2D;model/conv2d/Conv2D1/fq_output_0_0" type="FakeQuantize" version="opset1">
			<data levels="4294967296" auto_broadcast="numpy"/>
			<input>
				<port id="0">
					<dim>1</dim>
					<dim>16</dim>
					<dim>32</dim>
					<dim>32</dim>
				</port>
				<port id="1"/>
				<port id="2"/>
				<port id="3"/>
				<port id="4"/>
			</input>
			<output>
				<port id="5" precision="FP32" names="model/activation/Relu;model/batch_normalization/FusedBatchNormV3;model/conv2d/BiasAdd/ReadVariableOp/resource;model/conv2d/BiasAdd;model/conv2d_2/Conv2D;model/conv2d/Conv2D1">
					<dim>1</dim>
					<dim>16</dim>
					<dim>32</dim>
					<dim>32</dim>
				</port>
			</output>
		</layer>
		<layer id="104" name="Relu__5" type="ReLU" version="opset1">
			<rt_info>
				<attribute name="fused_names" version="0" value="Relu__5"/>
			</rt_info>
			<input>
				<port id="0">
					<dim>1</dim>
					<dim>16</dim>
					<dim>32</dim>
					<dim>32</dim>
				</port>
			</input>
			<output>
				<port id="1" precision="FP32">
					<dim>1</dim>
					<dim>16</dim>
					<dim>32</dim>
					<dim>32</dim>
				</port>
			</output>
		</layer>
		<layer id="105" name="Relu__5/fq_output_0_0" type="FakeQuantize" version="opset1">
			<data levels="65536" auto_broadcast="numpy"/>
			<input>
				<port id="0">
					<dim>1</dim>
					<dim>16</dim>
					<dim>32</dim>
					<dim>32</dim>
				</port>
				<port id="1"/>
				<port id="2"/>
				<port id="3"/>
				<port id="4"/>
			</input>
			<output>
				<port id="5" precision="FP32" names="Relu__5:0">
					<dim>1</dim>
					<dim>16</dim>
					<dim>32</dim>
					<dim>32</dim>
				</port>
			</output>
		</layer>
		<layer id="106" name="109911034149" type="Const" version="opset1">
			<data offset="45552" size="4" shape="" element_type="f32"/>
			<output>
				<port id="0" precision="FP32"/>
			</output>
		</layer>
		<layer id="107" name="110011043822" type="Const" version="opset1">
			<data offset="43696" size="4" shape="" element_type="f32"/>
			<output>
				<port id="0" precision="FP32"/>
			</output>
		</layer>
		<layer id="108" name="110111053555" type="Const" version="opset1">
			<data offset="45552" size="4" shape="" element_type="f32"/>
			<output>
				<port id="0" precision="FP32"/>
			</output>
		</layer>
		<layer id="109" name="110211063990" type="Const" version="opset1">
			<data offset="43696" size="4" shape="" element_type="f32"/>
			<output>
				<port id="0" precision="FP32"/>
			</output>
		</layer>
		<layer id="110" name="108910934020" type="Const" version="opset1">
			<data offset="45556" size="4" shape="" element_type="f32"/>
			<output>
				<port id="0" precision="FP32"/>
			</output>
		</layer>
		<layer id="111" name="109010943918" type="Const" version="opset1">
			<data offset="45560" size="4" shape="" element_type="f32"/>
			<output>
				<port id="0" precision="FP32"/>
			</output>
		</layer>
		<layer id="112" name="109110953489" type="Const" version="opset1">
			<data offset="45556" size="4" shape="" element_type="f32"/>
			<output>
				<port id="0" precision="FP32"/>
			</output>
		</layer>
		<layer id="113" name="109210963765" type="Const" version="opset1">
			<data offset="45560" size="4" shape="" element_type="f32"/>
			<output>
				<port id="0" precision="FP32"/>
			</output>
		</layer>
		<layer id="114" name="const_fold_opt__1191174140" type="Const" version="opset1">
			<data offset="45564" size="9216" shape="16,16,3,3" element_type="f32"/>
			<rt_info>
				<attribute name="fused_names" version="0" value="const_fold_opt__119"/>
			</rt_info>
			<output>
				<port id="0" precision="FP32" names="const_fold_opt__119">
					<dim>16</dim>
					<dim>16</dim>
					<dim>3</dim>
					<dim>3</dim>
				</port>
			</output>
		</layer>
		<layer id="115" name="model/batch_normalization_2/FusedBatchNormV3;model/conv2d_2/BiasAdd/ReadVariableOp/resource;model/conv2d_2/BiasAdd;model/conv2d_2/Conv2D/WithoutBiases/fq_weights_1" type="FakeQuantize" version="opset1">
			<data levels="65535" auto_broadcast="numpy"/>
			<input>
				<port id="0">
					<dim>16</dim>
					<dim>16</dim>
					<dim>3</dim>
					<dim>3</dim>
				</port>
				<port id="1"/>
				<port id="2"/>
				<port id="3"/>
				<port id="4"/>
			</input>
			<output>
				<port id="5" precision="FP32">
					<dim>16</dim>
					<dim>16</dim>
					<dim>3</dim>
					<dim>3</dim>
				</port>
			</output>
		</layer>
		<layer id="116" name="7998033843" type="Const" version="opset1">
			<data offset="54780" size="4" shape="" element_type="f32"/>
			<output>
				<port id="0" precision="FP32"/>
			</output>
		</layer>
		<layer id="117" name="8008043852" type="Const" version="opset1">
			<data offset="54784" size="4" shape="" element_type="f32"/>
			<output>
				<port id="0" precision="FP32"/>
			</output>
		</layer>
		<layer id="118" name="8018054122" type="Const" version="opset1">
			<data offset="54780" size="4" shape="" element_type="f32"/>
			<output>
				<port id="0" precision="FP32"/>
			</output>
		</layer>
		<layer id="119" name="8028064038" type="Const" version="opset1">
			<data offset="54784" size="4" shape="" element_type="f32"/>
			<output>
				<port id="0" precision="FP32"/>
			</output>
		</layer>
		<layer id="120" name="6896933633" type="Const" version="opset1">
			<data offset="54788" size="4" shape="" element_type="f32"/>
			<output>
				<port id="0" precision="FP32"/>
			</output>
		</layer>
		<layer id="121" name="6906943486" type="Const" version="opset1">
			<data offset="54792" size="4" shape="" element_type="f32"/>
			<output>
				<port id="0" precision="FP32"/>
			</output>
		</layer>
		<layer id="122" name="6916953759" type="Const" version="opset1">
			<data offset="54788" size="4" shape="" element_type="f32"/>
			<output>
				<port id="0" precision="FP32"/>
			</output>
		</layer>
		<layer id="123" name="6926963867" type="Const" version="opset1">
			<data offset="54792" size="4" shape="" element_type="f32"/>
			<output>
				<port id="0" precision="FP32"/>
			</output>
		</layer>
		<layer id="124" name="6796834101" type="Const" version="opset1">
			<data offset="54796" size="4" shape="" element_type="f32"/>
			<output>
				<port id="0" precision="FP32"/>
			</output>
		</layer>
		<layer id="125" name="6806843855" type="Const" version="opset1">
			<data offset="54800" size="4" shape="" element_type="f32"/>
			<output>
				<port id="0" precision="FP32"/>
			</output>
		</layer>
		<layer id="126" name="6816854074" type="Const" version="opset1">
			<data offset="54804" size="4" shape="" element_type="f32"/>
			<output>
				<port id="0" precision="FP32"/>
			</output>
		</layer>
		<layer id="127" name="6826863810" type="Const" version="opset1">
			<data offset="54808" size="4" shape="" element_type="f32"/>
			<output>
				<port id="0" precision="FP32"/>
			</output>
		</layer>
		<layer id="128" name="const_fold_opt__1101123537" type="Const" version="opset1">
			<data offset="54812" size="9216" shape="16,16,3,3" element_type="f32"/>
			<rt_info>
				<attribute name="fused_names" version="0" value="const_fold_opt__110"/>
			</rt_info>
			<output>
				<port id="0" precision="FP32" names="const_fold_opt__110">
					<dim>16</dim>
					<dim>16</dim>
					<dim>3</dim>
					<dim>3</dim>
				</port>
			</output>
		</layer>
		<layer id="129" name="model/activation_1/Relu;model/batch_normalization_1/FusedBatchNormV3;model/conv2d_1/BiasAdd/ReadVariableOp/resource;model/conv2d_1/BiasAdd;model/conv2d_2/Conv2D;model/conv2d_1/Conv2D1/WithoutBiases/fq_weights_1" type="FakeQuantize" version="opset1">
			<data levels="65535" auto_broadcast="numpy"/>
			<input>
				<port id="0">
					<dim>16</dim>
					<dim>16</dim>
					<dim>3</dim>
					<dim>3</dim>
				</port>
				<port id="1"/>
				<port id="2"/>
				<port id="3"/>
				<port id="4"/>
			</input>
			<output>
				<port id="5" precision="FP32">
					<dim>16</dim>
					<dim>16</dim>
					<dim>3</dim>
					<dim>3</dim>
				</port>
			</output>
		</layer>
		<layer id="130" name="model/activation_1/Relu;model/batch_normalization_1/FusedBatchNormV3;model/conv2d_1/BiasAdd/ReadVariableOp/resource;model/conv2d_1/BiasAdd;model/conv2d_2/Conv2D;model/conv2d_1/Conv2D1/WithoutBiases" type="Convolution" version="opset1">
			<data auto_pad="explicit" strides="1,1" dilations="1,1" pads_begin="1,1" pads_end="1,1"/>
			<rt_info>
				<attribute name="fused_names" version="0" value="model/activation_1/Relu;model/batch_normalization_1/FusedBatchNormV3;model/conv2d_1/BiasAdd/ReadVariableOp/resource;model/conv2d_1/BiasAdd;model/conv2d_2/Conv2D;model/conv2d_1/Conv2D1/WithoutBiases"/>
			</rt_info>
			<input>
				<port id="0">
					<dim>1</dim>
					<dim>16</dim>
					<dim>32</dim>
					<dim>32</dim>
				</port>
				<port id="1">
					<dim>16</dim>
					<dim>16</dim>
					<dim>3</dim>
					<dim>3</dim>
				</port>
			</input>
			<output>
				<port id="2" precision="FP32">
					<dim>1</dim>
					<dim>16</dim>
					<dim>32</dim>
					<dim>32</dim>
				</port>
			</output>
		</layer>
		<layer id="131" name="model/activation_1/Relu;model/batch_normalization_1/FusedBatchNormV3;model/conv2d_1/BiasAdd/ReadVariableOp/resource;model/conv2d_1/BiasAdd;model/conv2d_2/Conv2D;model/conv2d_1/Conv2D1/Dims4691143942" type="Const" version="opset1">
			<data offset="64028" size="64" shape="1,16,1,1" element_type="f32"/>
			<rt_info>
				<attribute name="fused_names" version="0" value="model/activation_1/Relu;model/batch_normalization_1/FusedBatchNormV3;model/conv2d_1/BiasAdd/ReadVariableOp/resource;model/conv2d_1/BiasAdd;model/conv2d_2/Conv2D;model/conv2d_1/Conv2D1/Dims469"/>
			</rt_info>
			<output>
				<port id="0" precision="FP32">
					<dim>1</dim>
					<dim>16</dim>
					<dim>1</dim>
					<dim>1</dim>
				</port>
			</output>
		</layer>
		<layer id="132" name="model/activation_1/Relu;model/batch_normalization_1/FusedBatchNormV3;model/conv2d_1/BiasAdd/ReadVariableOp/resource;model/conv2d_1/BiasAdd;model/conv2d_2/Conv2D;model/conv2d_1/Conv2D1" type="Add" version="opset1">
			<data auto_broadcast="numpy"/>
			<rt_info>
				<attribute name="fused_names" version="0" value="model/activation_1/Relu;model/batch_normalization_1/FusedBatchNormV3;model/conv2d_1/BiasAdd/ReadVariableOp/resource;model/conv2d_1/BiasAdd;model/conv2d_2/Conv2D;model/conv2d_1/Conv2D1"/>
			</rt_info>
			<input>
				<port id="0">
					<dim>1</dim>
					<dim>16</dim>
					<dim>32</dim>
					<dim>32</dim>
				</port>
				<port id="1">
					<dim>1</dim>
					<dim>16</dim>
					<dim>1</dim>
					<dim>1</dim>
				</port>
			</input>
			<output>
				<port id="2" precision="FP32">
					<dim>1</dim>
					<dim>16</dim>
					<dim>32</dim>
					<dim>32</dim>
				</port>
			</output>
		</layer>
		<layer id="133" name="model/activation_1/Relu;model/batch_normalization_1/FusedBatchNormV3;model/conv2d_1/BiasAdd/ReadVariableOp/resource;model/conv2d_1/BiasAdd;model/conv2d_2/Conv2D;model/conv2d_1/Conv2D1/fq_output_0_0" type="FakeQuantize" version="opset1">
			<data levels="4294967296" auto_broadcast="numpy"/>
			<input>
				<port id="0">
					<dim>1</dim>
					<dim>16</dim>
					<dim>32</dim>
					<dim>32</dim>
				</port>
				<port id="1"/>
				<port id="2"/>
				<port id="3"/>
				<port id="4"/>
			</input>
			<output>
				<port id="5" precision="FP32" names="model/activation_1/Relu;model/batch_normalization_1/FusedBatchNormV3;model/conv2d_1/BiasAdd/ReadVariableOp/resource;model/conv2d_1/BiasAdd;model/conv2d_2/Conv2D;model/conv2d_1/Conv2D1">
					<dim>1</dim>
					<dim>16</dim>
					<dim>32</dim>
					<dim>32</dim>
				</port>
			</output>
		</layer>
		<layer id="134" name="Relu__8" type="ReLU" version="opset1">
			<rt_info>
				<attribute name="fused_names" version="0" value="Relu__8"/>
			</rt_info>
			<input>
				<port id="0">
					<dim>1</dim>
					<dim>16</dim>
					<dim>32</dim>
					<dim>32</dim>
				</port>
			</input>
			<output>
				<port id="1" precision="FP32">
					<dim>1</dim>
					<dim>16</dim>
					<dim>32</dim>
					<dim>32</dim>
				</port>
			</output>
		</layer>
		<layer id="135" name="Relu__8/fq_output_0_0" type="FakeQuantize" version="opset1">
			<data levels="65536" auto_broadcast="numpy"/>
			<input>
				<port id="0">
					<dim>1</dim>
					<dim>16</dim>
					<dim>32</dim>
					<dim>32</dim>
				</port>
				<port id="1"/>
				<port id="2"/>
				<port id="3"/>
				<port id="4"/>
			</input>
			<output>
				<port id="5" precision="FP32" names="Relu__8:0">
					<dim>1</dim>
					<dim>16</dim>
					<dim>32</dim>
					<dim>32</dim>
				</port>
			</output>
		</layer>
		<layer id="136" name="model/batch_normalization_2/FusedBatchNormV3;model/conv2d_2/BiasAdd/ReadVariableOp/resource;model/conv2d_2/BiasAdd;model/conv2d_2/Conv2D/WithoutBiases" type="Convolution" version="opset1">
			<data auto_pad="explicit" strides="1,1" dilations="1,1" pads_begin="1,1" pads_end="1,1"/>
			<rt_info>
				<attribute name="fused_names" version="0" value="model/batch_normalization_2/FusedBatchNormV3;model/conv2d_2/BiasAdd/ReadVariableOp/resource;model/conv2d_2/BiasAdd;model/conv2d_2/Conv2D/WithoutBiases"/>
			</rt_info>
			<input>
				<port id="0">
					<dim>1</dim>
					<dim>16</dim>
					<dim>32</dim>
					<dim>32</dim>
				</port>
				<port id="1">
					<dim>16</dim>
					<dim>16</dim>
					<dim>3</dim>
					<dim>3</dim>
				</port>
			</input>
			<output>
				<port id="2" precision="FP32">
					<dim>1</dim>
					<dim>16</dim>
					<dim>32</dim>
					<dim>32</dim>
				</port>
			</output>
		</layer>
		<layer id="137" name="model/batch_normalization_2/FusedBatchNormV3;model/conv2d_2/BiasAdd/ReadVariableOp/resource;model/conv2d_2/BiasAdd;model/conv2d_2/Conv2D/Dims4631193945" type="Const" version="opset1">
			<data offset="64092" size="64" shape="1,16,1,1" element_type="f32"/>
			<rt_info>
				<attribute name="fused_names" version="0" value="model/batch_normalization_2/FusedBatchNormV3;model/conv2d_2/BiasAdd/ReadVariableOp/resource;model/conv2d_2/BiasAdd;model/conv2d_2/Conv2D/Dims463"/>
			</rt_info>
			<output>
				<port id="0" precision="FP32">
					<dim>1</dim>
					<dim>16</dim>
					<dim>1</dim>
					<dim>1</dim>
				</port>
			</output>
		</layer>
		<layer id="138" name="model/batch_normalization_2/FusedBatchNormV3;model/conv2d_2/BiasAdd/ReadVariableOp/resource;model/conv2d_2/BiasAdd;model/conv2d_2/Conv2D" type="Add" version="opset1">
			<data auto_broadcast="numpy"/>
			<rt_info>
				<attribute name="fused_names" version="0" value="model/batch_normalization_2/FusedBatchNormV3;model/conv2d_2/BiasAdd/ReadVariableOp/resource;model/conv2d_2/BiasAdd;model/conv2d_2/Conv2D"/>
			</rt_info>
			<input>
				<port id="0">
					<dim>1</dim>
					<dim>16</dim>
					<dim>32</dim>
					<dim>32</dim>
				</port>
				<port id="1">
					<dim>1</dim>
					<dim>16</dim>
					<dim>1</dim>
					<dim>1</dim>
				</port>
			</input>
			<output>
				<port id="2" precision="FP32">
					<dim>1</dim>
					<dim>16</dim>
					<dim>32</dim>
					<dim>32</dim>
				</port>
			</output>
		</layer>
		<layer id="139" name="model/batch_normalization_2/FusedBatchNormV3;model/conv2d_2/BiasAdd/ReadVariableOp/resource;model/conv2d_2/BiasAdd;model/conv2d_2/Conv2D/fq_output_0_0" type="FakeQuantize" version="opset1">
			<data levels="65536" auto_broadcast="numpy"/>
			<input>
				<port id="0">
					<dim>1</dim>
					<dim>16</dim>
					<dim>32</dim>
					<dim>32</dim>
				</port>
				<port id="1"/>
				<port id="2"/>
				<port id="3"/>
				<port id="4"/>
			</input>
			<output>
				<port id="5" precision="FP32" names="model/batch_normalization_2/FusedBatchNormV3;model/conv2d_2/BiasAdd/ReadVariableOp/resource;model/conv2d_2/BiasAdd;model/conv2d_2/Conv2D">
					<dim>1</dim>
					<dim>16</dim>
					<dim>32</dim>
					<dim>32</dim>
				</port>
			</output>
		</layer>
		<layer id="140" name="model/activation_2/Relu;model/add/add" type="Add" version="opset1">
			<data auto_broadcast="numpy"/>
			<rt_info>
				<attribute name="fused_names" version="0" value="model/activation_2/Relu;model/add/add"/>
			</rt_info>
			<input>
				<port id="0">
					<dim>1</dim>
					<dim>16</dim>
					<dim>32</dim>
					<dim>32</dim>
				</port>
				<port id="1">
					<dim>1</dim>
					<dim>16</dim>
					<dim>32</dim>
					<dim>32</dim>
				</port>
			</input>
			<output>
				<port id="2" precision="FP32">
					<dim>1</dim>
					<dim>16</dim>
					<dim>32</dim>
					<dim>32</dim>
				</port>
			</output>
		</layer>
		<layer id="141" name="model/activation_2/Relu;model/add/add/fq_output_0_0" type="FakeQuantize" version="opset1">
			<data levels="4294967296" auto_broadcast="numpy"/>
			<input>
				<port id="0">
					<dim>1</dim>
					<dim>16</dim>
					<dim>32</dim>
					<dim>32</dim>
				</port>
				<port id="1"/>
				<port id="2"/>
				<port id="3"/>
				<port id="4"/>
			</input>
			<output>
				<port id="5" precision="FP32" names="model/activation_2/Relu;model/add/add">
					<dim>1</dim>
					<dim>16</dim>
					<dim>32</dim>
					<dim>32</dim>
				</port>
			</output>
		</layer>
		<layer id="142" name="Relu__12" type="ReLU" version="opset1">
			<rt_info>
				<attribute name="fused_names" version="0" value="Relu__12"/>
			</rt_info>
			<input>
				<port id="0">
					<dim>1</dim>
					<dim>16</dim>
					<dim>32</dim>
					<dim>32</dim>
				</port>
			</input>
			<output>
				<port id="1" precision="FP32">
					<dim>1</dim>
					<dim>16</dim>
					<dim>32</dim>
					<dim>32</dim>
				</port>
			</output>
		</layer>
		<layer id="143" name="Relu__12/fq_output_0_0" type="FakeQuantize" version="opset1">
			<data levels="65536" auto_broadcast="numpy"/>
			<input>
				<port id="0">
					<dim>1</dim>
					<dim>16</dim>
					<dim>32</dim>
					<dim>32</dim>
				</port>
				<port id="1"/>
				<port id="2"/>
				<port id="3"/>
				<port id="4"/>
			</input>
			<output>
				<port id="5" precision="FP32" names="Relu__12:0">
					<dim>1</dim>
					<dim>16</dim>
					<dim>32</dim>
					<dim>32</dim>
				</port>
			</output>
		</layer>
		<layer id="144" name="Convolution_130" type="Convolution" version="opset1">
			<data auto_pad="explicit" strides="2,2" dilations="1,1" pads_begin="0,0" pads_end="0,0"/>
			<input>
				<port id="0">
					<dim>1</dim>
					<dim>16</dim>
					<dim>32</dim>
					<dim>32</dim>
				</port>
				<port id="1">
					<dim>32</dim>
					<dim>16</dim>
					<dim>2</dim>
					<dim>2</dim>
				</port>
			</input>
			<output>
				<port id="2" precision="FP32">
					<dim>1</dim>
					<dim>32</dim>
					<dim>16</dim>
					<dim>16</dim>
				</port>
			</output>
		</layer>
		<layer id="145" name="model/conv2d_5/BiasAdd;model/conv2d_5/Conv2D;model/conv2d_5/BiasAdd/ReadVariableOp/resource1/Dims4571253744" type="Const" version="opset1">
			<data offset="64156" size="128" shape="1,32,1,1" element_type="f32"/>
			<rt_info>
				<attribute name="fused_names" version="0" value="model/conv2d_5/BiasAdd;model/conv2d_5/Conv2D;model/conv2d_5/BiasAdd/ReadVariableOp/resource1/Dims457"/>
			</rt_info>
			<output>
				<port id="0" precision="FP32">
					<dim>1</dim>
					<dim>32</dim>
					<dim>1</dim>
					<dim>1</dim>
				</port>
			</output>
		</layer>
		<layer id="146" name="model/conv2d_5/BiasAdd;model/conv2d_5/Conv2D;model/conv2d_5/BiasAdd/ReadVariableOp/resource1" type="Add" version="opset1">
			<data auto_broadcast="numpy"/>
			<rt_info>
				<attribute name="fused_names" version="0" value="model/conv2d_5/BiasAdd;model/conv2d_5/Conv2D;model/conv2d_5/BiasAdd/ReadVariableOp/resource1"/>
			</rt_info>
			<input>
				<port id="0">
					<dim>1</dim>
					<dim>32</dim>
					<dim>16</dim>
					<dim>16</dim>
				</port>
				<port id="1">
					<dim>1</dim>
					<dim>32</dim>
					<dim>1</dim>
					<dim>1</dim>
				</port>
			</input>
			<output>
				<port id="2" precision="FP32">
					<dim>1</dim>
					<dim>32</dim>
					<dim>16</dim>
					<dim>16</dim>
				</port>
			</output>
		</layer>
		<layer id="147" name="model/conv2d_5/BiasAdd;model/conv2d_5/Conv2D;model/conv2d_5/BiasAdd/ReadVariableOp/resource1/fq_output_0_0" type="FakeQuantize" version="opset1">
			<data levels="65536" auto_broadcast="numpy"/>
			<input>
				<port id="0">
					<dim>1</dim>
					<dim>32</dim>
					<dim>16</dim>
					<dim>16</dim>
				</port>
				<port id="1"/>
				<port id="2"/>
				<port id="3"/>
				<port id="4"/>
			</input>
			<output>
				<port id="5" precision="FP32" names="model/conv2d_5/BiasAdd;model/conv2d_5/Conv2D;model/conv2d_5/BiasAdd/ReadVariableOp/resource1">
					<dim>1</dim>
					<dim>32</dim>
					<dim>16</dim>
					<dim>16</dim>
				</port>
			</output>
		</layer>
		<layer id="148" name="9299334005" type="Const" version="opset1">
			<data offset="64284" size="4" shape="" element_type="f32"/>
			<output>
				<port id="0" precision="FP32"/>
			</output>
		</layer>
		<layer id="149" name="9309343729" type="Const" version="opset1">
			<data offset="64288" size="4" shape="" element_type="f32"/>
			<output>
				<port id="0" precision="FP32"/>
			</output>
		</layer>
		<layer id="150" name="9319353498" type="Const" version="opset1">
			<data offset="64284" size="4" shape="" element_type="f32"/>
			<output>
				<port id="0" precision="FP32"/>
			</output>
		</layer>
		<layer id="151" name="9329364113" type="Const" version="opset1">
			<data offset="64288" size="4" shape="" element_type="f32"/>
			<output>
				<port id="0" precision="FP32"/>
			</output>
		</layer>
		<layer id="152" name="9199234173" type="Const" version="opset1">
			<data offset="64292" size="4" shape="" element_type="f32"/>
			<output>
				<port id="0" precision="FP32"/>
			</output>
		</layer>
		<layer id="153" name="9209243720" type="Const" version="opset1">
			<data offset="64296" size="4" shape="" element_type="f32"/>
			<output>
				<port id="0" precision="FP32"/>
			</output>
		</layer>
		<layer id="154" name="9219253552" type="Const" version="opset1">
			<data offset="64292" size="4" shape="" element_type="f32"/>
			<output>
				<port id="0" precision="FP32"/>
			</output>
		</layer>
		<layer id="155" name="9229263627" type="Const" version="opset1">
			<data offset="64296" size="4" shape="" element_type="f32"/>
			<output>
				<port id="0" precision="FP32"/>
			</output>
		</layer>
		<layer id="156" name="const_fold_opt__1171323480" type="Const" version="opset1">
			<data offset="64300" size="36864" shape="32,32,3,3" element_type="f32"/>
			<rt_info>
				<attribute name="fused_names" version="0" value="const_fold_opt__117"/>
			</rt_info>
			<output>
				<port id="0" precision="FP32" names="const_fold_opt__117">
					<dim>32</dim>
					<dim>32</dim>
					<dim>3</dim>
					<dim>3</dim>
				</port>
			</output>
		</layer>
		<layer id="157" name="model/batch_normalization_4/FusedBatchNormV3;model/conv2d_4/BiasAdd/ReadVariableOp/resource;model/conv2d_4/BiasAdd;model/conv2d_5/Conv2D;model/conv2d_4/Conv2D/WithoutBiases/fq_weights_1" type="FakeQuantize" version="opset1">
			<data levels="65535" auto_broadcast="numpy"/>
			<input>
				<port id="0">
					<dim>32</dim>
					<dim>32</dim>
					<dim>3</dim>
					<dim>3</dim>
				</port>
				<port id="1"/>
				<port id="2"/>
				<port id="3"/>
				<port id="4"/>
			</input>
			<output>
				<port id="5" precision="FP32">
					<dim>32</dim>
					<dim>32</dim>
					<dim>3</dim>
					<dim>3</dim>
				</port>
			</output>
		</layer>
		<layer id="158" name="6596633894" type="Const" version="opset1">
			<data offset="101164" size="4" shape="" element_type="f32"/>
			<output>
				<port id="0" precision="FP32"/>
			</output>
		</layer>
		<layer id="159" name="6606643648" type="Const" version="opset1">
			<data offset="101168" size="4" shape="" element_type="f32"/>
			<output>
				<port id="0" precision="FP32"/>
			</output>
		</layer>
		<layer id="160" name="6616653756" type="Const" version="opset1">
			<data offset="101164" size="4" shape="" element_type="f32"/>
			<output>
				<port id="0" precision="FP32"/>
			</output>
		</layer>
		<layer id="161" name="6626663513" type="Const" version="opset1">
			<data offset="101168" size="4" shape="" element_type="f32"/>
			<output>
				<port id="0" precision="FP32"/>
			</output>
		</layer>
		<layer id="162" name="112911333774" type="Const" version="opset1">
			<data offset="101172" size="4" shape="" element_type="f32"/>
			<output>
				<port id="0" precision="FP32"/>
			</output>
		</layer>
		<layer id="163" name="113011344080" type="Const" version="opset1">
			<data offset="101168" size="4" shape="" element_type="f32"/>
			<output>
				<port id="0" precision="FP32"/>
			</output>
		</layer>
		<layer id="164" name="113111353966" type="Const" version="opset1">
			<data offset="101172" size="4" shape="" element_type="f32"/>
			<output>
				<port id="0" precision="FP32"/>
			</output>
		</layer>
		<layer id="165" name="113211363696" type="Const" version="opset1">
			<data offset="101168" size="4" shape="" element_type="f32"/>
			<output>
				<port id="0" precision="FP32"/>
			</output>
		</layer>
		<layer id="166" name="111911233630" type="Const" version="opset1">
			<data offset="101176" size="4" shape="" element_type="f32"/>
			<output>
				<port id="0" precision="FP32"/>
			</output>
		</layer>
		<layer id="167" name="112011243906" type="Const" version="opset1">
			<data offset="101180" size="4" shape="" element_type="f32"/>
			<output>
				<port id="0" precision="FP32"/>
			</output>
		</layer>
		<layer id="168" name="112111253564" type="Const" version="opset1">
			<data offset="101176" size="4" shape="" element_type="f32"/>
			<output>
				<port id="0" precision="FP32"/>
			</output>
		</layer>
		<layer id="169" name="112211264092" type="Const" version="opset1">
			<data offset="101180" size="4" shape="" element_type="f32"/>
			<output>
				<port id="0" precision="FP32"/>
			</output>
		</layer>
		<layer id="170" name="const_fold_opt__1211273642" type="Const" version="opset1">
			<data offset="101184" size="18432" shape="32,16,3,3" element_type="f32"/>
			<rt_info>
				<attribute name="fused_names" version="0" value="const_fold_opt__121"/>
			</rt_info>
			<output>
				<port id="0" precision="FP32" names="const_fold_opt__121">
					<dim>32</dim>
					<dim>16</dim>
					<dim>3</dim>
					<dim>3</dim>
				</port>
			</output>
		</layer>
		<layer id="171" name="model/activation_3/Relu;model/batch_normalization_3/FusedBatchNormV3;model/conv2d_3/BiasAdd/ReadVariableOp/resource;model/conv2d_3/BiasAdd;model/conv2d_5/Conv2D;model/conv2d_3/Conv2D1/WithoutBiases/fq_weights_1" type="FakeQuantize" version="opset1">
			<data levels="65535" auto_broadcast="numpy"/>
			<input>
				<port id="0">
					<dim>32</dim>
					<dim>16</dim>
					<dim>3</dim>
					<dim>3</dim>
				</port>
				<port id="1"/>
				<port id="2"/>
				<port id="3"/>
				<port id="4"/>
			</input>
			<output>
				<port id="5" precision="FP32">
					<dim>32</dim>
					<dim>16</dim>
					<dim>3</dim>
					<dim>3</dim>
				</port>
			</output>
		</layer>
		<layer id="172" name="model/activation_3/Relu;model/batch_normalization_3/FusedBatchNormV3;model/conv2d_3/BiasAdd/ReadVariableOp/resource;model/conv2d_3/BiasAdd;model/conv2d_5/Conv2D;model/conv2d_3/Conv2D1/WithoutBiases" type="Convolution" version="opset1">
			<data auto_pad="explicit" strides="2,2" dilations="1,1" pads_begin="0,0" pads_end="1,1"/>
			<rt_info>
				<attribute name="fused_names" version="0" value="model/activation_3/Relu;model/batch_normalization_3/FusedBatchNormV3;model/conv2d_3/BiasAdd/ReadVariableOp/resource;model/conv2d_3/BiasAdd;model/conv2d_5/Conv2D;model/conv2d_3/Conv2D1/WithoutBiases"/>
			</rt_info>
			<input>
				<port id="0">
					<dim>1</dim>
					<dim>16</dim>
					<dim>32</dim>
					<dim>32</dim>
				</port>
				<port id="1">
					<dim>32</dim>
					<dim>16</dim>
					<dim>3</dim>
					<dim>3</dim>
				</port>
			</input>
			<output>
				<port id="2" precision="FP32">
					<dim>1</dim>
					<dim>32</dim>
					<dim>16</dim>
					<dim>16</dim>
				</port>
			</output>
		</layer>
		<layer id="173" name="model/activation_3/Relu;model/batch_normalization_3/FusedBatchNormV3;model/conv2d_3/BiasAdd/ReadVariableOp/resource;model/conv2d_3/BiasAdd;model/conv2d_5/Conv2D;model/conv2d_3/Conv2D1/Dims4511293978" type="Const" version="opset1">
			<data offset="119616" size="128" shape="1,32,1,1" element_type="f32"/>
			<rt_info>
				<attribute name="fused_names" version="0" value="model/activation_3/Relu;model/batch_normalization_3/FusedBatchNormV3;model/conv2d_3/BiasAdd/ReadVariableOp/resource;model/conv2d_3/BiasAdd;model/conv2d_5/Conv2D;model/conv2d_3/Conv2D1/Dims451"/>
			</rt_info>
			<output>
				<port id="0" precision="FP32">
					<dim>1</dim>
					<dim>32</dim>
					<dim>1</dim>
					<dim>1</dim>
				</port>
			</output>
		</layer>
		<layer id="174" name="model/activation_3/Relu;model/batch_normalization_3/FusedBatchNormV3;model/conv2d_3/BiasAdd/ReadVariableOp/resource;model/conv2d_3/BiasAdd;model/conv2d_5/Conv2D;model/conv2d_3/Conv2D1" type="Add" version="opset1">
			<data auto_broadcast="numpy"/>
			<rt_info>
				<attribute name="fused_names" version="0" value="model/activation_3/Relu;model/batch_normalization_3/FusedBatchNormV3;model/conv2d_3/BiasAdd/ReadVariableOp/resource;model/conv2d_3/BiasAdd;model/conv2d_5/Conv2D;model/conv2d_3/Conv2D1"/>
			</rt_info>
			<input>
				<port id="0">
					<dim>1</dim>
					<dim>32</dim>
					<dim>16</dim>
					<dim>16</dim>
				</port>
				<port id="1">
					<dim>1</dim>
					<dim>32</dim>
					<dim>1</dim>
					<dim>1</dim>
				</port>
			</input>
			<output>
				<port id="2" precision="FP32">
					<dim>1</dim>
					<dim>32</dim>
					<dim>16</dim>
					<dim>16</dim>
				</port>
			</output>
		</layer>
		<layer id="175" name="model/activation_3/Relu;model/batch_normalization_3/FusedBatchNormV3;model/conv2d_3/BiasAdd/ReadVariableOp/resource;model/conv2d_3/BiasAdd;model/conv2d_5/Conv2D;model/conv2d_3/Conv2D1/fq_output_0_0" type="FakeQuantize" version="opset1">
			<data levels="4294967296" auto_broadcast="numpy"/>
			<input>
				<port id="0">
					<dim>1</dim>
					<dim>32</dim>
					<dim>16</dim>
					<dim>16</dim>
				</port>
				<port id="1"/>
				<port id="2"/>
				<port id="3"/>
				<port id="4"/>
			</input>
			<output>
				<port id="5" precision="FP32" names="model/activation_3/Relu;model/batch_normalization_3/FusedBatchNormV3;model/conv2d_3/BiasAdd/ReadVariableOp/resource;model/conv2d_3/BiasAdd;model/conv2d_5/Conv2D;model/conv2d_3/Conv2D1">
					<dim>1</dim>
					<dim>32</dim>
					<dim>16</dim>
					<dim>16</dim>
				</port>
			</output>
		</layer>
		<layer id="176" name="Relu__14" type="ReLU" version="opset1">
			<rt_info>
				<attribute name="fused_names" version="0" value="Relu__14"/>
			</rt_info>
			<input>
				<port id="0">
					<dim>1</dim>
					<dim>32</dim>
					<dim>16</dim>
					<dim>16</dim>
				</port>
			</input>
			<output>
				<port id="1" precision="FP32">
					<dim>1</dim>
					<dim>32</dim>
					<dim>16</dim>
					<dim>16</dim>
				</port>
			</output>
		</layer>
		<layer id="177" name="Relu__14/fq_output_0_0" type="FakeQuantize" version="opset1">
			<data levels="65536" auto_broadcast="numpy"/>
			<input>
				<port id="0">
					<dim>1</dim>
					<dim>32</dim>
					<dim>16</dim>
					<dim>16</dim>
				</port>
				<port id="1"/>
				<port id="2"/>
				<port id="3"/>
				<port id="4"/>
			</input>
			<output>
				<port id="5" precision="FP32" names="Relu__14:0">
					<dim>1</dim>
					<dim>32</dim>
					<dim>16</dim>
					<dim>16</dim>
				</port>
			</output>
		</layer>
		<layer id="178" name="model/batch_normalization_4/FusedBatchNormV3;model/conv2d_4/BiasAdd/ReadVariableOp/resource;model/conv2d_4/BiasAdd;model/conv2d_5/Conv2D;model/conv2d_4/Conv2D/WithoutBiases" type="Convolution" version="opset1">
			<data auto_pad="explicit" strides="1,1" dilations="1,1" pads_begin="1,1" pads_end="1,1"/>
			<rt_info>
				<attribute name="fused_names" version="0" value="model/batch_normalization_4/FusedBatchNormV3;model/conv2d_4/BiasAdd/ReadVariableOp/resource;model/conv2d_4/BiasAdd;model/conv2d_5/Conv2D;model/conv2d_4/Conv2D/WithoutBiases"/>
			</rt_info>
			<input>
				<port id="0">
					<dim>1</dim>
					<dim>32</dim>
					<dim>16</dim>
					<dim>16</dim>
				</port>
				<port id="1">
					<dim>32</dim>
					<dim>32</dim>
					<dim>3</dim>
					<dim>3</dim>
				</port>
			</input>
			<output>
				<port id="2" precision="FP32">
					<dim>1</dim>
					<dim>32</dim>
					<dim>16</dim>
					<dim>16</dim>
				</port>
			</output>
		</layer>
		<layer id="179" name="model/batch_normalization_4/FusedBatchNormV3;model/conv2d_4/BiasAdd/ReadVariableOp/resource;model/conv2d_4/BiasAdd;model/conv2d_5/Conv2D;model/conv2d_4/Conv2D/Dims4751343591" type="Const" version="opset1">
			<data offset="119744" size="128" shape="1,32,1,1" element_type="f32"/>
			<rt_info>
				<attribute name="fused_names" version="0" value="model/batch_normalization_4/FusedBatchNormV3;model/conv2d_4/BiasAdd/ReadVariableOp/resource;model/conv2d_4/BiasAdd;model/conv2d_5/Conv2D;model/conv2d_4/Conv2D/Dims475"/>
			</rt_info>
			<output>
				<port id="0" precision="FP32">
					<dim>1</dim>
					<dim>32</dim>
					<dim>1</dim>
					<dim>1</dim>
				</port>
			</output>
		</layer>
		<layer id="180" name="model/batch_normalization_4/FusedBatchNormV3;model/conv2d_4/BiasAdd/ReadVariableOp/resource;model/conv2d_4/BiasAdd;model/conv2d_5/Conv2D;model/conv2d_4/Conv2D" type="Add" version="opset1">
			<data auto_broadcast="numpy"/>
			<rt_info>
				<attribute name="fused_names" version="0" value="model/batch_normalization_4/FusedBatchNormV3;model/conv2d_4/BiasAdd/ReadVariableOp/resource;model/conv2d_4/BiasAdd;model/conv2d_5/Conv2D;model/conv2d_4/Conv2D"/>
			</rt_info>
			<input>
				<port id="0">
					<dim>1</dim>
					<dim>32</dim>
					<dim>16</dim>
					<dim>16</dim>
				</port>
				<port id="1">
					<dim>1</dim>
					<dim>32</dim>
					<dim>1</dim>
					<dim>1</dim>
				</port>
			</input>
			<output>
				<port id="2" precision="FP32">
					<dim>1</dim>
					<dim>32</dim>
					<dim>16</dim>
					<dim>16</dim>
				</port>
			</output>
		</layer>
		<layer id="181" name="model/batch_normalization_4/FusedBatchNormV3;model/conv2d_4/BiasAdd/ReadVariableOp/resource;model/conv2d_4/BiasAdd;model/conv2d_5/Conv2D;model/conv2d_4/Conv2D/fq_output_0_0" type="FakeQuantize" version="opset1">
			<data levels="65536" auto_broadcast="numpy"/>
			<input>
				<port id="0">
					<dim>1</dim>
					<dim>32</dim>
					<dim>16</dim>
					<dim>16</dim>
				</port>
				<port id="1"/>
				<port id="2"/>
				<port id="3"/>
				<port id="4"/>
			</input>
			<output>
				<port id="5" precision="FP32" names="model/batch_normalization_4/FusedBatchNormV3;model/conv2d_4/BiasAdd/ReadVariableOp/resource;model/conv2d_4/BiasAdd;model/conv2d_5/Conv2D;model/conv2d_4/Conv2D">
					<dim>1</dim>
					<dim>32</dim>
					<dim>16</dim>
					<dim>16</dim>
				</port>
			</output>
		</layer>
		<layer id="182" name="model/activation_4/Relu;model/add_1/add" type="Add" version="opset1">
			<data auto_broadcast="numpy"/>
			<rt_info>
				<attribute name="fused_names" version="0" value="model/activation_4/Relu;model/add_1/add"/>
			</rt_info>
			<input>
				<port id="0">
					<dim>1</dim>
					<dim>32</dim>
					<dim>16</dim>
					<dim>16</dim>
				</port>
				<port id="1">
					<dim>1</dim>
					<dim>32</dim>
					<dim>16</dim>
					<dim>16</dim>
				</port>
			</input>
			<output>
				<port id="2" precision="FP32">
					<dim>1</dim>
					<dim>32</dim>
					<dim>16</dim>
					<dim>16</dim>
				</port>
			</output>
		</layer>
		<layer id="183" name="model/activation_4/Relu;model/add_1/add/fq_output_0_0" type="FakeQuantize" version="opset1">
			<data levels="4294967296" auto_broadcast="numpy"/>
			<input>
				<port id="0">
					<dim>1</dim>
					<dim>32</dim>
					<dim>16</dim>
					<dim>16</dim>
				</port>
				<port id="1"/>
				<port id="2"/>
				<port id="3"/>
				<port id="4"/>
			</input>
			<output>
				<port id="5" precision="FP32" names="model/activation_4/Relu;model/add_1/add">
					<dim>1</dim>
					<dim>32</dim>
					<dim>16</dim>
					<dim>16</dim>
				</port>
			</output>
		</layer>
		<layer id="184" name="Relu__19" type="ReLU" version="opset1">
			<rt_info>
				<attribute name="fused_names" version="0" value="Relu__19"/>
			</rt_info>
			<input>
				<port id="0">
					<dim>1</dim>
					<dim>32</dim>
					<dim>16</dim>
					<dim>16</dim>
				</port>
			</input>
			<output>
				<port id="1" precision="FP32">
					<dim>1</dim>
					<dim>32</dim>
					<dim>16</dim>
					<dim>16</dim>
				</port>
			</output>
		</layer>
		<layer id="185" name="Relu__19/fq_output_0_0" type="FakeQuantize" version="opset1">
			<data levels="65536" auto_broadcast="numpy"/>
			<input>
				<port id="0">
					<dim>1</dim>
					<dim>32</dim>
					<dim>16</dim>
					<dim>16</dim>
				</port>
				<port id="1"/>
				<port id="2"/>
				<port id="3"/>
				<port id="4"/>
			</input>
			<output>
				<port id="5" precision="FP32" names="Relu__19:0">
					<dim>1</dim>
					<dim>32</dim>
					<dim>16</dim>
					<dim>16</dim>
				</port>
			</output>
		</layer>
		<layer id="186" name="Convolution_132" type="Convolution" version="opset1">
			<data auto_pad="explicit" strides="2,2" dilations="1,1" pads_begin="0,0" pads_end="0,0"/>
			<input>
				<port id="0">
					<dim>1</dim>
					<dim>32</dim>
					<dim>16</dim>
					<dim>16</dim>
				</port>
				<port id="1">
					<dim>64</dim>
					<dim>32</dim>
					<dim>2</dim>
					<dim>2</dim>
				</port>
			</input>
			<output>
				<port id="2" precision="FP32">
					<dim>1</dim>
					<dim>64</dim>
					<dim>8</dim>
					<dim>8</dim>
				</port>
			</output>
		</layer>
		<layer id="187" name="model/conv2d_8/BiasAdd;model/conv2d_8/Conv2D;model/conv2d_8/BiasAdd/ReadVariableOp/resource1/Dims4811404026" type="Const" version="opset1">
			<data offset="119872" size="256" shape="1,64,1,1" element_type="f32"/>
			<rt_info>
				<attribute name="fused_names" version="0" value="model/conv2d_8/BiasAdd;model/conv2d_8/Conv2D;model/conv2d_8/BiasAdd/ReadVariableOp/resource1/Dims481"/>
			</rt_info>
			<output>
				<port id="0" precision="FP32">
					<dim>1</dim>
					<dim>64</dim>
					<dim>1</dim>
					<dim>1</dim>
				</port>
			</output>
		</layer>
		<layer id="188" name="model/conv2d_8/BiasAdd;model/conv2d_8/Conv2D;model/conv2d_8/BiasAdd/ReadVariableOp/resource1" type="Add" version="opset1">
			<data auto_broadcast="numpy"/>
			<rt_info>
				<attribute name="fused_names" version="0" value="model/conv2d_8/BiasAdd;model/conv2d_8/Conv2D;model/conv2d_8/BiasAdd/ReadVariableOp/resource1"/>
			</rt_info>
			<input>
				<port id="0">
					<dim>1</dim>
					<dim>64</dim>
					<dim>8</dim>
					<dim>8</dim>
				</port>
				<port id="1">
					<dim>1</dim>
					<dim>64</dim>
					<dim>1</dim>
					<dim>1</dim>
				</port>
			</input>
			<output>
				<port id="2" precision="FP32">
					<dim>1</dim>
					<dim>64</dim>
					<dim>8</dim>
					<dim>8</dim>
				</port>
			</output>
		</layer>
		<layer id="189" name="model/conv2d_8/BiasAdd;model/conv2d_8/Conv2D;model/conv2d_8/BiasAdd/ReadVariableOp/resource1/fq_output_0_0" type="FakeQuantize" version="opset1">
			<data levels="65536" auto_broadcast="numpy"/>
			<input>
				<port id="0">
					<dim>1</dim>
					<dim>64</dim>
					<dim>8</dim>
					<dim>8</dim>
				</port>
				<port id="1"/>
				<port id="2"/>
				<port id="3"/>
				<port id="4"/>
			</input>
			<output>
				<port id="5" precision="FP32" names="model/conv2d_8/BiasAdd;model/conv2d_8/Conv2D;model/conv2d_8/BiasAdd/ReadVariableOp/resource1">
					<dim>1</dim>
					<dim>64</dim>
					<dim>8</dim>
					<dim>8</dim>
				</port>
			</output>
		</layer>
		<layer id="190" name="121912233948" type="Const" version="opset1">
			<data offset="120128" size="4" shape="" element_type="f32"/>
			<output>
				<port id="0" precision="FP32"/>
			</output>
		</layer>
		<layer id="191" name="122012243510" type="Const" version="opset1">
			<data offset="120132" size="4" shape="" element_type="f32"/>
			<output>
				<port id="0" precision="FP32"/>
			</output>
		</layer>
		<layer id="192" name="122112253870" type="Const" version="opset1">
			<data offset="120128" size="4" shape="" element_type="f32"/>
			<output>
				<port id="0" precision="FP32"/>
			</output>
		</layer>
		<layer id="193" name="122212264044" type="Const" version="opset1">
			<data offset="120132" size="4" shape="" element_type="f32"/>
			<output>
				<port id="0" precision="FP32"/>
			</output>
		</layer>
		<layer id="194" name="120912133924" type="Const" version="opset1">
			<data offset="120136" size="4" shape="" element_type="f32"/>
			<output>
				<port id="0" precision="FP32"/>
			</output>
		</layer>
		<layer id="195" name="121012143636" type="Const" version="opset1">
			<data offset="120140" size="4" shape="" element_type="f32"/>
			<output>
				<port id="0" precision="FP32"/>
			</output>
		</layer>
		<layer id="196" name="121112153951" type="Const" version="opset1">
			<data offset="120144" size="4" shape="" element_type="f32"/>
			<output>
				<port id="0" precision="FP32"/>
			</output>
		</layer>
		<layer id="197" name="121212163750" type="Const" version="opset1">
			<data offset="120148" size="4" shape="" element_type="f32"/>
			<output>
				<port id="0" precision="FP32"/>
			</output>
		</layer>
		<layer id="198" name="const_fold_opt__1231474128" type="Const" version="opset1">
			<data offset="120152" size="147456" shape="64,64,3,3" element_type="f32"/>
			<rt_info>
				<attribute name="fused_names" version="0" value="const_fold_opt__123"/>
			</rt_info>
			<output>
				<port id="0" precision="FP32" names="const_fold_opt__123">
					<dim>64</dim>
					<dim>64</dim>
					<dim>3</dim>
					<dim>3</dim>
				</port>
			</output>
		</layer>
		<layer id="199" name="model/batch_normalization_6/FusedBatchNormV3;model/conv2d_7/BiasAdd/ReadVariableOp/resource;model/conv2d_7/BiasAdd;model/conv2d_8/Conv2D;model/conv2d_7/Conv2D/WithoutBiases/fq_weights_1" type="FakeQuantize" version="opset1">
			<data levels="65535" auto_broadcast="numpy"/>
			<input>
				<port id="0">
					<dim>64</dim>
					<dim>64</dim>
					<dim>3</dim>
					<dim>3</dim>
				</port>
				<port id="1"/>
				<port id="2"/>
				<port id="3"/>
				<port id="4"/>
			</input>
			<output>
				<port id="5" precision="FP32">
					<dim>64</dim>
					<dim>64</dim>
					<dim>3</dim>
					<dim>3</dim>
				</port>
			</output>
		</layer>
		<layer id="200" name="8198233666" type="Const" version="opset1">
			<data offset="267608" size="4" shape="" element_type="f32"/>
			<output>
				<port id="0" precision="FP32"/>
			</output>
		</layer>
		<layer id="201" name="8208243573" type="Const" version="opset1">
			<data offset="267612" size="4" shape="" element_type="f32"/>
			<output>
				<port id="0" precision="FP32"/>
			</output>
		</layer>
		<layer id="202" name="8218253732" type="Const" version="opset1">
			<data offset="267608" size="4" shape="" element_type="f32"/>
			<output>
				<port id="0" precision="FP32"/>
			</output>
		</layer>
		<layer id="203" name="8228264002" type="Const" version="opset1">
			<data offset="267612" size="4" shape="" element_type="f32"/>
			<output>
				<port id="0" precision="FP32"/>
			</output>
		</layer>
		<layer id="204" name="4194234104" type="Const" version="opset1">
			<data offset="267616" size="4" shape="" element_type="f32"/>
			<output>
				<port id="0" precision="FP32"/>
			</output>
		</layer>
		<layer id="205" name="4204243864" type="Const" version="opset1">
			<data offset="267620" size="4" shape="" element_type="f32"/>
			<output>
				<port id="0" precision="FP32"/>
			</output>
		</layer>
		<layer id="206" name="4214253780" type="Const" version="opset1">
			<data offset="267616" size="4" shape="" element_type="f32"/>
			<output>
				<port id="0" precision="FP32"/>
			</output>
		</layer>
		<layer id="207" name="4224264155" type="Const" version="opset1">
			<data offset="267620" size="4" shape="" element_type="f32"/>
			<output>
				<port id="0" precision="FP32"/>
			</output>
		</layer>
		<layer id="208" name="4094134041" type="Const" version="opset1">
			<data offset="267624" size="4" shape="" element_type="f32"/>
			<output>
				<port id="0" precision="FP32"/>
			</output>
		</layer>
		<layer id="209" name="4104144116" type="Const" version="opset1">
			<data offset="267628" size="4" shape="" element_type="f32"/>
			<output>
				<port id="0" precision="FP32"/>
			</output>
		</layer>
		<layer id="210" name="4114154068" type="Const" version="opset1">
			<data offset="267632" size="4" shape="" element_type="f32"/>
			<output>
				<port id="0" precision="FP32"/>
			</output>
		</layer>
		<layer id="211" name="4124163594" type="Const" version="opset1">
			<data offset="267636" size="4" shape="" element_type="f32"/>
			<output>
				<port id="0" precision="FP32"/>
			</output>
		</layer>
		<layer id="212" name="const_fold_opt__1121423687" type="Const" version="opset1">
			<data offset="267640" size="73728" shape="64,32,3,3" element_type="f32"/>
			<rt_info>
				<attribute name="fused_names" version="0" value="const_fold_opt__112"/>
			</rt_info>
			<output>
				<port id="0" precision="FP32" names="const_fold_opt__112">
					<dim>64</dim>
					<dim>32</dim>
					<dim>3</dim>
					<dim>3</dim>
				</port>
			</output>
		</layer>
		<layer id="213" name="model/activation_5/Relu;model/batch_normalization_5/FusedBatchNormV3;model/conv2d_6/BiasAdd/ReadVariableOp/resource;model/conv2d_6/BiasAdd;model/conv2d_8/Conv2D;model/conv2d_6/Conv2D1/WithoutBiases/fq_weights_1" type="FakeQuantize" version="opset1">
			<data levels="65535" auto_broadcast="numpy"/>
			<input>
				<port id="0">
					<dim>64</dim>
					<dim>32</dim>
					<dim>3</dim>
					<dim>3</dim>
				</port>
				<port id="1"/>
				<port id="2"/>
				<port id="3"/>
				<port id="4"/>
			</input>
			<output>
				<port id="5" precision="FP32">
					<dim>64</dim>
					<dim>32</dim>
					<dim>3</dim>
					<dim>3</dim>
				</port>
			</output>
		</layer>
		<layer id="214" name="model/activation_5/Relu;model/batch_normalization_5/FusedBatchNormV3;model/conv2d_6/BiasAdd/ReadVariableOp/resource;model/conv2d_6/BiasAdd;model/conv2d_8/Conv2D;model/conv2d_6/Conv2D1/WithoutBiases" type="Convolution" version="opset1">
			<data auto_pad="explicit" strides="2,2" dilations="1,1" pads_begin="0,0" pads_end="1,1"/>
			<rt_info>
				<attribute name="fused_names" version="0" value="model/activation_5/Relu;model/batch_normalization_5/FusedBatchNormV3;model/conv2d_6/BiasAdd/ReadVariableOp/resource;model/conv2d_6/BiasAdd;model/conv2d_8/Conv2D;model/conv2d_6/Conv2D1/WithoutBiases"/>
			</rt_info>
			<input>
				<port id="0">
					<dim>1</dim>
					<dim>32</dim>
					<dim>16</dim>
					<dim>16</dim>
				</port>
				<port id="1">
					<dim>64</dim>
					<dim>32</dim>
					<dim>3</dim>
					<dim>3</dim>
				</port>
			</input>
			<output>
				<port id="2" precision="FP32">
					<dim>1</dim>
					<dim>64</dim>
					<dim>8</dim>
					<dim>8</dim>
				</port>
			</output>
		</layer>
		<layer id="215" name="model/activation_5/Relu;model/batch_normalization_5/FusedBatchNormV3;model/conv2d_6/BiasAdd/ReadVariableOp/resource;model/conv2d_6/BiasAdd;model/conv2d_8/Conv2D;model/conv2d_6/Conv2D1/Dims4871444119" type="Const" version="opset1">
			<data offset="341368" size="256" shape="1,64,1,1" element_type="f32"/>
			<rt_info>
				<attribute name="fused_names" version="0" value="model/activation_5/Relu;model/batch_normalization_5/FusedBatchNormV3;model/conv2d_6/BiasAdd/ReadVariableOp/resource;model/conv2d_6/BiasAdd;model/conv2d_8/Conv2D;model/conv2d_6/Conv2D1/Dims487"/>
			</rt_info>
			<output>
				<port id="0" precision="FP32">
					<dim>1</dim>
					<dim>64</dim>
					<dim>1</dim>
					<dim>1</dim>
				</port>
			</output>
		</layer>
		<layer id="216" name="model/activation_5/Relu;model/batch_normalization_5/FusedBatchNormV3;model/conv2d_6/BiasAdd/ReadVariableOp/resource;model/conv2d_6/BiasAdd;model/conv2d_8/Conv2D;model/conv2d_6/Conv2D1" type="Add" version="opset1">
			<data auto_broadcast="numpy"/>
			<rt_info>
				<attribute name="fused_names" version="0" value="model/activation_5/Relu;model/batch_normalization_5/FusedBatchNormV3;model/conv2d_6/BiasAdd/ReadVariableOp/resource;model/conv2d_6/BiasAdd;model/conv2d_8/Conv2D;model/conv2d_6/Conv2D1"/>
			</rt_info>
			<input>
				<port id="0">
					<dim>1</dim>
					<dim>64</dim>
					<dim>8</dim>
					<dim>8</dim>
				</port>
				<port id="1">
					<dim>1</dim>
					<dim>64</dim>
					<dim>1</dim>
					<dim>1</dim>
				</port>
			</input>
			<output>
				<port id="2" precision="FP32">
					<dim>1</dim>
					<dim>64</dim>
					<dim>8</dim>
					<dim>8</dim>
				</port>
			</output>
		</layer>
		<layer id="217" name="model/activation_5/Relu;model/batch_normalization_5/FusedBatchNormV3;model/conv2d_6/BiasAdd/ReadVariableOp/resource;model/conv2d_6/BiasAdd;model/conv2d_8/Conv2D;model/conv2d_6/Conv2D1/fq_output_0_0" type="FakeQuantize" version="opset1">
			<data levels="4294967296" auto_broadcast="numpy"/>
			<input>
				<port id="0">
					<dim>1</dim>
					<dim>64</dim>
					<dim>8</dim>
					<dim>8</dim>
				</port>
				<port id="1"/>
				<port id="2"/>
				<port id="3"/>
				<port id="4"/>
			</input>
			<output>
				<port id="5" precision="FP32" names="model/activation_5/Relu;model/batch_normalization_5/FusedBatchNormV3;model/conv2d_6/BiasAdd/ReadVariableOp/resource;model/conv2d_6/BiasAdd;model/conv2d_8/Conv2D;model/conv2d_6/Conv2D1">
					<dim>1</dim>
					<dim>64</dim>
					<dim>8</dim>
					<dim>8</dim>
				</port>
			</output>
		</layer>
		<layer id="218" name="Relu__21" type="ReLU" version="opset1">
			<rt_info>
				<attribute name="fused_names" version="0" value="Relu__21"/>
			</rt_info>
			<input>
				<port id="0">
					<dim>1</dim>
					<dim>64</dim>
					<dim>8</dim>
					<dim>8</dim>
				</port>
			</input>
			<output>
				<port id="1" precision="FP32">
					<dim>1</dim>
					<dim>64</dim>
					<dim>8</dim>
					<dim>8</dim>
				</port>
			</output>
		</layer>
		<layer id="219" name="Relu__21/fq_output_0_0" type="FakeQuantize" version="opset1">
			<data levels="65536" auto_broadcast="numpy"/>
			<input>
				<port id="0">
					<dim>1</dim>
					<dim>64</dim>
					<dim>8</dim>
					<dim>8</dim>
				</port>
				<port id="1"/>
				<port id="2"/>
				<port id="3"/>
				<port id="4"/>
			</input>
			<output>
				<port id="5" precision="FP32" names="Relu__21:0">
					<dim>1</dim>
					<dim>64</dim>
					<dim>8</dim>
					<dim>8</dim>
				</port>
			</output>
		</layer>
		<layer id="220" name="model/batch_normalization_6/FusedBatchNormV3;model/conv2d_7/BiasAdd/ReadVariableOp/resource;model/conv2d_7/BiasAdd;model/conv2d_8/Conv2D;model/conv2d_7/Conv2D/WithoutBiases" type="Convolution" version="opset1">
			<data auto_pad="explicit" strides="1,1" dilations="1,1" pads_begin="1,1" pads_end="1,1"/>
			<rt_info>
				<attribute name="fused_names" version="0" value="model/batch_normalization_6/FusedBatchNormV3;model/conv2d_7/BiasAdd/ReadVariableOp/resource;model/conv2d_7/BiasAdd;model/conv2d_8/Conv2D;model/conv2d_7/Conv2D/WithoutBiases"/>
			</rt_info>
			<input>
				<port id="0">
					<dim>1</dim>
					<dim>64</dim>
					<dim>8</dim>
					<dim>8</dim>
				</port>
				<port id="1">
					<dim>64</dim>
					<dim>64</dim>
					<dim>3</dim>
					<dim>3</dim>
				</port>
			</input>
			<output>
				<port id="2" precision="FP32">
					<dim>1</dim>
					<dim>64</dim>
					<dim>8</dim>
					<dim>8</dim>
				</port>
			</output>
		</layer>
		<layer id="221" name="model/batch_normalization_6/FusedBatchNormV3;model/conv2d_7/BiasAdd/ReadVariableOp/resource;model/conv2d_7/BiasAdd;model/conv2d_8/Conv2D;model/conv2d_7/Conv2D/Dims4991494098" type="Const" version="opset1">
			<data offset="341624" size="256" shape="1,64,1,1" element_type="f32"/>
			<rt_info>
				<attribute name="fused_names" version="0" value="model/batch_normalization_6/FusedBatchNormV3;model/conv2d_7/BiasAdd/ReadVariableOp/resource;model/conv2d_7/BiasAdd;model/conv2d_8/Conv2D;model/conv2d_7/Conv2D/Dims499"/>
			</rt_info>
			<output>
				<port id="0" precision="FP32">
					<dim>1</dim>
					<dim>64</dim>
					<dim>1</dim>
					<dim>1</dim>
				</port>
			</output>
		</layer>
		<layer id="222" name="model/batch_normalization_6/FusedBatchNormV3;model/conv2d_7/BiasAdd/ReadVariableOp/resource;model/conv2d_7/BiasAdd;model/conv2d_8/Conv2D;model/conv2d_7/Conv2D" type="Add" version="opset1">
			<data auto_broadcast="numpy"/>
			<rt_info>
				<attribute name="fused_names" version="0" value="model/batch_normalization_6/FusedBatchNormV3;model/conv2d_7/BiasAdd/ReadVariableOp/resource;model/conv2d_7/BiasAdd;model/conv2d_8/Conv2D;model/conv2d_7/Conv2D"/>
			</rt_info>
			<input>
				<port id="0">
					<dim>1</dim>
					<dim>64</dim>
					<dim>8</dim>
					<dim>8</dim>
				</port>
				<port id="1">
					<dim>1</dim>
					<dim>64</dim>
					<dim>1</dim>
					<dim>1</dim>
				</port>
			</input>
			<output>
				<port id="2" precision="FP32">
					<dim>1</dim>
					<dim>64</dim>
					<dim>8</dim>
					<dim>8</dim>
				</port>
			</output>
		</layer>
		<layer id="223" name="model/batch_normalization_6/FusedBatchNormV3;model/conv2d_7/BiasAdd/ReadVariableOp/resource;model/conv2d_7/BiasAdd;model/conv2d_8/Conv2D;model/conv2d_7/Conv2D/fq_output_0_0" type="FakeQuantize" version="opset1">
			<data levels="65536" auto_broadcast="numpy"/>
			<input>
				<port id="0">
					<dim>1</dim>
					<dim>64</dim>
					<dim>8</dim>
					<dim>8</dim>
				</port>
				<port id="1"/>
				<port id="2"/>
				<port id="3"/>
				<port id="4"/>
			</input>
			<output>
				<port id="5" precision="FP32" names="model/batch_normalization_6/FusedBatchNormV3;model/conv2d_7/BiasAdd/ReadVariableOp/resource;model/conv2d_7/BiasAdd;model/conv2d_8/Conv2D;model/conv2d_7/Conv2D">
					<dim>1</dim>
					<dim>64</dim>
					<dim>8</dim>
					<dim>8</dim>
				</port>
			</output>
		</layer>
		<layer id="224" name="model/activation_6/Relu;model/add_2/add" type="Add" version="opset1">
			<data auto_broadcast="numpy"/>
			<rt_info>
				<attribute name="fused_names" version="0" value="model/activation_6/Relu;model/add_2/add"/>
			</rt_info>
			<input>
				<port id="0">
					<dim>1</dim>
					<dim>64</dim>
					<dim>8</dim>
					<dim>8</dim>
				</port>
				<port id="1">
					<dim>1</dim>
					<dim>64</dim>
					<dim>8</dim>
					<dim>8</dim>
				</port>
			</input>
			<output>
				<port id="2" precision="FP32">
					<dim>1</dim>
					<dim>64</dim>
					<dim>8</dim>
					<dim>8</dim>
				</port>
			</output>
		</layer>
		<layer id="225" name="model/activation_6/Relu;model/add_2/add/fq_output_0_0" type="FakeQuantize" version="opset1">
			<data levels="4294967296" auto_broadcast="numpy"/>
			<input>
				<port id="0">
					<dim>1</dim>
					<dim>64</dim>
					<dim>8</dim>
					<dim>8</dim>
				</port>
				<port id="1"/>
				<port id="2"/>
				<port id="3"/>
				<port id="4"/>
			</input>
			<output>
				<port id="5" precision="FP32" names="model/activation_6/Relu;model/add_2/add">
					<dim>1</dim>
					<dim>64</dim>
					<dim>8</dim>
					<dim>8</dim>
				</port>
			</output>
		</layer>
		<layer id="226" name="Relu__26" type="ReLU" version="opset1">
			<rt_info>
				<attribute name="fused_names" version="0" value="Relu__26"/>
			</rt_info>
			<input>
				<port id="0">
					<dim>1</dim>
					<dim>64</dim>
					<dim>8</dim>
					<dim>8</dim>
				</port>
			</input>
			<output>
				<port id="1" precision="FP32">
					<dim>1</dim>
					<dim>64</dim>
					<dim>8</dim>
					<dim>8</dim>
				</port>
			</output>
		</layer>
		<layer id="227" name="Relu__26/fq_output_0_0" type="FakeQuantize" version="opset1">
			<data levels="65536" auto_broadcast="numpy"/>
			<input>
				<port id="0">
					<dim>1</dim>
					<dim>64</dim>
					<dim>8</dim>
					<dim>8</dim>
				</port>
				<port id="1"/>
				<port id="2"/>
				<port id="3"/>
				<port id="4"/>
			</input>
			<output>
				<port id="5" precision="FP32" names="Relu__26:0">
					<dim>1</dim>
					<dim>64</dim>
					<dim>8</dim>
					<dim>8</dim>
				</port>
			</output>
		</layer>
		<layer id="228" name="model/average_pooling2d/AvgPool" type="AvgPool" version="opset1">
			<data strides="8,8" kernel="8,8" pads_begin="0,0" pads_end="0,0" exclude-pad="true" rounding_type="floor" auto_pad="explicit"/>
			<rt_info>
				<attribute name="fused_names" version="0" value="model/average_pooling2d/AvgPool"/>
			</rt_info>
			<input>
				<port id="0">
					<dim>1</dim>
					<dim>64</dim>
					<dim>8</dim>
					<dim>8</dim>
				</port>
			</input>
			<output>
				<port id="1" precision="FP32" names="model/average_pooling2d/AvgPool">
					<dim>1</dim>
					<dim>64</dim>
					<dim>1</dim>
					<dim>1</dim>
				</port>
			</output>
		</layer>
		<layer id="229" name="model/flatten/Reshape/fq_input_0" type="FakeQuantize" version="opset1">
			<data levels="65536" auto_broadcast="numpy"/>
			<input>
				<port id="0">
					<dim>1</dim>
					<dim>64</dim>
					<dim>1</dim>
					<dim>1</dim>
				</port>
				<port id="1"/>
				<port id="2"/>
				<port id="3"/>
				<port id="4"/>
			</input>
			<output>
				<port id="5" precision="FP32">
					<dim>1</dim>
					<dim>64</dim>
					<dim>1</dim>
					<dim>1</dim>
				</port>
			</output>
		</layer>
		<layer id="230" name="model/flatten/Reshape" type="Reshape" version="opset1">
			<data special_zero="true"/>
			<rt_info>
				<attribute name="fused_names" version="0" value="model/flatten/Reshape"/>
			</rt_info>
			<input>
				<port id="0">
					<dim>1</dim>
					<dim>64</dim>
					<dim>1</dim>
					<dim>1</dim>
				</port>
				<port id="1">
					<dim>2</dim>
				</port>
			</input>
			<output>
				<port id="2" precision="FP32" names="model/flatten/Reshape">
					<dim>1</dim>
					<dim>64</dim>
				</port>
			</output>
		</layer>
		<layer id="231" name="model/dense/MatMul;model/dense/BiasAdd" type="MatMul" version="opset1">
			<data transpose_a="false" transpose_b="true"/>
			<rt_info>
				<attribute name="fused_names" version="0" value="model/dense/MatMul;model/dense/BiasAdd"/>
			</rt_info>
			<input>
				<port id="0">
					<dim>1</dim>
					<dim>64</dim>
				</port>
				<port id="1">
					<dim>10</dim>
					<dim>64</dim>
				</port>
			</input>
			<output>
				<port id="2" precision="FP32" names="model/dense/MatMul;model/dense/BiasAdd">
					<dim>1</dim>
					<dim>10</dim>
				</port>
			</output>
		</layer>
		<layer id="232" name="model/dense/BiasAdd/ReadVariableOp/resource1583600" type="Const" version="opset1">
			<data offset="341880" size="40" shape="1,10" element_type="f32"/>
			<rt_info>
				<attribute name="fused_names" version="0" value="model/dense/BiasAdd/ReadVariableOp/resource"/>
			</rt_info>
			<output>
				<port id="0" precision="FP32" names="model/dense/BiasAdd/ReadVariableOp/resource">
					<dim>1</dim>
					<dim>10</dim>
				</port>
			</output>
		</layer>
		<layer id="233" name="Add__29" type="Add" version="opset1">
			<data auto_broadcast="numpy"/>
			<rt_info>
				<attribute name="fused_names" version="0" value="Add__29"/>
			</rt_info>
			<input>
				<port id="0">
					<dim>1</dim>
					<dim>10</dim>
				</port>
				<port id="1">
					<dim>1</dim>
					<dim>10</dim>
				</port>
			</input>
			<output>
				<port id="2" precision="FP32">
					<dim>1</dim>
					<dim>10</dim>
				</port>
			</output>
		</layer>
		<layer id="234" name="Add__29/fq_output_0_0" type="FakeQuantize" version="opset1">
			<data levels="65536" auto_broadcast="numpy"/>
			<input>
				<port id="0">
					<dim>1</dim>
					<dim>10</dim>
				</port>
				<port id="1"/>
				<port id="2"/>
				<port id="3"/>
				<port id="4"/>
			</input>
			<output>
				<port id="5" precision="FP32" names="Add__29:0">
					<dim>1</dim>
					<dim>10</dim>
				</port>
			</output>
		</layer>
		<layer id="235" name="Identity48/FlattenONNX_/Reshape" type="Reshape" version="opset1">
			<data special_zero="true"/>
			<rt_info>
				<attribute name="fused_names" version="0" value="Identity48/FlattenONNX_/Reshape"/>
			</rt_info>
			<input>
				<port id="0">
					<dim>1</dim>
					<dim>10</dim>
				</port>
				<port id="1">
					<dim>2</dim>
				</port>
			</input>
			<output>
				<port id="2" precision="FP32">
					<dim>1</dim>
					<dim>10</dim>
				</port>
			</output>
		</layer>
		<layer id="236" name="Reshape_140" type="Reshape" version="opset1">
			<data special_zero="false"/>
			<input>
				<port id="0">
					<dim>1</dim>
					<dim>10</dim>
				</port>
				<port id="1">
					<dim>2</dim>
				</port>
			</input>
			<output>
				<port id="2" precision="FP32">
					<dim>1</dim>
					<dim>10</dim>
				</port>
			</output>
		</layer>
		<layer id="237" name="Constant_1601774137" type="Const" version="opset1">
			<data offset="0" size="16" shape="2" element_type="i64"/>
			<output>
				<port id="0" precision="I64">
					<dim>2</dim>
				</port>
			</output>
		</layer>
		<layer id="238" name="Constant_1581754059" type="Const" version="opset1">
			<data offset="341920" size="32" shape="4" element_type="i64"/>
			<output>
				<port id="0" precision="I64">
					<dim>4</dim>
				</port>
			</output>
		</layer>
		<layer id="239" name="4794833645" type="Const" version="opset1">
			<data offset="341952" size="4" shape="" element_type="f32"/>
			<output>
				<port id="0" precision="FP32"/>
			</output>
		</layer>
		<layer id="240" name="4804844008" type="Const" version="opset1">
			<data offset="341956" size="4" shape="" element_type="f32"/>
			<output>
				<port id="0" precision="FP32"/>
			</output>
		</layer>
		<layer id="241" name="4814853828" type="Const" version="opset1">
			<data offset="341952" size="4" shape="" element_type="f32"/>
			<output>
				<port id="0" precision="FP32"/>
			</output>
		</layer>
		<layer id="242" name="4824863558" type="Const" version="opset1">
			<data offset="341956" size="4" shape="" element_type="f32"/>
			<output>
				<port id="0" precision="FP32"/>
			</output>
		</layer>
		<layer id="243" name="2942963543" type="Const" version="opset1">
			<data offset="341960" size="40" shape="1,10,1,1" element_type="f32"/>
			<output>
				<port id="0" precision="FP32">
					<dim>1</dim>
					<dim>10</dim>
					<dim>1</dim>
					<dim>1</dim>
				</port>
			</output>
		</layer>
		<layer id="244" name="4694734047" type="Const" version="opset1">
			<data offset="342000" size="4" shape="" element_type="f32"/>
			<output>
				<port id="0" precision="FP32"/>
			</output>
		</layer>
		<layer id="245" name="4704743495" type="Const" version="opset1">
			<data offset="20" size="4" shape="" element_type="f32"/>
			<output>
				<port id="0" precision="FP32"/>
			</output>
		</layer>
		<layer id="246" name="4714753672" type="Const" version="opset1">
			<data offset="342000" size="4" shape="" element_type="f32"/>
			<output>
				<port id="0" precision="FP32"/>
			</output>
		</layer>
		<layer id="247" name="4724763807" type="Const" version="opset1">
			<data offset="20" size="4" shape="" element_type="f32"/>
			<output>
				<port id="0" precision="FP32"/>
			</output>
		</layer>
		<layer id="248" name="Constant_1541733921" type="Const" version="opset1">
			<data offset="342004" size="40" shape="10,1,1,1" element_type="f32"/>
			<output>
				<port id="0" precision="FP32">
					<dim>10</dim>
					<dim>1</dim>
					<dim>1</dim>
					<dim>1</dim>
				</port>
			</output>
		</layer>
		<layer id="249" name="Convolution_157/fq_weights_1" type="FakeQuantize" version="opset1">
			<data levels="65535" auto_broadcast="numpy"/>
			<input>
				<port id="0">
					<dim>10</dim>
					<dim>1</dim>
					<dim>1</dim>
					<dim>1</dim>
				</port>
				<port id="1"/>
				<port id="2"/>
				<port id="3"/>
				<port id="4"/>
			</input>
			<output>
				<port id="5" precision="FP32">
					<dim>10</dim>
					<dim>1</dim>
					<dim>1</dim>
					<dim>1</dim>
				</port>
			</output>
		</layer>
		<layer id="250" name="Constant_1551713531" type="Const" version="opset1">
			<data offset="45448" size="32" shape="4" element_type="i64"/>
			<output>
				<port id="0" precision="I64">
					<dim>4</dim>
				</port>
			</output>
		</layer>
		<layer id="251" name="7697733999" type="Const" version="opset1">
			<data offset="60" size="4" shape="" element_type="f32"/>
			<output>
				<port id="0" precision="FP32"/>
			</output>
		</layer>
		<layer id="252" name="7707743996" type="Const" version="opset1">
			<data offset="64" size="4" shape="" element_type="f32"/>
			<output>
				<port id="0" precision="FP32"/>
			</output>
		</layer>
		<layer id="253" name="7717753654" type="Const" version="opset1">
			<data offset="60" size="4" shape="" element_type="f32"/>
			<output>
				<port id="0" precision="FP32"/>
			</output>
		</layer>
		<layer id="254" name="7727763771" type="Const" version="opset1">
			<data offset="64" size="4" shape="" element_type="f32"/>
			<output>
				<port id="0" precision="FP32"/>
			</output>
		</layer>
		<layer id="255" name="2902923501" type="Const" version="opset1">
			<data offset="342044" size="4" shape="1,1,1,1" element_type="f32"/>
			<output>
				<port id="0" precision="FP32">
					<dim>1</dim>
					<dim>1</dim>
					<dim>1</dim>
					<dim>1</dim>
				</port>
			</output>
		</layer>
		<layer id="256" name="7597634089" type="Const" version="opset1">
			<data offset="342000" size="4" shape="" element_type="f32"/>
			<output>
				<port id="0" precision="FP32"/>
			</output>
		</layer>
		<layer id="257" name="7607643816" type="Const" version="opset1">
			<data offset="20" size="4" shape="" element_type="f32"/>
			<output>
				<port id="0" precision="FP32"/>
			</output>
		</layer>
		<layer id="258" name="7617653528" type="Const" version="opset1">
			<data offset="342000" size="4" shape="" element_type="f32"/>
			<output>
				<port id="0" precision="FP32"/>
			</output>
		</layer>
		<layer id="259" name="7627664032" type="Const" version="opset1">
			<data offset="20" size="4" shape="" element_type="f32"/>
			<output>
				<port id="0" precision="FP32"/>
			</output>
		</layer>
		<layer id="260" name="Constant_1471683897" type="Const" version="opset1">
			<data offset="342048" size="4" shape="1,1,1,1" element_type="f32"/>
			<output>
				<port id="0" precision="FP32">
					<dim>1</dim>
					<dim>1</dim>
					<dim>1</dim>
					<dim>1</dim>
				</port>
			</output>
		</layer>
		<layer id="261" name="Convolution_150/fq_weights_1" type="FakeQuantize" version="opset1">
			<data levels="65535" auto_broadcast="numpy"/>
			<input>
				<port id="0">
					<dim>1</dim>
					<dim>1</dim>
					<dim>1</dim>
					<dim>1</dim>
				</port>
				<port id="1"/>
				<port id="2"/>
				<port id="3"/>
				<port id="4"/>
			</input>
			<output>
				<port id="5" precision="FP32">
					<dim>1</dim>
					<dim>1</dim>
					<dim>1</dim>
					<dim>1</dim>
				</port>
			</output>
		</layer>
		<layer id="262" name="Constant_1481663915" type="Const" version="opset1">
			<data offset="45448" size="32" shape="4" element_type="i64"/>
			<output>
				<port id="0" precision="I64">
					<dim>4</dim>
				</port>
			</output>
		</layer>
		<layer id="263" name="Constant_1431643567" type="Const" version="opset1">
			<data offset="342052" size="32" shape="4" element_type="i64"/>
			<output>
				<port id="0" precision="I64">
					<dim>4</dim>
				</port>
			</output>
		</layer>
		<layer id="264" name="Reshape_144" type="Reshape" version="opset1">
			<data special_zero="false"/>
			<input>
				<port id="0">
					<dim>1</dim>
					<dim>10</dim>
				</port>
				<port id="1">
					<dim>4</dim>
				</port>
			</input>
			<output>
				<port id="2" precision="FP32">
					<dim>1</dim>
					<dim>1</dim>
					<dim>10</dim>
					<dim>1</dim>
				</port>
			</output>
		</layer>
		<layer id="265" name="Transpose_149" type="Transpose" version="opset1">
			<input>
				<port id="0">
					<dim>1</dim>
					<dim>1</dim>
					<dim>10</dim>
					<dim>1</dim>
				</port>
				<port id="1">
					<dim>4</dim>
				</port>
			</input>
			<output>
				<port id="2" precision="FP32">
					<dim>1</dim>
					<dim>1</dim>
					<dim>1</dim>
					<dim>10</dim>
				</port>
			</output>
		</layer>
		<layer id="266" name="Convolution_150" type="Convolution" version="opset1">
			<data auto_pad="valid" strides="1,1" dilations="1,1" pads_begin="0,0" pads_end="0,0"/>
			<input>
				<port id="0">
					<dim>1</dim>
					<dim>1</dim>
					<dim>1</dim>
					<dim>10</dim>
				</port>
				<port id="1">
					<dim>1</dim>
					<dim>1</dim>
					<dim>1</dim>
					<dim>1</dim>
				</port>
			</input>
			<output>
				<port id="2" precision="FP32">
					<dim>1</dim>
					<dim>1</dim>
					<dim>1</dim>
					<dim>10</dim>
				</port>
			</output>
		</layer>
		<layer id="267" name="Convolution_150/add_" type="Add" version="opset1">
			<data auto_broadcast="numpy"/>
			<input>
				<port id="0">
					<dim>1</dim>
					<dim>1</dim>
					<dim>1</dim>
					<dim>10</dim>
				</port>
				<port id="1">
					<dim>1</dim>
					<dim>1</dim>
					<dim>1</dim>
					<dim>1</dim>
				</port>
			</input>
			<output>
				<port id="2" precision="FP32">
					<dim>1</dim>
					<dim>1</dim>
					<dim>1</dim>
					<dim>10</dim>
				</port>
			</output>
		</layer>
		<layer id="268" name="Convolution_150/add_/fq_output_0_0" type="FakeQuantize" version="opset1">
			<data levels="65536" auto_broadcast="numpy"/>
			<input>
				<port id="0">
					<dim>1</dim>
					<dim>1</dim>
					<dim>1</dim>
					<dim>10</dim>
				</port>
				<port id="1"/>
				<port id="2"/>
				<port id="3"/>
				<port id="4"/>
			</input>
			<output>
				<port id="5" precision="FP32">
					<dim>1</dim>
					<dim>1</dim>
					<dim>1</dim>
					<dim>10</dim>
				</port>
			</output>
		</layer>
		<layer id="269" name="MaxPool_151" type="MaxPool" version="opset1">
			<data strides="1,10" kernel="1,10" pads_begin="0,0" pads_end="0,0" rounding_type="floor" auto_pad="valid" dilations="1.0,1.0" axis="0" index_element_type="i64"/>
			<input>
				<port id="0">
					<dim>1</dim>
					<dim>1</dim>
					<dim>1</dim>
					<dim>10</dim>
				</port>
			</input>
			<output>
				<port id="1" precision="FP32">
					<dim>1</dim>
					<dim>1</dim>
					<dim>1</dim>
					<dim>1</dim>
				</port>
			</output>
		</layer>
		<layer id="270" name="Transpose_156" type="Transpose" version="opset1">
			<input>
				<port id="0">
					<dim>1</dim>
					<dim>1</dim>
					<dim>1</dim>
					<dim>1</dim>
				</port>
				<port id="1">
					<dim>4</dim>
				</port>
			</input>
			<output>
				<port id="2" precision="FP32">
					<dim>1</dim>
					<dim>1</dim>
					<dim>1</dim>
					<dim>1</dim>
				</port>
			</output>
		</layer>
		<layer id="271" name="Convolution_157" type="Convolution" version="opset1">
			<data auto_pad="valid" strides="1,1" dilations="1,1" pads_begin="0,0" pads_end="0,0"/>
			<input>
				<port id="0">
					<dim>1</dim>
					<dim>1</dim>
					<dim>1</dim>
					<dim>1</dim>
				</port>
				<port id="1">
					<dim>10</dim>
					<dim>1</dim>
					<dim>1</dim>
					<dim>1</dim>
				</port>
			</input>
			<output>
				<port id="2" precision="FP32">
					<dim>1</dim>
					<dim>10</dim>
					<dim>1</dim>
					<dim>1</dim>
				</port>
			</output>
		</layer>
		<layer id="272" name="Convolution_157/add_" type="Add" version="opset1">
			<data auto_broadcast="numpy"/>
			<input>
				<port id="0">
					<dim>1</dim>
					<dim>10</dim>
					<dim>1</dim>
					<dim>1</dim>
				</port>
				<port id="1">
					<dim>1</dim>
					<dim>10</dim>
					<dim>1</dim>
					<dim>1</dim>
				</port>
			</input>
			<output>
				<port id="2" precision="FP32">
					<dim>1</dim>
					<dim>10</dim>
					<dim>1</dim>
					<dim>1</dim>
				</port>
			</output>
		</layer>
		<layer id="273" name="Convolution_157/add_/fq_output_0_0" type="FakeQuantize" version="opset1">
			<data levels="65536" auto_broadcast="numpy"/>
			<input>
				<port id="0">
					<dim>1</dim>
					<dim>10</dim>
					<dim>1</dim>
					<dim>1</dim>
				</port>
				<port id="1"/>
				<port id="2"/>
				<port id="3"/>
				<port id="4"/>
			</input>
			<output>
				<port id="5" precision="FP32">
					<dim>1</dim>
					<dim>10</dim>
					<dim>1</dim>
					<dim>1</dim>
				</port>
			</output>
		</layer>
		<layer id="274" name="Transpose_159" type="Transpose" version="opset1">
			<input>
				<port id="0">
					<dim>1</dim>
					<dim>10</dim>
					<dim>1</dim>
					<dim>1</dim>
				</port>
				<port id="1">
					<dim>4</dim>
				</port>
			</input>
			<output>
				<port id="2" precision="FP32">
					<dim>1</dim>
					<dim>1</dim>
					<dim>1</dim>
					<dim>10</dim>
				</port>
			</output>
		</layer>
		<layer id="275" name="Reshape_161" type="Reshape" version="opset1">
			<data special_zero="false"/>
			<input>
				<port id="0">
					<dim>1</dim>
					<dim>1</dim>
					<dim>1</dim>
					<dim>10</dim>
				</port>
				<port id="1">
					<dim>2</dim>
				</port>
			</input>
			<output>
				<port id="2" precision="FP32">
					<dim>1</dim>
					<dim>10</dim>
				</port>
			</output>
		</layer>
		<layer id="276" name="Subtract_164" type="Subtract" version="opset1">
			<data auto_broadcast="numpy"/>
			<input>
				<port id="0">
					<dim>1</dim>
					<dim>10</dim>
				</port>
				<port id="1">
					<dim>1</dim>
					<dim>10</dim>
				</port>
			</input>
			<output>
				<port id="2" precision="FP32">
					<dim>1</dim>
					<dim>10</dim>
				</port>
			</output>
		</layer>
		<layer id="277" name="Add_189/fq_input_0" type="FakeQuantize" version="opset1">
			<data levels="65536" auto_broadcast="numpy"/>
			<input>
				<port id="0">
					<dim>1</dim>
					<dim>10</dim>
				</port>
				<port id="1"/>
				<port id="2"/>
				<port id="3"/>
				<port id="4"/>
			</input>
			<output>
				<port id="5" precision="FP32">
					<dim>1</dim>
					<dim>10</dim>
				</port>
			</output>
		</layer>
		<layer id="278" name="9499533522" type="Const" version="opset1">
			<data offset="342084" size="4" shape="" element_type="f32"/>
			<output>
				<port id="0" precision="FP32"/>
			</output>
		</layer>
		<layer id="279" name="9509543993" type="Const" version="opset1">
			<data offset="342088" size="4" shape="" element_type="f32"/>
			<output>
				<port id="0" precision="FP32"/>
			</output>
		</layer>
		<layer id="280" name="9519553930" type="Const" version="opset1">
			<data offset="342084" size="4" shape="" element_type="f32"/>
			<output>
				<port id="0" precision="FP32"/>
			</output>
		</layer>
		<layer id="281" name="9529563717" type="Const" version="opset1">
			<data offset="342088" size="4" shape="" element_type="f32"/>
			<output>
				<port id="0" precision="FP32"/>
			</output>
		</layer>
		<layer id="282" name="Constant_1331803879" type="Const" version="opset1">
			<data offset="342092" size="40" shape="1,10" element_type="f32"/>
			<output>
				<port id="0" precision="FP32">
					<dim>1</dim>
					<dim>10</dim>
				</port>
			</output>
		</layer>
		<layer id="283" name="Add_189/fq_weights_1" type="FakeQuantize" version="opset1">
			<data levels="65535" auto_broadcast="numpy"/>
			<input>
				<port id="0">
					<dim>1</dim>
					<dim>10</dim>
				</port>
				<port id="1"/>
				<port id="2"/>
				<port id="3"/>
				<port id="4"/>
			</input>
			<output>
				<port id="5" precision="FP32">
					<dim>1</dim>
					<dim>10</dim>
				</port>
			</output>
		</layer>
		<layer id="284" name="Add_189" type="Add" version="opset1">
			<data auto_broadcast="numpy"/>
			<input>
				<port id="0">
					<dim>1</dim>
					<dim>10</dim>
				</port>
				<port id="1">
					<dim>1</dim>
					<dim>10</dim>
				</port>
			</input>
			<output>
				<port id="2" precision="FP32">
					<dim>1</dim>
					<dim>10</dim>
				</port>
			</output>
		</layer>
		<layer id="285" name="Add_189/fq_output_0_0" type="FakeQuantize" version="opset1">
			<data levels="65536" auto_broadcast="numpy"/>
			<input>
				<port id="0">
					<dim>1</dim>
					<dim>10</dim>
				</port>
				<port id="1"/>
				<port id="2"/>
				<port id="3"/>
				<port id="4"/>
			</input>
			<output>
				<port id="5" precision="FP32">
					<dim>1</dim>
					<dim>10</dim>
				</port>
			</output>
		</layer>
		<layer id="286" name="8698733597" type="Const" version="opset1">
			<data offset="342132" size="4" shape="" element_type="f32"/>
			<output>
				<port id="0" precision="FP32"/>
			</output>
		</layer>
		<layer id="287" name="8708743576" type="Const" version="opset1">
			<data offset="342088" size="4" shape="" element_type="f32"/>
			<output>
				<port id="0" precision="FP32"/>
			</output>
		</layer>
		<layer id="288" name="8718753912" type="Const" version="opset1">
			<data offset="342132" size="4" shape="" element_type="f32"/>
			<output>
				<port id="0" precision="FP32"/>
			</output>
		</layer>
		<layer id="289" name="8728763546" type="Const" version="opset1">
			<data offset="342088" size="4" shape="" element_type="f32"/>
			<output>
				<port id="0" precision="FP32"/>
			</output>
		</layer>
		<layer id="290" name="Constant_1841993651" type="Const" version="opset1">
			<data offset="0" size="16" shape="2" element_type="i64"/>
			<output>
				<port id="0" precision="I64">
					<dim>2</dim>
				</port>
			</output>
		</layer>
		<layer id="291" name="Constant_1821973624" type="Const" version="opset1">
			<data offset="341920" size="32" shape="4" element_type="i64"/>
			<output>
				<port id="0" precision="I64">
					<dim>4</dim>
				</port>
			</output>
		</layer>
		<layer id="292" name="4494533969" type="Const" version="opset1">
			<data offset="342084" size="4" shape="" element_type="f32"/>
			<output>
				<port id="0" precision="FP32"/>
			</output>
		</layer>
		<layer id="293" name="4504543789" type="Const" version="opset1">
			<data offset="342088" size="4" shape="" element_type="f32"/>
			<output>
				<port id="0" precision="FP32"/>
			</output>
		</layer>
		<layer id="294" name="4514554014" type="Const" version="opset1">
			<data offset="342084" size="4" shape="" element_type="f32"/>
			<output>
				<port id="0" precision="FP32"/>
			</output>
		</layer>
		<layer id="295" name="4524563681" type="Const" version="opset1">
			<data offset="342088" size="4" shape="" element_type="f32"/>
			<output>
				<port id="0" precision="FP32"/>
			</output>
		</layer>
		<layer id="296" name="3023043786" type="Const" version="opset1">
			<data offset="341960" size="40" shape="1,10,1,1" element_type="f32"/>
			<output>
				<port id="0" precision="FP32">
					<dim>1</dim>
					<dim>10</dim>
					<dim>1</dim>
					<dim>1</dim>
				</port>
			</output>
		</layer>
		<layer id="297" name="4394433708" type="Const" version="opset1">
			<data offset="342000" size="4" shape="" element_type="f32"/>
			<output>
				<port id="0" precision="FP32"/>
			</output>
		</layer>
		<layer id="298" name="4404443876" type="Const" version="opset1">
			<data offset="342136" size="4" shape="" element_type="f32"/>
			<output>
				<port id="0" precision="FP32"/>
			</output>
		</layer>
		<layer id="299" name="4414453819" type="Const" version="opset1">
			<data offset="342140" size="4" shape="" element_type="f32"/>
			<output>
				<port id="0" precision="FP32"/>
			</output>
		</layer>
		<layer id="300" name="4424463483" type="Const" version="opset1">
			<data offset="342144" size="4" shape="" element_type="f32"/>
			<output>
				<port id="0" precision="FP32"/>
			</output>
		</layer>
		<layer id="301" name="Constant_1321954035" type="Const" version="opset1">
			<data offset="342148" size="320" shape="10,8,1,1" element_type="f32"/>
			<output>
				<port id="0" precision="FP32">
					<dim>10</dim>
					<dim>8</dim>
					<dim>1</dim>
					<dim>1</dim>
				</port>
			</output>
		</layer>
		<layer id="302" name="Convolution_181/fq_weights_1" type="FakeQuantize" version="opset1">
			<data levels="65535" auto_broadcast="numpy"/>
			<input>
				<port id="0">
					<dim>10</dim>
					<dim>8</dim>
					<dim>1</dim>
					<dim>1</dim>
				</port>
				<port id="1"/>
				<port id="2"/>
				<port id="3"/>
				<port id="4"/>
			</input>
			<output>
				<port id="5" precision="FP32">
					<dim>10</dim>
					<dim>8</dim>
					<dim>1</dim>
					<dim>1</dim>
				</port>
			</output>
		</layer>
		<layer id="303" name="Constant_1791933669" type="Const" version="opset1">
			<data offset="45448" size="32" shape="4" element_type="i64"/>
			<output>
				<port id="0" precision="I64">
					<dim>4</dim>
				</port>
			</output>
		</layer>
		<layer id="304" name="Constant_1751913507" type="Const" version="opset1">
			<data offset="342468" size="32" shape="4" element_type="i64"/>
			<output>
				<port id="0" precision="I64">
					<dim>4</dim>
				</port>
			</output>
		</layer>
		<layer id="305" name="Constant_1731893798" type="Const" version="opset1">
			<data offset="341920" size="32" shape="4" element_type="i64"/>
			<output>
				<port id="0" precision="I64">
					<dim>4</dim>
				</port>
			</output>
		</layer>
		<layer id="306" name="5095133861" type="Const" version="opset1">
			<data offset="342500" size="4" shape="" element_type="f32"/>
			<output>
				<port id="0" precision="FP32"/>
			</output>
		</layer>
		<layer id="307" name="5105143831" type="Const" version="opset1">
			<data offset="342504" size="4" shape="" element_type="f32"/>
			<output>
				<port id="0" precision="FP32"/>
			</output>
		</layer>
		<layer id="308" name="5115153975" type="Const" version="opset1">
			<data offset="342500" size="4" shape="" element_type="f32"/>
			<output>
				<port id="0" precision="FP32"/>
			</output>
		</layer>
		<layer id="309" name="5125163678" type="Const" version="opset1">
			<data offset="342504" size="4" shape="" element_type="f32"/>
			<output>
				<port id="0" precision="FP32"/>
			</output>
		</layer>
		<layer id="310" name="2983003675" type="Const" version="opset1">
			<data offset="342508" size="32" shape="1,8,1,1" element_type="f32"/>
			<output>
				<port id="0" precision="FP32">
					<dim>1</dim>
					<dim>8</dim>
					<dim>1</dim>
					<dim>1</dim>
				</port>
			</output>
		</layer>
		<layer id="311" name="4995033933" type="Const" version="opset1">
			<data offset="342540" size="4" shape="" element_type="f32"/>
			<output>
				<port id="0" precision="FP32"/>
			</output>
		</layer>
		<layer id="312" name="5005043891" type="Const" version="opset1">
			<data offset="342544" size="4" shape="" element_type="f32"/>
			<output>
				<port id="0" precision="FP32"/>
			</output>
		</layer>
		<layer id="313" name="5015053909" type="Const" version="opset1">
			<data offset="342548" size="4" shape="" element_type="f32"/>
			<output>
				<port id="0" precision="FP32"/>
			</output>
		</layer>
		<layer id="314" name="5025063663" type="Const" version="opset1">
			<data offset="342552" size="4" shape="" element_type="f32"/>
			<output>
				<port id="0" precision="FP32"/>
			</output>
		</layer>
		<layer id="315" name="Constant_13101873702" type="Const" version="opset1">
			<data offset="342556" size="320" shape="8,10,1,1" element_type="f32"/>
			<output>
				<port id="0" precision="FP32">
					<dim>8</dim>
					<dim>10</dim>
					<dim>1</dim>
					<dim>1</dim>
				</port>
			</output>
		</layer>
		<layer id="316" name="Convolution_172/fq_weights_1" type="FakeQuantize" version="opset1">
			<data levels="65535" auto_broadcast="numpy"/>
			<input>
				<port id="0">
					<dim>8</dim>
					<dim>10</dim>
					<dim>1</dim>
					<dim>1</dim>
				</port>
				<port id="1"/>
				<port id="2"/>
				<port id="3"/>
				<port id="4"/>
			</input>
			<output>
				<port id="5" precision="FP32">
					<dim>8</dim>
					<dim>10</dim>
					<dim>1</dim>
					<dim>1</dim>
				</port>
			</output>
		</layer>
		<layer id="317" name="Constant_1701853834" type="Const" version="opset1">
			<data offset="45448" size="32" shape="4" element_type="i64"/>
			<output>
				<port id="0" precision="I64">
					<dim>4</dim>
				</port>
			</output>
		</layer>
		<layer id="318" name="Constant_1661833783" type="Const" version="opset1">
			<data offset="342876" size="32" shape="4" element_type="i64"/>
			<output>
				<port id="0" precision="I64">
					<dim>4</dim>
				</port>
			</output>
		</layer>
		<layer id="319" name="5295333801" type="Const" version="opset1">
			<data offset="16" size="4" shape="" element_type="f32"/>
			<output>
				<port id="0" precision="FP32"/>
			</output>
		</layer>
		<layer id="320" name="5305344146" type="Const" version="opset1">
			<data offset="342136" size="4" shape="" element_type="f32"/>
			<output>
				<port id="0" precision="FP32"/>
			</output>
		</layer>
		<layer id="321" name="5315353858" type="Const" version="opset1">
			<data offset="16" size="4" shape="" element_type="f32"/>
			<output>
				<port id="0" precision="FP32"/>
			</output>
		</layer>
		<layer id="322" name="5325363699" type="Const" version="opset1">
			<data offset="342136" size="4" shape="" element_type="f32"/>
			<output>
				<port id="0" precision="FP32"/>
			</output>
		</layer>
		<layer id="323" name="Exp_165" type="Exp" version="opset1">
			<input>
				<port id="0">
					<dim>1</dim>
					<dim>10</dim>
				</port>
			</input>
			<output>
				<port id="1" precision="FP32">
					<dim>1</dim>
					<dim>10</dim>
				</port>
			</output>
		</layer>
		<layer id="324" name="Exp_165/fq_output_0_0" type="FakeQuantize" version="opset1">
			<data levels="65536" auto_broadcast="numpy"/>
			<input>
				<port id="0">
					<dim>1</dim>
					<dim>10</dim>
				</port>
				<port id="1"/>
				<port id="2"/>
				<port id="3"/>
				<port id="4"/>
			</input>
			<output>
				<port id="5" precision="FP32">
					<dim>1</dim>
					<dim>10</dim>
				</port>
			</output>
		</layer>
		<layer id="325" name="Reshape_167" type="Reshape" version="opset1">
			<data special_zero="false"/>
			<input>
				<port id="0">
					<dim>1</dim>
					<dim>10</dim>
				</port>
				<port id="1">
					<dim>4</dim>
				</port>
			</input>
			<output>
				<port id="2" precision="FP32">
					<dim>1</dim>
					<dim>1</dim>
					<dim>1</dim>
					<dim>10</dim>
				</port>
			</output>
		</layer>
		<layer id="326" name="Transpose_171" type="Transpose" version="opset1">
			<input>
				<port id="0">
					<dim>1</dim>
					<dim>1</dim>
					<dim>1</dim>
					<dim>10</dim>
				</port>
				<port id="1">
					<dim>4</dim>
				</port>
			</input>
			<output>
				<port id="2" precision="FP32">
					<dim>1</dim>
					<dim>10</dim>
					<dim>1</dim>
					<dim>1</dim>
				</port>
			</output>
		</layer>
		<layer id="327" name="Convolution_172" type="Convolution" version="opset1">
			<data auto_pad="valid" strides="1,1" dilations="1,1" pads_begin="0,0" pads_end="0,0"/>
			<input>
				<port id="0">
					<dim>1</dim>
					<dim>10</dim>
					<dim>1</dim>
					<dim>1</dim>
				</port>
				<port id="1">
					<dim>8</dim>
					<dim>10</dim>
					<dim>1</dim>
					<dim>1</dim>
				</port>
			</input>
			<output>
				<port id="2" precision="FP32">
					<dim>1</dim>
					<dim>8</dim>
					<dim>1</dim>
					<dim>1</dim>
				</port>
			</output>
		</layer>
		<layer id="328" name="Convolution_172/add_" type="Add" version="opset1">
			<data auto_broadcast="numpy"/>
			<input>
				<port id="0">
					<dim>1</dim>
					<dim>8</dim>
					<dim>1</dim>
					<dim>1</dim>
				</port>
				<port id="1">
					<dim>1</dim>
					<dim>8</dim>
					<dim>1</dim>
					<dim>1</dim>
				</port>
			</input>
			<output>
				<port id="2" precision="FP32">
					<dim>1</dim>
					<dim>8</dim>
					<dim>1</dim>
					<dim>1</dim>
				</port>
			</output>
		</layer>
		<layer id="329" name="Convolution_172/add_/fq_output_0_0" type="FakeQuantize" version="opset1">
			<data levels="65536" auto_broadcast="numpy"/>
			<input>
				<port id="0">
					<dim>1</dim>
					<dim>8</dim>
					<dim>1</dim>
					<dim>1</dim>
				</port>
				<port id="1"/>
				<port id="2"/>
				<port id="3"/>
				<port id="4"/>
			</input>
			<output>
				<port id="5" precision="FP32">
					<dim>1</dim>
					<dim>8</dim>
					<dim>1</dim>
					<dim>1</dim>
				</port>
			</output>
		</layer>
		<layer id="330" name="Transpose_174" type="Transpose" version="opset1">
			<input>
				<port id="0">
					<dim>1</dim>
					<dim>8</dim>
					<dim>1</dim>
					<dim>1</dim>
				</port>
				<port id="1">
					<dim>4</dim>
				</port>
			</input>
			<output>
				<port id="2" precision="FP32">
					<dim>1</dim>
					<dim>1</dim>
					<dim>1</dim>
					<dim>8</dim>
				</port>
			</output>
		</layer>
		<layer id="331" name="Reshape_176" type="Reshape" version="opset1">
			<data special_zero="false"/>
			<input>
				<port id="0">
					<dim>1</dim>
					<dim>1</dim>
					<dim>1</dim>
					<dim>8</dim>
				</port>
				<port id="1">
					<dim>4</dim>
				</port>
			</input>
			<output>
				<port id="2" precision="FP32">
					<dim>1</dim>
					<dim>1</dim>
					<dim>1</dim>
					<dim>8</dim>
				</port>
			</output>
		</layer>
		<layer id="332" name="Transpose_180" type="Transpose" version="opset1">
			<input>
				<port id="0">
					<dim>1</dim>
					<dim>1</dim>
					<dim>1</dim>
					<dim>8</dim>
				</port>
				<port id="1">
					<dim>4</dim>
				</port>
			</input>
			<output>
				<port id="2" precision="FP32">
					<dim>1</dim>
					<dim>8</dim>
					<dim>1</dim>
					<dim>1</dim>
				</port>
			</output>
		</layer>
		<layer id="333" name="Convolution_181" type="Convolution" version="opset1">
			<data auto_pad="valid" strides="1,1" dilations="1,1" pads_begin="0,0" pads_end="0,0"/>
			<input>
				<port id="0">
					<dim>1</dim>
					<dim>8</dim>
					<dim>1</dim>
					<dim>1</dim>
				</port>
				<port id="1">
					<dim>10</dim>
					<dim>8</dim>
					<dim>1</dim>
					<dim>1</dim>
				</port>
			</input>
			<output>
				<port id="2" precision="FP32">
					<dim>1</dim>
					<dim>10</dim>
					<dim>1</dim>
					<dim>1</dim>
				</port>
			</output>
		</layer>
		<layer id="334" name="Convolution_181/add_" type="Add" version="opset1">
			<data auto_broadcast="numpy"/>
			<input>
				<port id="0">
					<dim>1</dim>
					<dim>10</dim>
					<dim>1</dim>
					<dim>1</dim>
				</port>
				<port id="1">
					<dim>1</dim>
					<dim>10</dim>
					<dim>1</dim>
					<dim>1</dim>
				</port>
			</input>
			<output>
				<port id="2" precision="FP32">
					<dim>1</dim>
					<dim>10</dim>
					<dim>1</dim>
					<dim>1</dim>
				</port>
			</output>
		</layer>
		<layer id="335" name="Convolution_181/add_/fq_output_0_0" type="FakeQuantize" version="opset1">
			<data levels="4294967296" auto_broadcast="numpy"/>
			<input>
				<port id="0">
					<dim>1</dim>
					<dim>10</dim>
					<dim>1</dim>
					<dim>1</dim>
				</port>
				<port id="1"/>
				<port id="2"/>
				<port id="3"/>
				<port id="4"/>
			</input>
			<output>
				<port id="5" precision="FP32">
					<dim>1</dim>
					<dim>10</dim>
					<dim>1</dim>
					<dim>1</dim>
				</port>
			</output>
		</layer>
		<layer id="336" name="Transpose_183" type="Transpose" version="opset1">
			<input>
				<port id="0">
					<dim>1</dim>
					<dim>10</dim>
					<dim>1</dim>
					<dim>1</dim>
				</port>
				<port id="1">
					<dim>4</dim>
				</port>
			</input>
			<output>
				<port id="2" precision="FP32">
					<dim>1</dim>
					<dim>1</dim>
					<dim>1</dim>
					<dim>10</dim>
				</port>
			</output>
		</layer>
		<layer id="337" name="Reshape_185" type="Reshape" version="opset1">
			<data special_zero="false"/>
			<input>
				<port id="0">
					<dim>1</dim>
					<dim>1</dim>
					<dim>1</dim>
					<dim>10</dim>
				</port>
				<port id="1">
					<dim>2</dim>
				</port>
			</input>
			<output>
				<port id="2" precision="FP32">
					<dim>1</dim>
					<dim>10</dim>
				</port>
			</output>
		</layer>
		<layer id="338" name="Log_188" type="Log" version="opset1">
			<input>
				<port id="0">
					<dim>1</dim>
					<dim>10</dim>
				</port>
			</input>
			<output>
				<port id="1" precision="FP32">
					<dim>1</dim>
					<dim>10</dim>
				</port>
			</output>
		</layer>
		<layer id="339" name="Log_188/fq_output_0_0" type="FakeQuantize" version="opset1">
			<data levels="65536" auto_broadcast="numpy"/>
			<input>
				<port id="0">
					<dim>1</dim>
					<dim>10</dim>
				</port>
				<port id="1"/>
				<port id="2"/>
				<port id="3"/>
				<port id="4"/>
			</input>
			<output>
				<port id="5" precision="FP32">
					<dim>1</dim>
					<dim>10</dim>
				</port>
			</output>
		</layer>
		<layer id="340" name="Subtract_190" type="Subtract" version="opset1">
			<data auto_broadcast="numpy"/>
			<input>
				<port id="0">
					<dim>1</dim>
					<dim>10</dim>
				</port>
				<port id="1">
					<dim>1</dim>
					<dim>10</dim>
				</port>
			</input>
			<output>
				<port id="2" precision="FP32">
					<dim>1</dim>
					<dim>10</dim>
				</port>
			</output>
		</layer>
		<layer id="341" name="Exp_191/fq_input_0" type="FakeQuantize" version="opset1">
			<data levels="4294967296" auto_broadcast="numpy"/>
			<input>
				<port id="0">
					<dim>1</dim>
					<dim>10</dim>
				</port>
				<port id="1"/>
				<port id="2"/>
				<port id="3"/>
				<port id="4"/>
			</input>
			<output>
				<port id="5" precision="FP32">
					<dim>1</dim>
					<dim>10</dim>
				</port>
			</output>
		</layer>
		<layer id="342" name="Exp_191" type="Exp" version="opset1">
			<input>
				<port id="0">
					<dim>1</dim>
					<dim>10</dim>
				</port>
			</input>
			<output>
				<port id="1" precision="FP32">
					<dim>1</dim>
					<dim>10</dim>
				</port>
			</output>
		</layer>
		<layer id="343" name="Exp_191/fq_output_0_0" type="FakeQuantize" version="opset1">
			<data levels="65536" auto_broadcast="numpy"/>
			<input>
				<port id="0">
					<dim>1</dim>
					<dim>10</dim>
				</port>
				<port id="1"/>
				<port id="2"/>
				<port id="3"/>
				<port id="4"/>
			</input>
			<output>
				<port id="5" precision="FP32">
					<dim>1</dim>
					<dim>10</dim>
				</port>
			</output>
		</layer>
		<layer id="344" name="Reshape_193" type="Reshape" version="opset1">
			<data special_zero="false"/>
			<input>
				<port id="0">
					<dim>1</dim>
					<dim>10</dim>
				</port>
				<port id="1">
					<dim>2</dim>
				</port>
			</input>
			<output>
				<port id="2" precision="FP32" names="Identity">
					<dim>1</dim>
					<dim>10</dim>
				</port>
			</output>
		</layer>
		<layer id="345" name="Identity" type="Result" version="opset1">
			<rt_info>
				<attribute name="fused_names" version="0" value="Identity/sink_port_0"/>
			</rt_info>
			<input>
				<port id="0">
					<dim>1</dim>
					<dim>10</dim>
				</port>
			</input>
		</layer>
	</layers>
	<edges>
		<edge from-layer="27" from-port="0" to-layer="28" to-port="0"/>
		<edge from-layer="23" from-port="0" to-layer="28" to-port="1"/>
		<edge from-layer="24" from-port="0" to-layer="28" to-port="2"/>
		<edge from-layer="25" from-port="0" to-layer="28" to-port="3"/>
		<edge from-layer="26" from-port="0" to-layer="28" to-port="4"/>
		<edge from-layer="50" from-port="0" to-layer="51" to-port="0"/>
		<edge from-layer="46" from-port="0" to-layer="51" to-port="1"/>
		<edge from-layer="47" from-port="0" to-layer="51" to-port="2"/>
		<edge from-layer="48" from-port="0" to-layer="51" to-port="3"/>
		<edge from-layer="49" from-port="0" to-layer="51" to-port="4"/>
		<edge from-layer="68" from-port="0" to-layer="69" to-port="0"/>
		<edge from-layer="64" from-port="0" to-layer="69" to-port="1"/>
		<edge from-layer="65" from-port="0" to-layer="69" to-port="2"/>
		<edge from-layer="66" from-port="0" to-layer="69" to-port="3"/>
		<edge from-layer="67" from-port="0" to-layer="69" to-port="4"/>
		<edge from-layer="90" from-port="0" to-layer="91" to-port="0"/>
		<edge from-layer="86" from-port="0" to-layer="91" to-port="1"/>
		<edge from-layer="87" from-port="0" to-layer="91" to-port="2"/>
		<edge from-layer="88" from-port="0" to-layer="91" to-port="3"/>
		<edge from-layer="89" from-port="0" to-layer="91" to-port="4"/>
		<edge from-layer="97" from-port="0" to-layer="98" to-port="0"/>
		<edge from-layer="93" from-port="0" to-layer="98" to-port="1"/>
		<edge from-layer="94" from-port="0" to-layer="98" to-port="2"/>
		<edge from-layer="95" from-port="0" to-layer="98" to-port="3"/>
		<edge from-layer="96" from-port="0" to-layer="98" to-port="4"/>
		<edge from-layer="98" from-port="5" to-layer="99" to-port="0"/>
		<edge from-layer="92" from-port="0" to-layer="99" to-port="1"/>
		<edge from-layer="99" from-port="2" to-layer="100" to-port="0"/>
		<edge from-layer="91" from-port="5" to-layer="100" to-port="1"/>
		<edge from-layer="100" from-port="2" to-layer="102" to-port="0"/>
		<edge from-layer="101" from-port="0" to-layer="102" to-port="1"/>
		<edge from-layer="102" from-port="2" to-layer="103" to-port="0"/>
		<edge from-layer="82" from-port="0" to-layer="103" to-port="1"/>
		<edge from-layer="83" from-port="0" to-layer="103" to-port="2"/>
		<edge from-layer="84" from-port="0" to-layer="103" to-port="3"/>
		<edge from-layer="85" from-port="0" to-layer="103" to-port="4"/>
		<edge from-layer="103" from-port="5" to-layer="104" to-port="0"/>
		<edge from-layer="104" from-port="1" to-layer="105" to-port="0"/>
		<edge from-layer="78" from-port="0" to-layer="105" to-port="1"/>
		<edge from-layer="79" from-port="0" to-layer="105" to-port="2"/>
		<edge from-layer="80" from-port="0" to-layer="105" to-port="3"/>
		<edge from-layer="81" from-port="0" to-layer="105" to-port="4"/>
		<edge from-layer="114" from-port="0" to-layer="115" to-port="0"/>
		<edge from-layer="110" from-port="0" to-layer="115" to-port="1"/>
		<edge from-layer="111" from-port="0" to-layer="115" to-port="2"/>
		<edge from-layer="112" from-port="0" to-layer="115" to-port="3"/>
		<edge from-layer="113" from-port="0" to-layer="115" to-port="4"/>
		<edge from-layer="128" from-port="0" to-layer="129" to-port="0"/>
		<edge from-layer="124" from-port="0" to-layer="129" to-port="1"/>
		<edge from-layer="125" from-port="0" to-layer="129" to-port="2"/>
		<edge from-layer="126" from-port="0" to-layer="129" to-port="3"/>
		<edge from-layer="127" from-port="0" to-layer="129" to-port="4"/>
		<edge from-layer="105" from-port="5" to-layer="130" to-port="0"/>
		<edge from-layer="129" from-port="5" to-layer="130" to-port="1"/>
		<edge from-layer="130" from-port="2" to-layer="132" to-port="0"/>
		<edge from-layer="131" from-port="0" to-layer="132" to-port="1"/>
		<edge from-layer="132" from-port="2" to-layer="133" to-port="0"/>
		<edge from-layer="120" from-port="0" to-layer="133" to-port="1"/>
		<edge from-layer="121" from-port="0" to-layer="133" to-port="2"/>
		<edge from-layer="122" from-port="0" to-layer="133" to-port="3"/>
		<edge from-layer="123" from-port="0" to-layer="133" to-port="4"/>
		<edge from-layer="133" from-port="5" to-layer="134" to-port="0"/>
		<edge from-layer="134" from-port="1" to-layer="135" to-port="0"/>
		<edge from-layer="116" from-port="0" to-layer="135" to-port="1"/>
		<edge from-layer="117" from-port="0" to-layer="135" to-port="2"/>
		<edge from-layer="118" from-port="0" to-layer="135" to-port="3"/>
		<edge from-layer="119" from-port="0" to-layer="135" to-port="4"/>
		<edge from-layer="135" from-port="5" to-layer="136" to-port="0"/>
		<edge from-layer="115" from-port="5" to-layer="136" to-port="1"/>
		<edge from-layer="136" from-port="2" to-layer="138" to-port="0"/>
		<edge from-layer="137" from-port="0" to-layer="138" to-port="1"/>
		<edge from-layer="138" from-port="2" to-layer="139" to-port="0"/>
		<edge from-layer="106" from-port="0" to-layer="139" to-port="1"/>
		<edge from-layer="107" from-port="0" to-layer="139" to-port="2"/>
		<edge from-layer="108" from-port="0" to-layer="139" to-port="3"/>
		<edge from-layer="109" from-port="0" to-layer="139" to-port="4"/>
		<edge from-layer="105" from-port="5" to-layer="140" to-port="0"/>
		<edge from-layer="139" from-port="5" to-layer="140" to-port="1"/>
		<edge from-layer="140" from-port="2" to-layer="141" to-port="0"/>
		<edge from-layer="74" from-port="0" to-layer="141" to-port="1"/>
		<edge from-layer="75" from-port="0" to-layer="141" to-port="2"/>
		<edge from-layer="76" from-port="0" to-layer="141" to-port="3"/>
		<edge from-layer="77" from-port="0" to-layer="141" to-port="4"/>
		<edge from-layer="141" from-port="5" to-layer="142" to-port="0"/>
		<edge from-layer="142" from-port="1" to-layer="143" to-port="0"/>
		<edge from-layer="70" from-port="0" to-layer="143" to-port="1"/>
		<edge from-layer="71" from-port="0" to-layer="143" to-port="2"/>
		<edge from-layer="72" from-port="0" to-layer="143" to-port="3"/>
		<edge from-layer="73" from-port="0" to-layer="143" to-port="4"/>
		<edge from-layer="143" from-port="5" to-layer="144" to-port="0"/>
		<edge from-layer="69" from-port="5" to-layer="144" to-port="1"/>
		<edge from-layer="144" from-port="2" to-layer="146" to-port="0"/>
		<edge from-layer="145" from-port="0" to-layer="146" to-port="1"/>
		<edge from-layer="146" from-port="2" to-layer="147" to-port="0"/>
		<edge from-layer="60" from-port="0" to-layer="147" to-port="1"/>
		<edge from-layer="61" from-port="0" to-layer="147" to-port="2"/>
		<edge from-layer="62" from-port="0" to-layer="147" to-port="3"/>
		<edge from-layer="63" from-port="0" to-layer="147" to-port="4"/>
		<edge from-layer="156" from-port="0" to-layer="157" to-port="0"/>
		<edge from-layer="152" from-port="0" to-layer="157" to-port="1"/>
		<edge from-layer="153" from-port="0" to-layer="157" to-port="2"/>
		<edge from-layer="154" from-port="0" to-layer="157" to-port="3"/>
		<edge from-layer="155" from-port="0" to-layer="157" to-port="4"/>
		<edge from-layer="170" from-port="0" to-layer="171" to-port="0"/>
		<edge from-layer="166" from-port="0" to-layer="171" to-port="1"/>
		<edge from-layer="167" from-port="0" to-layer="171" to-port="2"/>
		<edge from-layer="168" from-port="0" to-layer="171" to-port="3"/>
		<edge from-layer="169" from-port="0" to-layer="171" to-port="4"/>
		<edge from-layer="143" from-port="5" to-layer="172" to-port="0"/>
		<edge from-layer="171" from-port="5" to-layer="172" to-port="1"/>
		<edge from-layer="172" from-port="2" to-layer="174" to-port="0"/>
		<edge from-layer="173" from-port="0" to-layer="174" to-port="1"/>
		<edge from-layer="174" from-port="2" to-layer="175" to-port="0"/>
		<edge from-layer="162" from-port="0" to-layer="175" to-port="1"/>
		<edge from-layer="163" from-port="0" to-layer="175" to-port="2"/>
		<edge from-layer="164" from-port="0" to-layer="175" to-port="3"/>
		<edge from-layer="165" from-port="0" to-layer="175" to-port="4"/>
		<edge from-layer="175" from-port="5" to-layer="176" to-port="0"/>
		<edge from-layer="176" from-port="1" to-layer="177" to-port="0"/>
		<edge from-layer="158" from-port="0" to-layer="177" to-port="1"/>
		<edge from-layer="159" from-port="0" to-layer="177" to-port="2"/>
		<edge from-layer="160" from-port="0" to-layer="177" to-port="3"/>
		<edge from-layer="161" from-port="0" to-layer="177" to-port="4"/>
		<edge from-layer="177" from-port="5" to-layer="178" to-port="0"/>
		<edge from-layer="157" from-port="5" to-layer="178" to-port="1"/>
		<edge from-layer="178" from-port="2" to-layer="180" to-port="0"/>
		<edge from-layer="179" from-port="0" to-layer="180" to-port="1"/>
		<edge from-layer="180" from-port="2" to-layer="181" to-port="0"/>
		<edge from-layer="148" from-port="0" to-layer="181" to-port="1"/>
		<edge from-layer="149" from-port="0" to-layer="181" to-port="2"/>
		<edge from-layer="150" from-port="0" to-layer="181" to-port="3"/>
		<edge from-layer="151" from-port="0" to-layer="181" to-port="4"/>
		<edge from-layer="147" from-port="5" to-layer="182" to-port="0"/>
		<edge from-layer="181" from-port="5" to-layer="182" to-port="1"/>
		<edge from-layer="182" from-port="2" to-layer="183" to-port="0"/>
		<edge from-layer="56" from-port="0" to-layer="183" to-port="1"/>
		<edge from-layer="57" from-port="0" to-layer="183" to-port="2"/>
		<edge from-layer="58" from-port="0" to-layer="183" to-port="3"/>
		<edge from-layer="59" from-port="0" to-layer="183" to-port="4"/>
		<edge from-layer="183" from-port="5" to-layer="184" to-port="0"/>
		<edge from-layer="184" from-port="1" to-layer="185" to-port="0"/>
		<edge from-layer="52" from-port="0" to-layer="185" to-port="1"/>
		<edge from-layer="53" from-port="0" to-layer="185" to-port="2"/>
		<edge from-layer="54" from-port="0" to-layer="185" to-port="3"/>
		<edge from-layer="55" from-port="0" to-layer="185" to-port="4"/>
		<edge from-layer="185" from-port="5" to-layer="186" to-port="0"/>
		<edge from-layer="51" from-port="5" to-layer="186" to-port="1"/>
		<edge from-layer="186" from-port="2" to-layer="188" to-port="0"/>
		<edge from-layer="187" from-port="0" to-layer="188" to-port="1"/>
		<edge from-layer="188" from-port="2" to-layer="189" to-port="0"/>
		<edge from-layer="42" from-port="0" to-layer="189" to-port="1"/>
		<edge from-layer="43" from-port="0" to-layer="189" to-port="2"/>
		<edge from-layer="44" from-port="0" to-layer="189" to-port="3"/>
		<edge from-layer="45" from-port="0" to-layer="189" to-port="4"/>
		<edge from-layer="198" from-port="0" to-layer="199" to-port="0"/>
		<edge from-layer="194" from-port="0" to-layer="199" to-port="1"/>
		<edge from-layer="195" from-port="0" to-layer="199" to-port="2"/>
		<edge from-layer="196" from-port="0" to-layer="199" to-port="3"/>
		<edge from-layer="197" from-port="0" to-layer="199" to-port="4"/>
		<edge from-layer="212" from-port="0" to-layer="213" to-port="0"/>
		<edge from-layer="208" from-port="0" to-layer="213" to-port="1"/>
		<edge from-layer="209" from-port="0" to-layer="213" to-port="2"/>
		<edge from-layer="210" from-port="0" to-layer="213" to-port="3"/>
		<edge from-layer="211" from-port="0" to-layer="213" to-port="4"/>
		<edge from-layer="185" from-port="5" to-layer="214" to-port="0"/>
		<edge from-layer="213" from-port="5" to-layer="214" to-port="1"/>
		<edge from-layer="214" from-port="2" to-layer="216" to-port="0"/>
		<edge from-layer="215" from-port="0" to-layer="216" to-port="1"/>
		<edge from-layer="216" from-port="2" to-layer="217" to-port="0"/>
		<edge from-layer="204" from-port="0" to-layer="217" to-port="1"/>
		<edge from-layer="205" from-port="0" to-layer="217" to-port="2"/>
		<edge from-layer="206" from-port="0" to-layer="217" to-port="3"/>
		<edge from-layer="207" from-port="0" to-layer="217" to-port="4"/>
		<edge from-layer="217" from-port="5" to-layer="218" to-port="0"/>
		<edge from-layer="218" from-port="1" to-layer="219" to-port="0"/>
		<edge from-layer="200" from-port="0" to-layer="219" to-port="1"/>
		<edge from-layer="201" from-port="0" to-layer="219" to-port="2"/>
		<edge from-layer="202" from-port="0" to-layer="219" to-port="3"/>
		<edge from-layer="203" from-port="0" to-layer="219" to-port="4"/>
		<edge from-layer="219" from-port="5" to-layer="220" to-port="0"/>
		<edge from-layer="199" from-port="5" to-layer="220" to-port="1"/>
		<edge from-layer="220" from-port="2" to-layer="222" to-port="0"/>
		<edge from-layer="221" from-port="0" to-layer="222" to-port="1"/>
		<edge from-layer="222" from-port="2" to-layer="223" to-port="0"/>
		<edge from-layer="190" from-port="0" to-layer="223" to-port="1"/>
		<edge from-layer="191" from-port="0" to-layer="223" to-port="2"/>
		<edge from-layer="192" from-port="0" to-layer="223" to-port="3"/>
		<edge from-layer="193" from-port="0" to-layer="223" to-port="4"/>
		<edge from-layer="189" from-port="5" to-layer="224" to-port="0"/>
		<edge from-layer="223" from-port="5" to-layer="224" to-port="1"/>
		<edge from-layer="224" from-port="2" to-layer="225" to-port="0"/>
		<edge from-layer="38" from-port="0" to-layer="225" to-port="1"/>
		<edge from-layer="39" from-port="0" to-layer="225" to-port="2"/>
		<edge from-layer="40" from-port="0" to-layer="225" to-port="3"/>
		<edge from-layer="41" from-port="0" to-layer="225" to-port="4"/>
		<edge from-layer="225" from-port="5" to-layer="226" to-port="0"/>
		<edge from-layer="226" from-port="1" to-layer="227" to-port="0"/>
		<edge from-layer="34" from-port="0" to-layer="227" to-port="1"/>
		<edge from-layer="35" from-port="0" to-layer="227" to-port="2"/>
		<edge from-layer="36" from-port="0" to-layer="227" to-port="3"/>
		<edge from-layer="37" from-port="0" to-layer="227" to-port="4"/>
		<edge from-layer="227" from-port="5" to-layer="228" to-port="0"/>
		<edge from-layer="228" from-port="1" to-layer="229" to-port="0"/>
		<edge from-layer="30" from-port="0" to-layer="229" to-port="1"/>
		<edge from-layer="31" from-port="0" to-layer="229" to-port="2"/>
		<edge from-layer="32" from-port="0" to-layer="229" to-port="3"/>
		<edge from-layer="33" from-port="0" to-layer="229" to-port="4"/>
		<edge from-layer="229" from-port="5" to-layer="230" to-port="0"/>
		<edge from-layer="29" from-port="0" to-layer="230" to-port="1"/>
		<edge from-layer="230" from-port="2" to-layer="231" to-port="0"/>
		<edge from-layer="28" from-port="5" to-layer="231" to-port="1"/>
		<edge from-layer="231" from-port="2" to-layer="233" to-port="0"/>
		<edge from-layer="232" from-port="0" to-layer="233" to-port="1"/>
		<edge from-layer="233" from-port="2" to-layer="234" to-port="0"/>
		<edge from-layer="19" from-port="0" to-layer="234" to-port="1"/>
		<edge from-layer="20" from-port="0" to-layer="234" to-port="2"/>
		<edge from-layer="21" from-port="0" to-layer="234" to-port="3"/>
		<edge from-layer="22" from-port="0" to-layer="234" to-port="4"/>
		<edge from-layer="234" from-port="5" to-layer="235" to-port="0"/>
		<edge from-layer="18" from-port="0" to-layer="235" to-port="1"/>
		<edge from-layer="235" from-port="2" to-layer="236" to-port="0"/>
		<edge from-layer="17" from-port="0" to-layer="236" to-port="1"/>
		<edge from-layer="248" from-port="0" to-layer="249" to-port="0"/>
		<edge from-layer="244" from-port="0" to-layer="249" to-port="1"/>
		<edge from-layer="245" from-port="0" to-layer="249" to-port="2"/>
		<edge from-layer="246" from-port="0" to-layer="249" to-port="3"/>
		<edge from-layer="247" from-port="0" to-layer="249" to-port="4"/>
		<edge from-layer="260" from-port="0" to-layer="261" to-port="0"/>
		<edge from-layer="256" from-port="0" to-layer="261" to-port="1"/>
		<edge from-layer="257" from-port="0" to-layer="261" to-port="2"/>
		<edge from-layer="258" from-port="0" to-layer="261" to-port="3"/>
		<edge from-layer="259" from-port="0" to-layer="261" to-port="4"/>
		<edge from-layer="236" from-port="2" to-layer="264" to-port="0"/>
		<edge from-layer="263" from-port="0" to-layer="264" to-port="1"/>
		<edge from-layer="264" from-port="2" to-layer="265" to-port="0"/>
		<edge from-layer="262" from-port="0" to-layer="265" to-port="1"/>
		<edge from-layer="265" from-port="2" to-layer="266" to-port="0"/>
		<edge from-layer="261" from-port="5" to-layer="266" to-port="1"/>
		<edge from-layer="266" from-port="2" to-layer="267" to-port="0"/>
		<edge from-layer="255" from-port="0" to-layer="267" to-port="1"/>
		<edge from-layer="267" from-port="2" to-layer="268" to-port="0"/>
		<edge from-layer="251" from-port="0" to-layer="268" to-port="1"/>
		<edge from-layer="252" from-port="0" to-layer="268" to-port="2"/>
		<edge from-layer="253" from-port="0" to-layer="268" to-port="3"/>
		<edge from-layer="254" from-port="0" to-layer="268" to-port="4"/>
		<edge from-layer="268" from-port="5" to-layer="269" to-port="0"/>
		<edge from-layer="269" from-port="1" to-layer="270" to-port="0"/>
		<edge from-layer="250" from-port="0" to-layer="270" to-port="1"/>
		<edge from-layer="270" from-port="2" to-layer="271" to-port="0"/>
		<edge from-layer="249" from-port="5" to-layer="271" to-port="1"/>
		<edge from-layer="271" from-port="2" to-layer="272" to-port="0"/>
		<edge from-layer="243" from-port="0" to-layer="272" to-port="1"/>
		<edge from-layer="272" from-port="2" to-layer="273" to-port="0"/>
		<edge from-layer="239" from-port="0" to-layer="273" to-port="1"/>
		<edge from-layer="240" from-port="0" to-layer="273" to-port="2"/>
		<edge from-layer="241" from-port="0" to-layer="273" to-port="3"/>
		<edge from-layer="242" from-port="0" to-layer="273" to-port="4"/>
		<edge from-layer="273" from-port="5" to-layer="274" to-port="0"/>
		<edge from-layer="238" from-port="0" to-layer="274" to-port="1"/>
		<edge from-layer="274" from-port="2" to-layer="275" to-port="0"/>
		<edge from-layer="237" from-port="0" to-layer="275" to-port="1"/>
		<edge from-layer="236" from-port="2" to-layer="276" to-port="0"/>
		<edge from-layer="275" from-port="2" to-layer="276" to-port="1"/>
		<edge from-layer="276" from-port="2" to-layer="277" to-port="0"/>
		<edge from-layer="13" from-port="0" to-layer="277" to-port="1"/>
		<edge from-layer="14" from-port="0" to-layer="277" to-port="2"/>
		<edge from-layer="15" from-port="0" to-layer="277" to-port="3"/>
		<edge from-layer="16" from-port="0" to-layer="277" to-port="4"/>
		<edge from-layer="282" from-port="0" to-layer="283" to-port="0"/>
		<edge from-layer="278" from-port="0" to-layer="283" to-port="1"/>
		<edge from-layer="279" from-port="0" to-layer="283" to-port="2"/>
		<edge from-layer="280" from-port="0" to-layer="283" to-port="3"/>
		<edge from-layer="281" from-port="0" to-layer="283" to-port="4"/>
		<edge from-layer="277" from-port="5" to-layer="284" to-port="0"/>
		<edge from-layer="283" from-port="5" to-layer="284" to-port="1"/>
		<edge from-layer="284" from-port="2" to-layer="285" to-port="0"/>
		<edge from-layer="9" from-port="0" to-layer="285" to-port="1"/>
		<edge from-layer="10" from-port="0" to-layer="285" to-port="2"/>
		<edge from-layer="11" from-port="0" to-layer="285" to-port="3"/>
		<edge from-layer="12" from-port="0" to-layer="285" to-port="4"/>
		<edge from-layer="301" from-port="0" to-layer="302" to-port="0"/>
		<edge from-layer="297" from-port="0" to-layer="302" to-port="1"/>
		<edge from-layer="298" from-port="0" to-layer="302" to-port="2"/>
		<edge from-layer="299" from-port="0" to-layer="302" to-port="3"/>
		<edge from-layer="300" from-port="0" to-layer="302" to-port="4"/>
		<edge from-layer="315" from-port="0" to-layer="316" to-port="0"/>
		<edge from-layer="311" from-port="0" to-layer="316" to-port="1"/>
		<edge from-layer="312" from-port="0" to-layer="316" to-port="2"/>
		<edge from-layer="313" from-port="0" to-layer="316" to-port="3"/>
		<edge from-layer="314" from-port="0" to-layer="316" to-port="4"/>
		<edge from-layer="277" from-port="5" to-layer="323" to-port="0"/>
		<edge from-layer="323" from-port="1" to-layer="324" to-port="0"/>
		<edge from-layer="319" from-port="0" to-layer="324" to-port="1"/>
		<edge from-layer="320" from-port="0" to-layer="324" to-port="2"/>
		<edge from-layer="321" from-port="0" to-layer="324" to-port="3"/>
		<edge from-layer="322" from-port="0" to-layer="324" to-port="4"/>
		<edge from-layer="324" from-port="5" to-layer="325" to-port="0"/>
		<edge from-layer="318" from-port="0" to-layer="325" to-port="1"/>
		<edge from-layer="325" from-port="2" to-layer="326" to-port="0"/>
		<edge from-layer="317" from-port="0" to-layer="326" to-port="1"/>
		<edge from-layer="326" from-port="2" to-layer="327" to-port="0"/>
		<edge from-layer="316" from-port="5" to-layer="327" to-port="1"/>
		<edge from-layer="327" from-port="2" to-layer="328" to-port="0"/>
		<edge from-layer="310" from-port="0" to-layer="328" to-port="1"/>
		<edge from-layer="328" from-port="2" to-layer="329" to-port="0"/>
		<edge from-layer="306" from-port="0" to-layer="329" to-port="1"/>
		<edge from-layer="307" from-port="0" to-layer="329" to-port="2"/>
		<edge from-layer="308" from-port="0" to-layer="329" to-port="3"/>
		<edge from-layer="309" from-port="0" to-layer="329" to-port="4"/>
		<edge from-layer="329" from-port="5" to-layer="330" to-port="0"/>
		<edge from-layer="305" from-port="0" to-layer="330" to-port="1"/>
		<edge from-layer="330" from-port="2" to-layer="331" to-port="0"/>
		<edge from-layer="304" from-port="0" to-layer="331" to-port="1"/>
		<edge from-layer="331" from-port="2" to-layer="332" to-port="0"/>
		<edge from-layer="303" from-port="0" to-layer="332" to-port="1"/>
		<edge from-layer="332" from-port="2" to-layer="333" to-port="0"/>
		<edge from-layer="302" from-port="5" to-layer="333" to-port="1"/>
		<edge from-layer="333" from-port="2" to-layer="334" to-port="0"/>
		<edge from-layer="296" from-port="0" to-layer="334" to-port="1"/>
		<edge from-layer="334" from-port="2" to-layer="335" to-port="0"/>
		<edge from-layer="292" from-port="0" to-layer="335" to-port="1"/>
		<edge from-layer="293" from-port="0" to-layer="335" to-port="2"/>
		<edge from-layer="294" from-port="0" to-layer="335" to-port="3"/>
		<edge from-layer="295" from-port="0" to-layer="335" to-port="4"/>
		<edge from-layer="335" from-port="5" to-layer="336" to-port="0"/>
		<edge from-layer="291" from-port="0" to-layer="336" to-port="1"/>
		<edge from-layer="336" from-port="2" to-layer="337" to-port="0"/>
		<edge from-layer="290" from-port="0" to-layer="337" to-port="1"/>
		<edge from-layer="337" from-port="2" to-layer="338" to-port="0"/>
		<edge from-layer="338" from-port="1" to-layer="339" to-port="0"/>
		<edge from-layer="286" from-port="0" to-layer="339" to-port="1"/>
		<edge from-layer="287" from-port="0" to-layer="339" to-port="2"/>
		<edge from-layer="288" from-port="0" to-layer="339" to-port="3"/>
		<edge from-layer="289" from-port="0" to-layer="339" to-port="4"/>
		<edge from-layer="285" from-port="5" to-layer="340" to-port="0"/>
		<edge from-layer="339" from-port="5" to-layer="340" to-port="1"/>
		<edge from-layer="340" from-port="2" to-layer="341" to-port="0"/>
		<edge from-layer="5" from-port="0" to-layer="341" to-port="1"/>
		<edge from-layer="6" from-port="0" to-layer="341" to-port="2"/>
		<edge from-layer="7" from-port="0" to-layer="341" to-port="3"/>
		<edge from-layer="8" from-port="0" to-layer="341" to-port="4"/>
		<edge from-layer="341" from-port="5" to-layer="342" to-port="0"/>
		<edge from-layer="342" from-port="1" to-layer="343" to-port="0"/>
		<edge from-layer="1" from-port="0" to-layer="343" to-port="1"/>
		<edge from-layer="2" from-port="0" to-layer="343" to-port="2"/>
		<edge from-layer="3" from-port="0" to-layer="343" to-port="3"/>
		<edge from-layer="4" from-port="0" to-layer="343" to-port="4"/>
		<edge from-layer="343" from-port="5" to-layer="344" to-port="0"/>
		<edge from-layer="0" from-port="0" to-layer="344" to-port="1"/>
		<edge from-layer="344" from-port="2" to-layer="345" to-port="0"/>
	</edges>
	<rt_info>
		<MO_version value="custom_master_ed65d199bb3365c9bb296ce1ec1c1acda81b096a"/>
		<Runtime_version value="custom_master_ed65d199bb3365c9bb296ce1ec1c1acda81b096a"/>
		<conversion_parameters>
			<caffe_parser_path value="DIR"/>
			<compress_fp16 value="False"/>
			<data_type value="float"/>
			<disable_nhwc_to_nchw value="False"/>
			<disable_omitting_optional value="False"/>
			<disable_resnet_optimization value="False"/>
			<disable_weights_compression value="False"/>
			<enable_concat_optimization value="False"/>
			<enable_flattening_nested_params value="False"/>
			<enable_ssd_gluoncv value="False"/>
			<extensions value="DIR"/>
			<framework value="onnx"/>
			<freeze_placeholder_with_value value="{}"/>
			<input_model value="DIR\pretrainedResnet.onnx"/>
			<input_model_is_text value="False"/>
			<input_shape value="[1,32,32,3]"/>
			<k value="DIR\CustomLayersMapping.xml"/>
			<layout value="()"/>
			<layout_values value="{}"/>
			<legacy_mxnet_model value="False"/>
			<log_level value="ERROR"/>
			<mean_scale_values value="{}"/>
			<mean_values value="()"/>
			<model_name value="pretrainedResnet"/>
			<output_dir value="DIR"/>
			<packed_user_shapes value="defaultdict(&lt;class 'list'&gt;, {'input_1': [{'shape': (1, 32, 32, 3), 'port': None, 'added': True}]})"/>
			<placeholder_data_types value="{}"/>
			<placeholder_shapes value="(1, 32, 32, 3)"/>
			<progress value="False"/>
			<remove_memory value="False"/>
			<remove_output_softmax value="False"/>
			<reverse_input_channels value="False"/>
			<save_params_from_nd value="False"/>
			<scale_values value="()"/>
			<silent value="False"/>
			<source_layout value="()"/>
			<static_shape value="True"/>
			<stream_output value="False"/>
			<target_layout value="()"/>
			<transform value=""/>
			<unset value="batch, counts, disable_fusing, finegrain_fusing, input, input_checkpoint, input_meta_graph, input_proto, input_symbol, mean_file, mean_file_offsets, nd_prefix_name, output, pretrained_model_name, saved_model_dir, saved_model_tags, scale, tensorboard_logdir, tensorflow_custom_layer_libraries, tensorflow_custom_operations_config_update, tensorflow_object_detection_api_pipeline_config, tensorflow_use_custom_operations_config, transformations_config"/>
			<use_legacy_frontend value="False"/>
			<use_new_frontend value="False"/>
		</conversion_parameters>
		<legacy_path value="True"/>
		<optimization value="None"/>
	</rt_info>
	<quantization_parameters>
		<config/>
		<version value="{}"/>
		<cli_params value="{}"/>
	</quantization_parameters>
</net>
