<?xml version="1.0" ?>
<net name="vww_96_float" version="11">
	<layers>
		<layer id="339" name="input_1" type="Parameter" version="opset1">
			<data shape="1,96,96,3" element_type="f32"/>
			<rt_info>
				<attribute name="fused_names" version="0" value="input_1"/>
			</rt_info>
			<output>
				<port id="0" precision="FP32" names="input_1">
					<dim>1</dim>
					<dim>96</dim>
					<dim>96</dim>
					<dim>3</dim>
					<rt_info/>
				</port>
			</output>
		</layer>
		<layer id="0" name="Constant_3703827723" type="Const" version="opset1">
			<data offset="0" size="16" shape="2" element_type="i64"/>
			<output>
				<port id="0" precision="I64">
					<dim>2</dim>
				</port>
			</output>
		</layer>
		<layer id="1" name="237123757987" type="Const" version="opset1">
			<data offset="16" size="4" shape="" element_type="f32"/>
			<output>
				<port id="0" precision="FP32"/>
			</output>
		</layer>
		<layer id="2" name="237223768152" type="Const" version="opset1">
			<data offset="20" size="4" shape="" element_type="f32"/>
			<output>
				<port id="0" precision="FP32"/>
			</output>
		</layer>
		<layer id="3" name="237323777582" type="Const" version="opset1">
			<data offset="16" size="4" shape="" element_type="f32"/>
			<output>
				<port id="0" precision="FP32"/>
			</output>
		</layer>
		<layer id="4" name="237423787915" type="Const" version="opset1">
			<data offset="20" size="4" shape="" element_type="f32"/>
			<output>
				<port id="0" precision="FP32"/>
			</output>
		</layer>
		<layer id="5" name="236123657600" type="Const" version="opset1">
			<data offset="24" size="4" shape="" element_type="f32"/>
			<output>
				<port id="0" precision="FP32"/>
			</output>
		</layer>
		<layer id="6" name="236223667903" type="Const" version="opset1">
			<data offset="28" size="4" shape="" element_type="f32"/>
			<output>
				<port id="0" precision="FP32"/>
			</output>
		</layer>
		<layer id="7" name="236323677663" type="Const" version="opset1">
			<data offset="24" size="4" shape="" element_type="f32"/>
			<output>
				<port id="0" precision="FP32"/>
			</output>
		</layer>
		<layer id="8" name="236423687060" type="Const" version="opset1">
			<data offset="28" size="4" shape="" element_type="f32"/>
			<output>
				<port id="0" precision="FP32"/>
			</output>
		</layer>
		<layer id="9" name="128112857504" type="Const" version="opset1">
			<data offset="32" size="4" shape="" element_type="f32"/>
			<output>
				<port id="0" precision="FP32"/>
			</output>
		</layer>
		<layer id="10" name="128212867897" type="Const" version="opset1">
			<data offset="36" size="4" shape="" element_type="f32"/>
			<output>
				<port id="0" precision="FP32"/>
			</output>
		</layer>
		<layer id="11" name="128312877219" type="Const" version="opset1">
			<data offset="32" size="4" shape="" element_type="f32"/>
			<output>
				<port id="0" precision="FP32"/>
			</output>
		</layer>
		<layer id="12" name="128412888344" type="Const" version="opset1">
			<data offset="36" size="4" shape="" element_type="f32"/>
			<output>
				<port id="0" precision="FP32"/>
			</output>
		</layer>
		<layer id="13" name="126112658239" type="Const" version="opset1">
			<data offset="40" size="4" shape="" element_type="f32"/>
			<output>
				<port id="0" precision="FP32"/>
			</output>
		</layer>
		<layer id="14" name="126212668380" type="Const" version="opset1">
			<data offset="44" size="4" shape="" element_type="f32"/>
			<output>
				<port id="0" precision="FP32"/>
			</output>
		</layer>
		<layer id="15" name="126312678407" type="Const" version="opset1">
			<data offset="40" size="4" shape="" element_type="f32"/>
			<output>
				<port id="0" precision="FP32"/>
			</output>
		</layer>
		<layer id="16" name="126412687645" type="Const" version="opset1">
			<data offset="44" size="4" shape="" element_type="f32"/>
			<output>
				<port id="0" precision="FP32"/>
			</output>
		</layer>
		<layer id="17" name="Constant_3173408308" type="Const" version="opset1">
			<data offset="0" size="16" shape="2" element_type="i64"/>
			<output>
				<port id="0" precision="I64">
					<dim>2</dim>
				</port>
			</output>
		</layer>
		<layer id="18" name="Identity119/FlattenONNX_/Reshape/shape3387246" type="Const" version="opset1">
			<data offset="48" size="16" shape="2" element_type="i64"/>
			<rt_info>
				<attribute name="fused_names" version="0" value="Identity119/FlattenONNX_/Reshape/shape"/>
			</rt_info>
			<output>
				<port id="0" precision="I64">
					<dim>2</dim>
				</port>
			</output>
		</layer>
		<layer id="19" name="205120557444" type="Const" version="opset1">
			<data offset="64" size="4" shape="" element_type="f32"/>
			<output>
				<port id="0" precision="FP32"/>
			</output>
		</layer>
		<layer id="20" name="205220567120" type="Const" version="opset1">
			<data offset="68" size="4" shape="" element_type="f32"/>
			<output>
				<port id="0" precision="FP32"/>
			</output>
		</layer>
		<layer id="21" name="205320578014" type="Const" version="opset1">
			<data offset="64" size="4" shape="" element_type="f32"/>
			<output>
				<port id="0" precision="FP32"/>
			</output>
		</layer>
		<layer id="22" name="205420587450" type="Const" version="opset1">
			<data offset="68" size="4" shape="" element_type="f32"/>
			<output>
				<port id="0" precision="FP32"/>
			</output>
		</layer>
		<layer id="23" name="204120458359" type="Const" version="opset1">
			<data offset="72" size="4" shape="" element_type="f32"/>
			<output>
				<port id="0" precision="FP32"/>
			</output>
		</layer>
		<layer id="24" name="204220467063" type="Const" version="opset1">
			<data offset="76" size="4" shape="" element_type="f32"/>
			<output>
				<port id="0" precision="FP32"/>
			</output>
		</layer>
		<layer id="25" name="204320477141" type="Const" version="opset1">
			<data offset="80" size="4" shape="" element_type="f32"/>
			<output>
				<port id="0" precision="FP32"/>
			</output>
		</layer>
		<layer id="26" name="204420487165" type="Const" version="opset1">
			<data offset="84" size="4" shape="" element_type="f32"/>
			<output>
				<port id="0" precision="FP32"/>
			</output>
		</layer>
		<layer id="27" name="const_fold_opt__2803347033" type="Const" version="opset1">
			<data offset="88" size="2048" shape="2,256" element_type="f32"/>
			<rt_info>
				<attribute name="fused_names" version="0" value="const_fold_opt__280"/>
			</rt_info>
			<output>
				<port id="0" precision="FP32" names="const_fold_opt__280">
					<dim>2</dim>
					<dim>256</dim>
				</port>
			</output>
		</layer>
		<layer id="28" name="model/dense/MatMul;model/dense/BiasAdd/fq_weights_1" type="FakeQuantize" version="opset1">
			<data levels="65535" auto_broadcast="numpy"/>
			<input>
				<port id="0">
					<dim>2</dim>
					<dim>256</dim>
				</port>
				<port id="1"/>
				<port id="2"/>
				<port id="3"/>
				<port id="4"/>
			</input>
			<output>
				<port id="5" precision="FP32">
					<dim>2</dim>
					<dim>256</dim>
				</port>
			</output>
		</layer>
		<layer id="29" name="const_fold_opt__2833327210" type="Const" version="opset1">
			<data offset="2136" size="16" shape="2" element_type="i64"/>
			<rt_info>
				<attribute name="fused_names" version="0" value="const_fold_opt__283"/>
			</rt_info>
			<output>
				<port id="0" precision="I64" names="const_fold_opt__283">
					<dim>2</dim>
				</port>
			</output>
		</layer>
		<layer id="30" name="331733217765" type="Const" version="opset1">
			<data offset="2152" size="4" shape="" element_type="f32"/>
			<output>
				<port id="0" precision="FP32"/>
			</output>
		</layer>
		<layer id="31" name="331833227111" type="Const" version="opset1">
			<data offset="2156" size="4" shape="" element_type="f32"/>
			<output>
				<port id="0" precision="FP32"/>
			</output>
		</layer>
		<layer id="32" name="331933238203" type="Const" version="opset1">
			<data offset="2152" size="4" shape="" element_type="f32"/>
			<output>
				<port id="0" precision="FP32"/>
			</output>
		</layer>
		<layer id="33" name="332033247108" type="Const" version="opset1">
			<data offset="2156" size="4" shape="" element_type="f32"/>
			<output>
				<port id="0" precision="FP32"/>
			</output>
		</layer>
		<layer id="34" name="217121757168" type="Const" version="opset1">
			<data offset="2160" size="4" shape="" element_type="f32"/>
			<output>
				<port id="0" precision="FP32"/>
			</output>
		</layer>
		<layer id="35" name="217221768257" type="Const" version="opset1">
			<data offset="2164" size="4" shape="" element_type="f32"/>
			<output>
				<port id="0" precision="FP32"/>
			</output>
		</layer>
		<layer id="36" name="217321777072" type="Const" version="opset1">
			<data offset="2160" size="4" shape="" element_type="f32"/>
			<output>
				<port id="0" precision="FP32"/>
			</output>
		</layer>
		<layer id="37" name="217421787795" type="Const" version="opset1">
			<data offset="2164" size="4" shape="" element_type="f32"/>
			<output>
				<port id="0" precision="FP32"/>
			</output>
		</layer>
		<layer id="38" name="159115958296" type="Const" version="opset1">
			<data offset="2168" size="4" shape="" element_type="f32"/>
			<output>
				<port id="0" precision="FP32"/>
			</output>
		</layer>
		<layer id="39" name="159215968437" type="Const" version="opset1">
			<data offset="2172" size="4" shape="" element_type="f32"/>
			<output>
				<port id="0" precision="FP32"/>
			</output>
		</layer>
		<layer id="40" name="159315977780" type="Const" version="opset1">
			<data offset="2168" size="4" shape="" element_type="f32"/>
			<output>
				<port id="0" precision="FP32"/>
			</output>
		</layer>
		<layer id="41" name="159415988038" type="Const" version="opset1">
			<data offset="2172" size="4" shape="" element_type="f32"/>
			<output>
				<port id="0" precision="FP32"/>
			</output>
		</layer>
		<layer id="42" name="158115857474" type="Const" version="opset1">
			<data offset="2176" size="4" shape="" element_type="f32"/>
			<output>
				<port id="0" precision="FP32"/>
			</output>
		</layer>
		<layer id="43" name="158215868074" type="Const" version="opset1">
			<data offset="2180" size="4" shape="" element_type="f32"/>
			<output>
				<port id="0" precision="FP32"/>
			</output>
		</layer>
		<layer id="44" name="158315877729" type="Const" version="opset1">
			<data offset="2176" size="4" shape="" element_type="f32"/>
			<output>
				<port id="0" precision="FP32"/>
			</output>
		</layer>
		<layer id="45" name="158415888236" type="Const" version="opset1">
			<data offset="2180" size="4" shape="" element_type="f32"/>
			<output>
				<port id="0" precision="FP32"/>
			</output>
		</layer>
		<layer id="46" name="const_fold_opt__2773267486" type="Const" version="opset1">
			<data offset="2184" size="262144" shape="256,256,1,1" element_type="f32"/>
			<rt_info>
				<attribute name="fused_names" version="0" value="const_fold_opt__277"/>
			</rt_info>
			<output>
				<port id="0" precision="FP32" names="const_fold_opt__277">
					<dim>256</dim>
					<dim>256</dim>
					<dim>1</dim>
					<dim>1</dim>
				</port>
			</output>
		</layer>
		<layer id="47" name="model/activation_26/Relu;model/batch_normalization_26/FusedBatchNormV3;model/conv2d_13/BiasAdd/ReadVariableOp/resource;model/conv2d_13/BiasAdd;model/conv2d_13/Conv2D1/WithoutBiases/fq_weights_1" type="FakeQuantize" version="opset1">
			<data levels="65535" auto_broadcast="numpy"/>
			<input>
				<port id="0">
					<dim>256</dim>
					<dim>256</dim>
					<dim>1</dim>
					<dim>1</dim>
				</port>
				<port id="1"/>
				<port id="2"/>
				<port id="3"/>
				<port id="4"/>
			</input>
			<output>
				<port id="5" precision="FP32">
					<dim>256</dim>
					<dim>256</dim>
					<dim>1</dim>
					<dim>1</dim>
				</port>
			</output>
		</layer>
		<layer id="48" name="8518557465" type="Const" version="opset1">
			<data offset="264328" size="4" shape="" element_type="f32"/>
			<output>
				<port id="0" precision="FP32"/>
			</output>
		</layer>
		<layer id="49" name="8528567576" type="Const" version="opset1">
			<data offset="264332" size="4" shape="" element_type="f32"/>
			<output>
				<port id="0" precision="FP32"/>
			</output>
		</layer>
		<layer id="50" name="8538577642" type="Const" version="opset1">
			<data offset="264328" size="4" shape="" element_type="f32"/>
			<output>
				<port id="0" precision="FP32"/>
			</output>
		</layer>
		<layer id="51" name="8548588284" type="Const" version="opset1">
			<data offset="264332" size="4" shape="" element_type="f32"/>
			<output>
				<port id="0" precision="FP32"/>
			</output>
		</layer>
		<layer id="52" name="146114658413" type="Const" version="opset1">
			<data offset="264336" size="4" shape="" element_type="f32"/>
			<output>
				<port id="0" precision="FP32"/>
			</output>
		</layer>
		<layer id="53" name="146214667438" type="Const" version="opset1">
			<data offset="264332" size="4" shape="" element_type="f32"/>
			<output>
				<port id="0" precision="FP32"/>
			</output>
		</layer>
		<layer id="54" name="146314678008" type="Const" version="opset1">
			<data offset="264336" size="4" shape="" element_type="f32"/>
			<output>
				<port id="0" precision="FP32"/>
			</output>
		</layer>
		<layer id="55" name="146414688269" type="Const" version="opset1">
			<data offset="264332" size="4" shape="" element_type="f32"/>
			<output>
				<port id="0" precision="FP32"/>
			</output>
		</layer>
		<layer id="56" name="101110157012" type="Const" version="opset1">
			<data offset="264340" size="4" shape="" element_type="f32"/>
			<output>
				<port id="0" precision="FP32"/>
			</output>
		</layer>
		<layer id="57" name="101210167447" type="Const" version="opset1">
			<data offset="264344" size="4" shape="" element_type="f32"/>
			<output>
				<port id="0" precision="FP32"/>
			</output>
		</layer>
		<layer id="58" name="101310177948" type="Const" version="opset1">
			<data offset="264340" size="4" shape="" element_type="f32"/>
			<output>
				<port id="0" precision="FP32"/>
			</output>
		</layer>
		<layer id="59" name="101410187258" type="Const" version="opset1">
			<data offset="264344" size="4" shape="" element_type="f32"/>
			<output>
				<port id="0" precision="FP32"/>
			</output>
		</layer>
		<layer id="60" name="179117957849" type="Const" version="opset1">
			<data offset="264348" size="4" shape="" element_type="f32"/>
			<output>
				<port id="0" precision="FP32"/>
			</output>
		</layer>
		<layer id="61" name="179217968224" type="Const" version="opset1">
			<data offset="264352" size="4" shape="" element_type="f32"/>
			<output>
				<port id="0" precision="FP32"/>
			</output>
		</layer>
		<layer id="62" name="179317977552" type="Const" version="opset1">
			<data offset="264348" size="4" shape="" element_type="f32"/>
			<output>
				<port id="0" precision="FP32"/>
			</output>
		</layer>
		<layer id="63" name="179417987069" type="Const" version="opset1">
			<data offset="264352" size="4" shape="" element_type="f32"/>
			<output>
				<port id="0" precision="FP32"/>
			</output>
		</layer>
		<layer id="64" name="178117858356" type="Const" version="opset1">
			<data offset="264356" size="4" shape="" element_type="f32"/>
			<output>
				<port id="0" precision="FP32"/>
			</output>
		</layer>
		<layer id="65" name="178217866994" type="Const" version="opset1">
			<data offset="264360" size="4" shape="" element_type="f32"/>
			<output>
				<port id="0" precision="FP32"/>
			</output>
		</layer>
		<layer id="66" name="178317877702" type="Const" version="opset1">
			<data offset="264364" size="4" shape="" element_type="f32"/>
			<output>
				<port id="0" precision="FP32"/>
			</output>
		</layer>
		<layer id="67" name="178417887687" type="Const" version="opset1">
			<data offset="264368" size="4" shape="" element_type="f32"/>
			<output>
				<port id="0" precision="FP32"/>
			</output>
		</layer>
		<layer id="68" name="const_fold_opt__3123168350" type="Const" version="opset1">
			<data offset="264372" size="131072" shape="256,128,1,1" element_type="f32"/>
			<rt_info>
				<attribute name="fused_names" version="0" value="const_fold_opt__312"/>
			</rt_info>
			<output>
				<port id="0" precision="FP32" names="const_fold_opt__312">
					<dim>256</dim>
					<dim>128</dim>
					<dim>1</dim>
					<dim>1</dim>
				</port>
			</output>
		</layer>
		<layer id="69" name="model/activation_24/Relu;model/batch_normalization_24/FusedBatchNormV3;model/conv2d_12/BiasAdd/ReadVariableOp/resource;model/conv2d_12/BiasAdd;model/conv2d_13/Conv2D;model/conv2d_12/Conv2D1/WithoutBiases/fq_weights_1" type="FakeQuantize" version="opset1">
			<data levels="65535" auto_broadcast="numpy"/>
			<input>
				<port id="0">
					<dim>256</dim>
					<dim>128</dim>
					<dim>1</dim>
					<dim>1</dim>
				</port>
				<port id="1"/>
				<port id="2"/>
				<port id="3"/>
				<port id="4"/>
			</input>
			<output>
				<port id="5" precision="FP32">
					<dim>256</dim>
					<dim>128</dim>
					<dim>1</dim>
					<dim>1</dim>
				</port>
			</output>
		</layer>
		<layer id="70" name="212121257978" type="Const" version="opset1">
			<data offset="395444" size="4" shape="" element_type="f32"/>
			<output>
				<port id="0" precision="FP32"/>
			</output>
		</layer>
		<layer id="71" name="212221267870" type="Const" version="opset1">
			<data offset="395448" size="4" shape="" element_type="f32"/>
			<output>
				<port id="0" precision="FP32"/>
			</output>
		</layer>
		<layer id="72" name="212321278080" type="Const" version="opset1">
			<data offset="395444" size="4" shape="" element_type="f32"/>
			<output>
				<port id="0" precision="FP32"/>
			</output>
		</layer>
		<layer id="73" name="212421286985" type="Const" version="opset1">
			<data offset="395448" size="4" shape="" element_type="f32"/>
			<output>
				<port id="0" precision="FP32"/>
			</output>
		</layer>
		<layer id="74" name="111111157387" type="Const" version="opset1">
			<data offset="395452" size="4" shape="" element_type="f32"/>
			<output>
				<port id="0" precision="FP32"/>
			</output>
		</layer>
		<layer id="75" name="111211167057" type="Const" version="opset1">
			<data offset="395448" size="4" shape="" element_type="f32"/>
			<output>
				<port id="0" precision="FP32"/>
			</output>
		</layer>
		<layer id="76" name="111311177036" type="Const" version="opset1">
			<data offset="395452" size="4" shape="" element_type="f32"/>
			<output>
				<port id="0" precision="FP32"/>
			</output>
		</layer>
		<layer id="77" name="111411187957" type="Const" version="opset1">
			<data offset="395448" size="4" shape="" element_type="f32"/>
			<output>
				<port id="0" precision="FP32"/>
			</output>
		</layer>
		<layer id="78" name="9419457096" type="Const" version="opset1">
			<data offset="395456" size="4" shape="" element_type="f32"/>
			<output>
				<port id="0" precision="FP32"/>
			</output>
		</layer>
		<layer id="79" name="9429468032" type="Const" version="opset1">
			<data offset="395460" size="4" shape="" element_type="f32"/>
			<output>
				<port id="0" precision="FP32"/>
			</output>
		</layer>
		<layer id="80" name="9439478131" type="Const" version="opset1">
			<data offset="395456" size="4" shape="" element_type="f32"/>
			<output>
				<port id="0" precision="FP32"/>
			</output>
		</layer>
		<layer id="81" name="9449487690" type="Const" version="opset1">
			<data offset="395460" size="4" shape="" element_type="f32"/>
			<output>
				<port id="0" precision="FP32"/>
			</output>
		</layer>
		<layer id="82" name="7417457891" type="Const" version="opset1">
			<data offset="395464" size="4" shape="" element_type="f32"/>
			<output>
				<port id="0" precision="FP32"/>
			</output>
		</layer>
		<layer id="83" name="7427467972" type="Const" version="opset1">
			<data offset="395460" size="4" shape="" element_type="f32"/>
			<output>
				<port id="0" precision="FP32"/>
			</output>
		</layer>
		<layer id="84" name="7437477615" type="Const" version="opset1">
			<data offset="395464" size="4" shape="" element_type="f32"/>
			<output>
				<port id="0" precision="FP32"/>
			</output>
		</layer>
		<layer id="85" name="7447486967" type="Const" version="opset1">
			<data offset="395460" size="4" shape="" element_type="f32"/>
			<output>
				<port id="0" precision="FP32"/>
			</output>
		</layer>
		<layer id="86" name="7317358209" type="Const" version="opset1">
			<data offset="395468" size="4" shape="" element_type="f32"/>
			<output>
				<port id="0" precision="FP32"/>
			</output>
		</layer>
		<layer id="87" name="7327366979" type="Const" version="opset1">
			<data offset="395472" size="4" shape="" element_type="f32"/>
			<output>
				<port id="0" precision="FP32"/>
			</output>
		</layer>
		<layer id="88" name="7337377018" type="Const" version="opset1">
			<data offset="395468" size="4" shape="" element_type="f32"/>
			<output>
				<port id="0" precision="FP32"/>
			</output>
		</layer>
		<layer id="89" name="7347387756" type="Const" version="opset1">
			<data offset="395472" size="4" shape="" element_type="f32"/>
			<output>
				<port id="0" precision="FP32"/>
			</output>
		</layer>
		<layer id="90" name="const_fold_opt__3353067375" type="Const" version="opset1">
			<data offset="395476" size="65536" shape="128,128,1,1" element_type="f32"/>
			<rt_info>
				<attribute name="fused_names" version="0" value="const_fold_opt__335"/>
			</rt_info>
			<output>
				<port id="0" precision="FP32" names="const_fold_opt__335">
					<dim>128</dim>
					<dim>128</dim>
					<dim>1</dim>
					<dim>1</dim>
				</port>
			</output>
		</layer>
		<layer id="91" name="model/activation_22/Relu;model/batch_normalization_22/FusedBatchNormV3;model/conv2d_11/BiasAdd/ReadVariableOp/resource;model/conv2d_11/BiasAdd;model/depthwise_conv2d_11/depthwise;model/conv2d_11/Conv2D1/WithoutBiases/fq_weights_1" type="FakeQuantize" version="opset1">
			<data levels="65535" auto_broadcast="numpy"/>
			<input>
				<port id="0">
					<dim>128</dim>
					<dim>128</dim>
					<dim>1</dim>
					<dim>1</dim>
				</port>
				<port id="1"/>
				<port id="2"/>
				<port id="3"/>
				<port id="4"/>
			</input>
			<output>
				<port id="5" precision="FP32">
					<dim>128</dim>
					<dim>128</dim>
					<dim>1</dim>
					<dim>1</dim>
				</port>
			</output>
		</layer>
		<layer id="92" name="229122957408" type="Const" version="opset1">
			<data offset="461012" size="4" shape="" element_type="f32"/>
			<output>
				<port id="0" precision="FP32"/>
			</output>
		</layer>
		<layer id="93" name="229222967789" type="Const" version="opset1">
			<data offset="461016" size="4" shape="" element_type="f32"/>
			<output>
				<port id="0" precision="FP32"/>
			</output>
		</layer>
		<layer id="94" name="229322977876" type="Const" version="opset1">
			<data offset="461012" size="4" shape="" element_type="f32"/>
			<output>
				<port id="0" precision="FP32"/>
			</output>
		</layer>
		<layer id="95" name="229422987936" type="Const" version="opset1">
			<data offset="461016" size="4" shape="" element_type="f32"/>
			<output>
				<port id="0" precision="FP32"/>
			</output>
		</layer>
		<layer id="96" name="153115357420" type="Const" version="opset1">
			<data offset="461020" size="4" shape="" element_type="f32"/>
			<output>
				<port id="0" precision="FP32"/>
			</output>
		</layer>
		<layer id="97" name="153215367384" type="Const" version="opset1">
			<data offset="461016" size="4" shape="" element_type="f32"/>
			<output>
				<port id="0" precision="FP32"/>
			</output>
		</layer>
		<layer id="98" name="153315377732" type="Const" version="opset1">
			<data offset="461020" size="4" shape="" element_type="f32"/>
			<output>
				<port id="0" precision="FP32"/>
			</output>
		</layer>
		<layer id="99" name="153415387303" type="Const" version="opset1">
			<data offset="461016" size="4" shape="" element_type="f32"/>
			<output>
				<port id="0" precision="FP32"/>
			</output>
		</layer>
		<layer id="100" name="150115058305" type="Const" version="opset1">
			<data offset="461024" size="4" shape="" element_type="f32"/>
			<output>
				<port id="0" precision="FP32"/>
			</output>
		</layer>
		<layer id="101" name="150215067162" type="Const" version="opset1">
			<data offset="461028" size="4" shape="" element_type="f32"/>
			<output>
				<port id="0" precision="FP32"/>
			</output>
		</layer>
		<layer id="102" name="150315077888" type="Const" version="opset1">
			<data offset="461024" size="4" shape="" element_type="f32"/>
			<output>
				<port id="0" precision="FP32"/>
			</output>
		</layer>
		<layer id="103" name="150415087378" type="Const" version="opset1">
			<data offset="461028" size="4" shape="" element_type="f32"/>
			<output>
				<port id="0" precision="FP32"/>
			</output>
		</layer>
		<layer id="104" name="131113157300" type="Const" version="opset1">
			<data offset="461032" size="4" shape="" element_type="f32"/>
			<output>
				<port id="0" precision="FP32"/>
			</output>
		</layer>
		<layer id="105" name="131213167909" type="Const" version="opset1">
			<data offset="461036" size="4" shape="" element_type="f32"/>
			<output>
				<port id="0" precision="FP32"/>
			</output>
		</layer>
		<layer id="106" name="131313177750" type="Const" version="opset1">
			<data offset="461032" size="4" shape="" element_type="f32"/>
			<output>
				<port id="0" precision="FP32"/>
			</output>
		</layer>
		<layer id="107" name="131413187999" type="Const" version="opset1">
			<data offset="461036" size="4" shape="" element_type="f32"/>
			<output>
				<port id="0" precision="FP32"/>
			</output>
		</layer>
		<layer id="108" name="130113057357" type="Const" version="opset1">
			<data offset="461040" size="4" shape="" element_type="f32"/>
			<output>
				<port id="0" precision="FP32"/>
			</output>
		</layer>
		<layer id="109" name="130213067717" type="Const" version="opset1">
			<data offset="461044" size="4" shape="" element_type="f32"/>
			<output>
				<port id="0" precision="FP32"/>
			</output>
		</layer>
		<layer id="110" name="130313077132" type="Const" version="opset1">
			<data offset="461040" size="4" shape="" element_type="f32"/>
			<output>
				<port id="0" precision="FP32"/>
			</output>
		</layer>
		<layer id="111" name="130413087240" type="Const" version="opset1">
			<data offset="461044" size="4" shape="" element_type="f32"/>
			<output>
				<port id="0" precision="FP32"/>
			</output>
		</layer>
		<layer id="112" name="const_fold_opt__2732966988" type="Const" version="opset1">
			<data offset="461048" size="65536" shape="128,128,1,1" element_type="f32"/>
			<rt_info>
				<attribute name="fused_names" version="0" value="const_fold_opt__273"/>
			</rt_info>
			<output>
				<port id="0" precision="FP32" names="const_fold_opt__273">
					<dim>128</dim>
					<dim>128</dim>
					<dim>1</dim>
					<dim>1</dim>
				</port>
			</output>
		</layer>
		<layer id="113" name="model/activation_20/Relu;model/batch_normalization_20/FusedBatchNormV3;model/conv2d_10/BiasAdd/ReadVariableOp/resource;model/conv2d_10/BiasAdd;model/depthwise_conv2d_11/depthwise;model/conv2d_10/Conv2D1/WithoutBiases/fq_weights_1" type="FakeQuantize" version="opset1">
			<data levels="65535" auto_broadcast="numpy"/>
			<input>
				<port id="0">
					<dim>128</dim>
					<dim>128</dim>
					<dim>1</dim>
					<dim>1</dim>
				</port>
				<port id="1"/>
				<port id="2"/>
				<port id="3"/>
				<port id="4"/>
			</input>
			<output>
				<port id="5" precision="FP32">
					<dim>128</dim>
					<dim>128</dim>
					<dim>1</dim>
					<dim>1</dim>
				</port>
			</output>
		</layer>
		<layer id="114" name="174117457573" type="Const" version="opset1">
			<data offset="526584" size="4" shape="" element_type="f32"/>
			<output>
				<port id="0" precision="FP32"/>
			</output>
		</layer>
		<layer id="115" name="174217468383" type="Const" version="opset1">
			<data offset="526588" size="4" shape="" element_type="f32"/>
			<output>
				<port id="0" precision="FP32"/>
			</output>
		</layer>
		<layer id="116" name="174317478275" type="Const" version="opset1">
			<data offset="526584" size="4" shape="" element_type="f32"/>
			<output>
				<port id="0" precision="FP32"/>
			</output>
		</layer>
		<layer id="117" name="174417488116" type="Const" version="opset1">
			<data offset="526588" size="4" shape="" element_type="f32"/>
			<output>
				<port id="0" precision="FP32"/>
			</output>
		</layer>
		<layer id="118" name="9919957777" type="Const" version="opset1">
			<data offset="526592" size="4" shape="" element_type="f32"/>
			<output>
				<port id="0" precision="FP32"/>
			</output>
		</layer>
		<layer id="119" name="9929968041" type="Const" version="opset1">
			<data offset="526588" size="4" shape="" element_type="f32"/>
			<output>
				<port id="0" precision="FP32"/>
			</output>
		</layer>
		<layer id="120" name="9939977186" type="Const" version="opset1">
			<data offset="526592" size="4" shape="" element_type="f32"/>
			<output>
				<port id="0" precision="FP32"/>
			</output>
		</layer>
		<layer id="121" name="9949987945" type="Const" version="opset1">
			<data offset="526588" size="4" shape="" element_type="f32"/>
			<output>
				<port id="0" precision="FP32"/>
			</output>
		</layer>
		<layer id="122" name="8018057321" type="Const" version="opset1">
			<data offset="526596" size="4" shape="" element_type="f32"/>
			<output>
				<port id="0" precision="FP32"/>
			</output>
		</layer>
		<layer id="123" name="8028067090" type="Const" version="opset1">
			<data offset="526600" size="4" shape="" element_type="f32"/>
			<output>
				<port id="0" precision="FP32"/>
			</output>
		</layer>
		<layer id="124" name="8038077093" type="Const" version="opset1">
			<data offset="526596" size="4" shape="" element_type="f32"/>
			<output>
				<port id="0" precision="FP32"/>
			</output>
		</layer>
		<layer id="125" name="8048088029" type="Const" version="opset1">
			<data offset="526600" size="4" shape="" element_type="f32"/>
			<output>
				<port id="0" precision="FP32"/>
			</output>
		</layer>
		<layer id="126" name="187118758389" type="Const" version="opset1">
			<data offset="526604" size="4" shape="" element_type="f32"/>
			<output>
				<port id="0" precision="FP32"/>
			</output>
		</layer>
		<layer id="127" name="187218768191" type="Const" version="opset1">
			<data offset="526608" size="4" shape="" element_type="f32"/>
			<output>
				<port id="0" precision="FP32"/>
			</output>
		</layer>
		<layer id="128" name="187318778017" type="Const" version="opset1">
			<data offset="526604" size="4" shape="" element_type="f32"/>
			<output>
				<port id="0" precision="FP32"/>
			</output>
		</layer>
		<layer id="129" name="187418788110" type="Const" version="opset1">
			<data offset="526608" size="4" shape="" element_type="f32"/>
			<output>
				<port id="0" precision="FP32"/>
			</output>
		</layer>
		<layer id="130" name="186118657471" type="Const" version="opset1">
			<data offset="526612" size="4" shape="" element_type="f32"/>
			<output>
				<port id="0" precision="FP32"/>
			</output>
		</layer>
		<layer id="131" name="186218667138" type="Const" version="opset1">
			<data offset="526616" size="4" shape="" element_type="f32"/>
			<output>
				<port id="0" precision="FP32"/>
			</output>
		</layer>
		<layer id="132" name="186318677288" type="Const" version="opset1">
			<data offset="526612" size="4" shape="" element_type="f32"/>
			<output>
				<port id="0" precision="FP32"/>
			</output>
		</layer>
		<layer id="133" name="186418687204" type="Const" version="opset1">
			<data offset="526616" size="4" shape="" element_type="f32"/>
			<output>
				<port id="0" precision="FP32"/>
			</output>
		</layer>
		<layer id="134" name="const_fold_opt__2972867696" type="Const" version="opset1">
			<data offset="526620" size="65536" shape="128,128,1,1" element_type="f32"/>
			<rt_info>
				<attribute name="fused_names" version="0" value="const_fold_opt__297"/>
			</rt_info>
			<output>
				<port id="0" precision="FP32" names="const_fold_opt__297">
					<dim>128</dim>
					<dim>128</dim>
					<dim>1</dim>
					<dim>1</dim>
				</port>
			</output>
		</layer>
		<layer id="135" name="model/activation_18/Relu;model/batch_normalization_18/FusedBatchNormV3;model/conv2d_9/BiasAdd/ReadVariableOp/resource;model/conv2d_9/BiasAdd;model/depthwise_conv2d_11/depthwise;model/conv2d_9/Conv2D1/WithoutBiases/fq_weights_1" type="FakeQuantize" version="opset1">
			<data levels="65535" auto_broadcast="numpy"/>
			<input>
				<port id="0">
					<dim>128</dim>
					<dim>128</dim>
					<dim>1</dim>
					<dim>1</dim>
				</port>
				<port id="1"/>
				<port id="2"/>
				<port id="3"/>
				<port id="4"/>
			</input>
			<output>
				<port id="5" precision="FP32">
					<dim>128</dim>
					<dim>128</dim>
					<dim>1</dim>
					<dim>1</dim>
				</port>
			</output>
		</layer>
		<layer id="136" name="235123557966" type="Const" version="opset1">
			<data offset="592156" size="4" shape="" element_type="f32"/>
			<output>
				<port id="0" precision="FP32"/>
			</output>
		</layer>
		<layer id="137" name="235223567747" type="Const" version="opset1">
			<data offset="592160" size="4" shape="" element_type="f32"/>
			<output>
				<port id="0" precision="FP32"/>
			</output>
		</layer>
		<layer id="138" name="235323577390" type="Const" version="opset1">
			<data offset="592156" size="4" shape="" element_type="f32"/>
			<output>
				<port id="0" precision="FP32"/>
			</output>
		</layer>
		<layer id="139" name="235423588167" type="Const" version="opset1">
			<data offset="592160" size="4" shape="" element_type="f32"/>
			<output>
				<port id="0" precision="FP32"/>
			</output>
		</layer>
		<layer id="140" name="120112057192" type="Const" version="opset1">
			<data offset="592164" size="4" shape="" element_type="f32"/>
			<output>
				<port id="0" precision="FP32"/>
			</output>
		</layer>
		<layer id="141" name="120212067114" type="Const" version="opset1">
			<data offset="592160" size="4" shape="" element_type="f32"/>
			<output>
				<port id="0" precision="FP32"/>
			</output>
		</layer>
		<layer id="142" name="120312078353" type="Const" version="opset1">
			<data offset="592164" size="4" shape="" element_type="f32"/>
			<output>
				<port id="0" precision="FP32"/>
			</output>
		</layer>
		<layer id="143" name="120412088107" type="Const" version="opset1">
			<data offset="592160" size="4" shape="" element_type="f32"/>
			<output>
				<port id="0" precision="FP32"/>
			</output>
		</layer>
		<layer id="144" name="192119257528" type="Const" version="opset1">
			<data offset="592168" size="4" shape="" element_type="f32"/>
			<output>
				<port id="0" precision="FP32"/>
			</output>
		</layer>
		<layer id="145" name="192219268323" type="Const" version="opset1">
			<data offset="592172" size="4" shape="" element_type="f32"/>
			<output>
				<port id="0" precision="FP32"/>
			</output>
		</layer>
		<layer id="146" name="192319277216" type="Const" version="opset1">
			<data offset="592168" size="4" shape="" element_type="f32"/>
			<output>
				<port id="0" precision="FP32"/>
			</output>
		</layer>
		<layer id="147" name="192419288146" type="Const" version="opset1">
			<data offset="592172" size="4" shape="" element_type="f32"/>
			<output>
				<port id="0" precision="FP32"/>
			</output>
		</layer>
		<layer id="148" name="114111457183" type="Const" version="opset1">
			<data offset="592176" size="4" shape="" element_type="f32"/>
			<output>
				<port id="0" precision="FP32"/>
			</output>
		</layer>
		<layer id="149" name="114211467276" type="Const" version="opset1">
			<data offset="592172" size="4" shape="" element_type="f32"/>
			<output>
				<port id="0" precision="FP32"/>
			</output>
		</layer>
		<layer id="150" name="114311477345" type="Const" version="opset1">
			<data offset="592176" size="4" shape="" element_type="f32"/>
			<output>
				<port id="0" precision="FP32"/>
			</output>
		</layer>
		<layer id="151" name="114411488020" type="Const" version="opset1">
			<data offset="592172" size="4" shape="" element_type="f32"/>
			<output>
				<port id="0" precision="FP32"/>
			</output>
		</layer>
		<layer id="152" name="113111357648" type="Const" version="opset1">
			<data offset="592180" size="4" shape="" element_type="f32"/>
			<output>
				<port id="0" precision="FP32"/>
			</output>
		</layer>
		<layer id="153" name="113211368083" type="Const" version="opset1">
			<data offset="592184" size="4" shape="" element_type="f32"/>
			<output>
				<port id="0" precision="FP32"/>
			</output>
		</layer>
		<layer id="154" name="113311377369" type="Const" version="opset1">
			<data offset="592180" size="4" shape="" element_type="f32"/>
			<output>
				<port id="0" precision="FP32"/>
			</output>
		</layer>
		<layer id="155" name="113411388266" type="Const" version="opset1">
			<data offset="592184" size="4" shape="" element_type="f32"/>
			<output>
				<port id="0" precision="FP32"/>
			</output>
		</layer>
		<layer id="156" name="const_fold_opt__2962767363" type="Const" version="opset1">
			<data offset="592188" size="65536" shape="128,128,1,1" element_type="f32"/>
			<rt_info>
				<attribute name="fused_names" version="0" value="const_fold_opt__296"/>
			</rt_info>
			<output>
				<port id="0" precision="FP32" names="const_fold_opt__296">
					<dim>128</dim>
					<dim>128</dim>
					<dim>1</dim>
					<dim>1</dim>
				</port>
			</output>
		</layer>
		<layer id="157" name="model/activation_16/Relu;model/batch_normalization_16/FusedBatchNormV3;model/conv2d_8/BiasAdd/ReadVariableOp/resource;model/conv2d_8/BiasAdd;model/depthwise_conv2d_11/depthwise;model/conv2d_8/Conv2D1/WithoutBiases/fq_weights_1" type="FakeQuantize" version="opset1">
			<data levels="65535" auto_broadcast="numpy"/>
			<input>
				<port id="0">
					<dim>128</dim>
					<dim>128</dim>
					<dim>1</dim>
					<dim>1</dim>
				</port>
				<port id="1"/>
				<port id="2"/>
				<port id="3"/>
				<port id="4"/>
			</input>
			<output>
				<port id="5" precision="FP32">
					<dim>128</dim>
					<dim>128</dim>
					<dim>1</dim>
					<dim>1</dim>
				</port>
			</output>
		</layer>
		<layer id="158" name="176117658194" type="Const" version="opset1">
			<data offset="657724" size="4" shape="" element_type="f32"/>
			<output>
				<port id="0" precision="FP32"/>
			</output>
		</layer>
		<layer id="159" name="176217667426" type="Const" version="opset1">
			<data offset="657728" size="4" shape="" element_type="f32"/>
			<output>
				<port id="0" precision="FP32"/>
			</output>
		</layer>
		<layer id="160" name="176317677513" type="Const" version="opset1">
			<data offset="657724" size="4" shape="" element_type="f32"/>
			<output>
				<port id="0" precision="FP32"/>
			</output>
		</layer>
		<layer id="161" name="176417687243" type="Const" version="opset1">
			<data offset="657728" size="4" shape="" element_type="f32"/>
			<output>
				<port id="0" precision="FP32"/>
			</output>
		</layer>
		<layer id="162" name="224122457189" type="Const" version="opset1">
			<data offset="657732" size="4" shape="" element_type="f32"/>
			<output>
				<port id="0" precision="FP32"/>
			</output>
		</layer>
		<layer id="163" name="224222467840" type="Const" version="opset1">
			<data offset="657728" size="4" shape="" element_type="f32"/>
			<output>
				<port id="0" precision="FP32"/>
			</output>
		</layer>
		<layer id="164" name="224322478377" type="Const" version="opset1">
			<data offset="657732" size="4" shape="" element_type="f32"/>
			<output>
				<port id="0" precision="FP32"/>
			</output>
		</layer>
		<layer id="165" name="224422487612" type="Const" version="opset1">
			<data offset="657728" size="4" shape="" element_type="f32"/>
			<output>
				<port id="0" precision="FP32"/>
			</output>
		</layer>
		<layer id="166" name="9619657333" type="Const" version="opset1">
			<data offset="657736" size="4" shape="" element_type="f32"/>
			<output>
				<port id="0" precision="FP32"/>
			</output>
		</layer>
		<layer id="167" name="9629667906" type="Const" version="opset1">
			<data offset="657740" size="4" shape="" element_type="f32"/>
			<output>
				<port id="0" precision="FP32"/>
			</output>
		</layer>
		<layer id="168" name="9639677318" type="Const" version="opset1">
			<data offset="657736" size="4" shape="" element_type="f32"/>
			<output>
				<port id="0" precision="FP32"/>
			</output>
		</layer>
		<layer id="169" name="9649687156" type="Const" version="opset1">
			<data offset="657740" size="4" shape="" element_type="f32"/>
			<output>
				<port id="0" precision="FP32"/>
			</output>
		</layer>
		<layer id="170" name="210121057837" type="Const" version="opset1">
			<data offset="657744" size="4" shape="" element_type="f32"/>
			<output>
				<port id="0" precision="FP32"/>
			</output>
		</layer>
		<layer id="171" name="210221067804" type="Const" version="opset1">
			<data offset="657748" size="4" shape="" element_type="f32"/>
			<output>
				<port id="0" precision="FP32"/>
			</output>
		</layer>
		<layer id="172" name="210321077813" type="Const" version="opset1">
			<data offset="657744" size="4" shape="" element_type="f32"/>
			<output>
				<port id="0" precision="FP32"/>
			</output>
		</layer>
		<layer id="173" name="210421088173" type="Const" version="opset1">
			<data offset="657748" size="4" shape="" element_type="f32"/>
			<output>
				<port id="0" precision="FP32"/>
			</output>
		</layer>
		<layer id="174" name="209120957054" type="Const" version="opset1">
			<data offset="657752" size="4" shape="" element_type="f32"/>
			<output>
				<port id="0" precision="FP32"/>
			</output>
		</layer>
		<layer id="175" name="209220968392" type="Const" version="opset1">
			<data offset="657756" size="4" shape="" element_type="f32"/>
			<output>
				<port id="0" precision="FP32"/>
			</output>
		</layer>
		<layer id="176" name="209320977786" type="Const" version="opset1">
			<data offset="657752" size="4" shape="" element_type="f32"/>
			<output>
				<port id="0" precision="FP32"/>
			</output>
		</layer>
		<layer id="177" name="209420987144" type="Const" version="opset1">
			<data offset="657756" size="4" shape="" element_type="f32"/>
			<output>
				<port id="0" precision="FP32"/>
			</output>
		</layer>
		<layer id="178" name="const_fold_opt__3052668395" type="Const" version="opset1">
			<data offset="657760" size="65536" shape="128,128,1,1" element_type="f32"/>
			<rt_info>
				<attribute name="fused_names" version="0" value="const_fold_opt__305"/>
			</rt_info>
			<output>
				<port id="0" precision="FP32" names="const_fold_opt__305">
					<dim>128</dim>
					<dim>128</dim>
					<dim>1</dim>
					<dim>1</dim>
				</port>
			</output>
		</layer>
		<layer id="179" name="model/activation_14/Relu;model/batch_normalization_14/FusedBatchNormV3;model/conv2d_7/BiasAdd/ReadVariableOp/resource;model/conv2d_7/BiasAdd;model/depthwise_conv2d_11/depthwise;model/conv2d_7/Conv2D1/WithoutBiases/fq_weights_1" type="FakeQuantize" version="opset1">
			<data levels="65535" auto_broadcast="numpy"/>
			<input>
				<port id="0">
					<dim>128</dim>
					<dim>128</dim>
					<dim>1</dim>
					<dim>1</dim>
				</port>
				<port id="1"/>
				<port id="2"/>
				<port id="3"/>
				<port id="4"/>
			</input>
			<output>
				<port id="5" precision="FP32">
					<dim>128</dim>
					<dim>128</dim>
					<dim>1</dim>
					<dim>1</dim>
				</port>
			</output>
		</layer>
		<layer id="180" name="7817857990" type="Const" version="opset1">
			<data offset="723296" size="4" shape="" element_type="f32"/>
			<output>
				<port id="0" precision="FP32"/>
			</output>
		</layer>
		<layer id="181" name="7827867498" type="Const" version="opset1">
			<data offset="723300" size="4" shape="" element_type="f32"/>
			<output>
				<port id="0" precision="FP32"/>
			</output>
		</layer>
		<layer id="182" name="7837877000" type="Const" version="opset1">
			<data offset="723296" size="4" shape="" element_type="f32"/>
			<output>
				<port id="0" precision="FP32"/>
			</output>
		</layer>
		<layer id="183" name="7847888026" type="Const" version="opset1">
			<data offset="723300" size="4" shape="" element_type="f32"/>
			<output>
				<port id="0" precision="FP32"/>
			</output>
		</layer>
		<layer id="184" name="8318357003" type="Const" version="opset1">
			<data offset="723304" size="4" shape="" element_type="f32"/>
			<output>
				<port id="0" precision="FP32"/>
			</output>
		</layer>
		<layer id="185" name="8328367456" type="Const" version="opset1">
			<data offset="723308" size="4" shape="" element_type="f32"/>
			<output>
				<port id="0" precision="FP32"/>
			</output>
		</layer>
		<layer id="186" name="8338377933" type="Const" version="opset1">
			<data offset="723304" size="4" shape="" element_type="f32"/>
			<output>
				<port id="0" precision="FP32"/>
			</output>
		</layer>
		<layer id="187" name="8348388332" type="Const" version="opset1">
			<data offset="723308" size="4" shape="" element_type="f32"/>
			<output>
				<port id="0" precision="FP32"/>
			</output>
		</layer>
		<layer id="188" name="231123157411" type="Const" version="opset1">
			<data offset="723312" size="4" shape="" element_type="f32"/>
			<output>
				<port id="0" precision="FP32"/>
			</output>
		</layer>
		<layer id="189" name="231223167873" type="Const" version="opset1">
			<data offset="723316" size="4" shape="" element_type="f32"/>
			<output>
				<port id="0" precision="FP32"/>
			</output>
		</layer>
		<layer id="190" name="231323177900" type="Const" version="opset1">
			<data offset="723312" size="4" shape="" element_type="f32"/>
			<output>
				<port id="0" precision="FP32"/>
			</output>
		</layer>
		<layer id="191" name="231423187969" type="Const" version="opset1">
			<data offset="723316" size="4" shape="" element_type="f32"/>
			<output>
				<port id="0" precision="FP32"/>
			</output>
		</layer>
		<layer id="192" name="9219257009" type="Const" version="opset1">
			<data offset="723320" size="4" shape="" element_type="f32"/>
			<output>
				<port id="0" precision="FP32"/>
			</output>
		</layer>
		<layer id="193" name="9229267483" type="Const" version="opset1">
			<data offset="723316" size="4" shape="" element_type="f32"/>
			<output>
				<port id="0" precision="FP32"/>
			</output>
		</layer>
		<layer id="194" name="9239278434" type="Const" version="opset1">
			<data offset="723320" size="4" shape="" element_type="f32"/>
			<output>
				<port id="0" precision="FP32"/>
			</output>
		</layer>
		<layer id="195" name="9249287222" type="Const" version="opset1">
			<data offset="723316" size="4" shape="" element_type="f32"/>
			<output>
				<port id="0" precision="FP32"/>
			</output>
		</layer>
		<layer id="196" name="9119157618" type="Const" version="opset1">
			<data offset="723324" size="4" shape="" element_type="f32"/>
			<output>
				<port id="0" precision="FP32"/>
			</output>
		</layer>
		<layer id="197" name="9129168200" type="Const" version="opset1">
			<data offset="723328" size="4" shape="" element_type="f32"/>
			<output>
				<port id="0" precision="FP32"/>
			</output>
		</layer>
		<layer id="198" name="9139177771" type="Const" version="opset1">
			<data offset="723324" size="4" shape="" element_type="f32"/>
			<output>
				<port id="0" precision="FP32"/>
			</output>
		</layer>
		<layer id="199" name="9149188314" type="Const" version="opset1">
			<data offset="723328" size="4" shape="" element_type="f32"/>
			<output>
				<port id="0" precision="FP32"/>
			</output>
		</layer>
		<layer id="200" name="const_fold_opt__3322567630" type="Const" version="opset1">
			<data offset="723332" size="32768" shape="128,64,1,1" element_type="f32"/>
			<rt_info>
				<attribute name="fused_names" version="0" value="const_fold_opt__332"/>
			</rt_info>
			<output>
				<port id="0" precision="FP32" names="const_fold_opt__332">
					<dim>128</dim>
					<dim>64</dim>
					<dim>1</dim>
					<dim>1</dim>
				</port>
			</output>
		</layer>
		<layer id="201" name="model/activation_12/Relu;model/batch_normalization_12/FusedBatchNormV3;model/conv2d_6/BiasAdd/ReadVariableOp/resource;model/conv2d_6/BiasAdd;model/depthwise_conv2d_11/depthwise;model/conv2d_6/Conv2D1/WithoutBiases/fq_weights_1" type="FakeQuantize" version="opset1">
			<data levels="65535" auto_broadcast="numpy"/>
			<input>
				<port id="0">
					<dim>128</dim>
					<dim>64</dim>
					<dim>1</dim>
					<dim>1</dim>
				</port>
				<port id="1"/>
				<port id="2"/>
				<port id="3"/>
				<port id="4"/>
			</input>
			<output>
				<port id="5" precision="FP32">
					<dim>128</dim>
					<dim>64</dim>
					<dim>1</dim>
					<dim>1</dim>
				</port>
			</output>
		</layer>
		<layer id="202" name="8718758086" type="Const" version="opset1">
			<data offset="756100" size="4" shape="" element_type="f32"/>
			<output>
				<port id="0" precision="FP32"/>
			</output>
		</layer>
		<layer id="203" name="8728767522" type="Const" version="opset1">
			<data offset="756104" size="4" shape="" element_type="f32"/>
			<output>
				<port id="0" precision="FP32"/>
			</output>
		</layer>
		<layer id="204" name="8738777315" type="Const" version="opset1">
			<data offset="756100" size="4" shape="" element_type="f32"/>
			<output>
				<port id="0" precision="FP32"/>
			</output>
		</layer>
		<layer id="205" name="8748787123" type="Const" version="opset1">
			<data offset="756104" size="4" shape="" element_type="f32"/>
			<output>
				<port id="0" precision="FP32"/>
			</output>
		</layer>
		<layer id="206" name="106110657549" type="Const" version="opset1">
			<data offset="756108" size="4" shape="" element_type="f32"/>
			<output>
				<port id="0" precision="FP32"/>
			</output>
		</layer>
		<layer id="207" name="106210668101" type="Const" version="opset1">
			<data offset="756104" size="4" shape="" element_type="f32"/>
			<output>
				<port id="0" precision="FP32"/>
			</output>
		</layer>
		<layer id="208" name="106310678140" type="Const" version="opset1">
			<data offset="756108" size="4" shape="" element_type="f32"/>
			<output>
				<port id="0" precision="FP32"/>
			</output>
		</layer>
		<layer id="209" name="106410688428" type="Const" version="opset1">
			<data offset="756104" size="4" shape="" element_type="f32"/>
			<output>
				<port id="0" precision="FP32"/>
			</output>
		</layer>
		<layer id="210" name="143114357753" type="Const" version="opset1">
			<data offset="756112" size="4" shape="" element_type="f32"/>
			<output>
				<port id="0" precision="FP32"/>
			</output>
		</layer>
		<layer id="211" name="143214368113" type="Const" version="opset1">
			<data offset="756116" size="4" shape="" element_type="f32"/>
			<output>
				<port id="0" precision="FP32"/>
			</output>
		</layer>
		<layer id="212" name="143314378218" type="Const" version="opset1">
			<data offset="756112" size="4" shape="" element_type="f32"/>
			<output>
				<port id="0" precision="FP32"/>
			</output>
		</layer>
		<layer id="213" name="143414387669" type="Const" version="opset1">
			<data offset="756116" size="4" shape="" element_type="f32"/>
			<output>
				<port id="0" precision="FP32"/>
			</output>
		</layer>
		<layer id="214" name="165116557330" type="Const" version="opset1">
			<data offset="756120" size="4" shape="" element_type="f32"/>
			<output>
				<port id="0" precision="FP32"/>
			</output>
		</layer>
		<layer id="215" name="165216568230" type="Const" version="opset1">
			<data offset="756124" size="4" shape="" element_type="f32"/>
			<output>
				<port id="0" precision="FP32"/>
			</output>
		</layer>
		<layer id="216" name="165316577519" type="Const" version="opset1">
			<data offset="756120" size="4" shape="" element_type="f32"/>
			<output>
				<port id="0" precision="FP32"/>
			</output>
		</layer>
		<layer id="217" name="165416588161" type="Const" version="opset1">
			<data offset="756124" size="4" shape="" element_type="f32"/>
			<output>
				<port id="0" precision="FP32"/>
			</output>
		</layer>
		<layer id="218" name="164116457081" type="Const" version="opset1">
			<data offset="756128" size="4" shape="" element_type="f32"/>
			<output>
				<port id="0" precision="FP32"/>
			</output>
		</layer>
		<layer id="219" name="164216467861" type="Const" version="opset1">
			<data offset="756132" size="4" shape="" element_type="f32"/>
			<output>
				<port id="0" precision="FP32"/>
			</output>
		</layer>
		<layer id="220" name="164316478233" type="Const" version="opset1">
			<data offset="756128" size="4" shape="" element_type="f32"/>
			<output>
				<port id="0" precision="FP32"/>
			</output>
		</layer>
		<layer id="221" name="164416488188" type="Const" version="opset1">
			<data offset="756132" size="4" shape="" element_type="f32"/>
			<output>
				<port id="0" precision="FP32"/>
			</output>
		</layer>
		<layer id="222" name="const_fold_opt__3102467306" type="Const" version="opset1">
			<data offset="756136" size="16384" shape="64,64,1,1" element_type="f32"/>
			<rt_info>
				<attribute name="fused_names" version="0" value="const_fold_opt__310"/>
			</rt_info>
			<output>
				<port id="0" precision="FP32" names="const_fold_opt__310">
					<dim>64</dim>
					<dim>64</dim>
					<dim>1</dim>
					<dim>1</dim>
				</port>
			</output>
		</layer>
		<layer id="223" name="model/activation_10/Relu;model/batch_normalization_10/FusedBatchNormV3;model/conv2d_5/BiasAdd/ReadVariableOp/resource;model/conv2d_5/BiasAdd;model/depthwise_conv2d_5/depthwise;model/conv2d_5/Conv2D1/WithoutBiases/fq_weights_1" type="FakeQuantize" version="opset1">
			<data levels="65535" auto_broadcast="numpy"/>
			<input>
				<port id="0">
					<dim>64</dim>
					<dim>64</dim>
					<dim>1</dim>
					<dim>1</dim>
				</port>
				<port id="1"/>
				<port id="2"/>
				<port id="3"/>
				<port id="4"/>
			</input>
			<output>
				<port id="5" precision="FP32">
					<dim>64</dim>
					<dim>64</dim>
					<dim>1</dim>
					<dim>1</dim>
				</port>
			</output>
		</layer>
		<layer id="224" name="170117057867" type="Const" version="opset1">
			<data offset="772520" size="4" shape="" element_type="f32"/>
			<output>
				<port id="0" precision="FP32"/>
			</output>
		</layer>
		<layer id="225" name="170217067492" type="Const" version="opset1">
			<data offset="772524" size="4" shape="" element_type="f32"/>
			<output>
				<port id="0" precision="FP32"/>
			</output>
		</layer>
		<layer id="226" name="170317077930" type="Const" version="opset1">
			<data offset="772520" size="4" shape="" element_type="f32"/>
			<output>
				<port id="0" precision="FP32"/>
			</output>
		</layer>
		<layer id="227" name="170417088440" type="Const" version="opset1">
			<data offset="772524" size="4" shape="" element_type="f32"/>
			<output>
				<port id="0" precision="FP32"/>
			</output>
		</layer>
		<layer id="228" name="190119058068" type="Const" version="opset1">
			<data offset="772528" size="4" shape="" element_type="f32"/>
			<output>
				<port id="0" precision="FP32"/>
			</output>
		</layer>
		<layer id="229" name="190219068302" type="Const" version="opset1">
			<data offset="772532" size="4" shape="" element_type="f32"/>
			<output>
				<port id="0" precision="FP32"/>
			</output>
		</layer>
		<layer id="230" name="190319078287" type="Const" version="opset1">
			<data offset="772528" size="4" shape="" element_type="f32"/>
			<output>
				<port id="0" precision="FP32"/>
			</output>
		</layer>
		<layer id="231" name="190419087744" type="Const" version="opset1">
			<data offset="772532" size="4" shape="" element_type="f32"/>
			<output>
				<port id="0" precision="FP32"/>
			</output>
		</layer>
		<layer id="232" name="233123357720" type="Const" version="opset1">
			<data offset="772536" size="4" shape="" element_type="f32"/>
			<output>
				<port id="0" precision="FP32"/>
			</output>
		</layer>
		<layer id="233" name="233223367921" type="Const" version="opset1">
			<data offset="772540" size="4" shape="" element_type="f32"/>
			<output>
				<port id="0" precision="FP32"/>
			</output>
		</layer>
		<layer id="234" name="233323377237" type="Const" version="opset1">
			<data offset="772536" size="4" shape="" element_type="f32"/>
			<output>
				<port id="0" precision="FP32"/>
			</output>
		</layer>
		<layer id="235" name="233423387846" type="Const" version="opset1">
			<data offset="772540" size="4" shape="" element_type="f32"/>
			<output>
				<port id="0" precision="FP32"/>
			</output>
		</layer>
		<layer id="236" name="198119858425" type="Const" version="opset1">
			<data offset="772544" size="4" shape="" element_type="f32"/>
			<output>
				<port id="0" precision="FP32"/>
			</output>
		</layer>
		<layer id="237" name="198219867249" type="Const" version="opset1">
			<data offset="772540" size="4" shape="" element_type="f32"/>
			<output>
				<port id="0" precision="FP32"/>
			</output>
		</layer>
		<layer id="238" name="198319878149" type="Const" version="opset1">
			<data offset="772544" size="4" shape="" element_type="f32"/>
			<output>
				<port id="0" precision="FP32"/>
			</output>
		</layer>
		<layer id="239" name="198419887075" type="Const" version="opset1">
			<data offset="772540" size="4" shape="" element_type="f32"/>
			<output>
				<port id="0" precision="FP32"/>
			</output>
		</layer>
		<layer id="240" name="197119757759" type="Const" version="opset1">
			<data offset="772548" size="4" shape="" element_type="f32"/>
			<output>
				<port id="0" precision="FP32"/>
			</output>
		</layer>
		<layer id="241" name="197219768179" type="Const" version="opset1">
			<data offset="772552" size="4" shape="" element_type="f32"/>
			<output>
				<port id="0" precision="FP32"/>
			</output>
		</layer>
		<layer id="242" name="197319777294" type="Const" version="opset1">
			<data offset="772548" size="4" shape="" element_type="f32"/>
			<output>
				<port id="0" precision="FP32"/>
			</output>
		</layer>
		<layer id="243" name="197419787006" type="Const" version="opset1">
			<data offset="772552" size="4" shape="" element_type="f32"/>
			<output>
				<port id="0" precision="FP32"/>
			</output>
		</layer>
		<layer id="244" name="const_fold_opt__2742367954" type="Const" version="opset1">
			<data offset="772556" size="8192" shape="64,32,1,1" element_type="f32"/>
			<rt_info>
				<attribute name="fused_names" version="0" value="const_fold_opt__274"/>
			</rt_info>
			<output>
				<port id="0" precision="FP32" names="const_fold_opt__274">
					<dim>64</dim>
					<dim>32</dim>
					<dim>1</dim>
					<dim>1</dim>
				</port>
			</output>
		</layer>
		<layer id="245" name="model/activation_8/Relu;model/batch_normalization_8/FusedBatchNormV3;model/conv2d_4/BiasAdd/ReadVariableOp/resource;model/conv2d_4/BiasAdd;model/depthwise_conv2d_5/depthwise;model/conv2d_4/Conv2D1/WithoutBiases/fq_weights_1" type="FakeQuantize" version="opset1">
			<data levels="65535" auto_broadcast="numpy"/>
			<input>
				<port id="0">
					<dim>64</dim>
					<dim>32</dim>
					<dim>1</dim>
					<dim>1</dim>
				</port>
				<port id="1"/>
				<port id="2"/>
				<port id="3"/>
				<port id="4"/>
			</input>
			<output>
				<port id="5" precision="FP32">
					<dim>64</dim>
					<dim>32</dim>
					<dim>1</dim>
					<dim>1</dim>
				</port>
			</output>
		</layer>
		<layer id="246" name="219121957042" type="Const" version="opset1">
			<data offset="780748" size="4" shape="" element_type="f32"/>
			<output>
				<port id="0" precision="FP32"/>
			</output>
		</layer>
		<layer id="247" name="219221967816" type="Const" version="opset1">
			<data offset="780752" size="4" shape="" element_type="f32"/>
			<output>
				<port id="0" precision="FP32"/>
			</output>
		</layer>
		<layer id="248" name="219321977660" type="Const" version="opset1">
			<data offset="780748" size="4" shape="" element_type="f32"/>
			<output>
				<port id="0" precision="FP32"/>
			</output>
		</layer>
		<layer id="249" name="219421988422" type="Const" version="opset1">
			<data offset="780752" size="4" shape="" element_type="f32"/>
			<output>
				<port id="0" precision="FP32"/>
			</output>
		</layer>
		<layer id="250" name="140114058155" type="Const" version="opset1">
			<data offset="780756" size="4" shape="" element_type="f32"/>
			<output>
				<port id="0" precision="FP32"/>
			</output>
		</layer>
		<layer id="251" name="140214068011" type="Const" version="opset1">
			<data offset="780760" size="4" shape="" element_type="f32"/>
			<output>
				<port id="0" precision="FP32"/>
			</output>
		</layer>
		<layer id="252" name="140314077066" type="Const" version="opset1">
			<data offset="780756" size="4" shape="" element_type="f32"/>
			<output>
				<port id="0" precision="FP32"/>
			</output>
		</layer>
		<layer id="253" name="140414087597" type="Const" version="opset1">
			<data offset="780760" size="4" shape="" element_type="f32"/>
			<output>
				<port id="0" precision="FP32"/>
			</output>
		</layer>
		<layer id="254" name="172117258416" type="Const" version="opset1">
			<data offset="780764" size="4" shape="" element_type="f32"/>
			<output>
				<port id="0" precision="FP32"/>
			</output>
		</layer>
		<layer id="255" name="172217267594" type="Const" version="opset1">
			<data offset="780768" size="4" shape="" element_type="f32"/>
			<output>
				<port id="0" precision="FP32"/>
			</output>
		</layer>
		<layer id="256" name="172317277459" type="Const" version="opset1">
			<data offset="780764" size="4" shape="" element_type="f32"/>
			<output>
				<port id="0" precision="FP32"/>
			</output>
		</layer>
		<layer id="257" name="172417287810" type="Const" version="opset1">
			<data offset="780768" size="4" shape="" element_type="f32"/>
			<output>
				<port id="0" precision="FP32"/>
			</output>
		</layer>
		<layer id="258" name="134113457510" type="Const" version="opset1">
			<data offset="780772" size="4" shape="" element_type="f32"/>
			<output>
				<port id="0" precision="FP32"/>
			</output>
		</layer>
		<layer id="259" name="134213468299" type="Const" version="opset1">
			<data offset="780768" size="4" shape="" element_type="f32"/>
			<output>
				<port id="0" precision="FP32"/>
			</output>
		</layer>
		<layer id="260" name="134313477051" type="Const" version="opset1">
			<data offset="780772" size="4" shape="" element_type="f32"/>
			<output>
				<port id="0" precision="FP32"/>
			</output>
		</layer>
		<layer id="261" name="134413487441" type="Const" version="opset1">
			<data offset="780768" size="4" shape="" element_type="f32"/>
			<output>
				<port id="0" precision="FP32"/>
			</output>
		</layer>
		<layer id="262" name="133113357255" type="Const" version="opset1">
			<data offset="780776" size="4" shape="" element_type="f32"/>
			<output>
				<port id="0" precision="FP32"/>
			</output>
		</layer>
		<layer id="263" name="133213367924" type="Const" version="opset1">
			<data offset="780780" size="4" shape="" element_type="f32"/>
			<output>
				<port id="0" precision="FP32"/>
			</output>
		</layer>
		<layer id="264" name="133313377537" type="Const" version="opset1">
			<data offset="780776" size="4" shape="" element_type="f32"/>
			<output>
				<port id="0" precision="FP32"/>
			</output>
		</layer>
		<layer id="265" name="133413387558" type="Const" version="opset1">
			<data offset="780780" size="4" shape="" element_type="f32"/>
			<output>
				<port id="0" precision="FP32"/>
			</output>
		</layer>
		<layer id="266" name="const_fold_opt__2892267585" type="Const" version="opset1">
			<data offset="780784" size="4096" shape="32,32,1,1" element_type="f32"/>
			<rt_info>
				<attribute name="fused_names" version="0" value="const_fold_opt__289"/>
			</rt_info>
			<output>
				<port id="0" precision="FP32" names="const_fold_opt__289">
					<dim>32</dim>
					<dim>32</dim>
					<dim>1</dim>
					<dim>1</dim>
				</port>
			</output>
		</layer>
		<layer id="267" name="model/activation_6/Relu;model/batch_normalization_6/FusedBatchNormV3;model/conv2d_3/BiasAdd/ReadVariableOp/resource;model/conv2d_3/BiasAdd;model/depthwise_conv2d_3/depthwise;model/conv2d_3/Conv2D1/WithoutBiases/fq_weights_1" type="FakeQuantize" version="opset1">
			<data levels="65535" auto_broadcast="numpy"/>
			<input>
				<port id="0">
					<dim>32</dim>
					<dim>32</dim>
					<dim>1</dim>
					<dim>1</dim>
				</port>
				<port id="1"/>
				<port id="2"/>
				<port id="3"/>
				<port id="4"/>
			</input>
			<output>
				<port id="5" precision="FP32">
					<dim>32</dim>
					<dim>32</dim>
					<dim>1</dim>
					<dim>1</dim>
				</port>
			</output>
		</layer>
		<layer id="268" name="207120757621" type="Const" version="opset1">
			<data offset="784880" size="4" shape="" element_type="f32"/>
			<output>
				<port id="0" precision="FP32"/>
			</output>
		</layer>
		<layer id="269" name="207220767540" type="Const" version="opset1">
			<data offset="784884" size="4" shape="" element_type="f32"/>
			<output>
				<port id="0" precision="FP32"/>
			</output>
		</layer>
		<layer id="270" name="207320777741" type="Const" version="opset1">
			<data offset="784880" size="4" shape="" element_type="f32"/>
			<output>
				<port id="0" precision="FP32"/>
			</output>
		</layer>
		<layer id="271" name="207420787762" type="Const" version="opset1">
			<data offset="784884" size="4" shape="" element_type="f32"/>
			<output>
				<port id="0" precision="FP32"/>
			</output>
		</layer>
		<layer id="272" name="227122758023" type="Const" version="opset1">
			<data offset="784888" size="4" shape="" element_type="f32"/>
			<output>
				<port id="0" precision="FP32"/>
			</output>
		</layer>
		<layer id="273" name="227222767951" type="Const" version="opset1">
			<data offset="784892" size="4" shape="" element_type="f32"/>
			<output>
				<port id="0" precision="FP32"/>
			</output>
		</layer>
		<layer id="274" name="227322777666" type="Const" version="opset1">
			<data offset="784888" size="4" shape="" element_type="f32"/>
			<output>
				<port id="0" precision="FP32"/>
			</output>
		</layer>
		<layer id="275" name="227422788221" type="Const" version="opset1">
			<data offset="784892" size="4" shape="" element_type="f32"/>
			<output>
				<port id="0" precision="FP32"/>
			</output>
		</layer>
		<layer id="276" name="195119557360" type="Const" version="opset1">
			<data offset="784896" size="4" shape="" element_type="f32"/>
			<output>
				<port id="0" precision="FP32"/>
			</output>
		</layer>
		<layer id="277" name="195219567858" type="Const" version="opset1">
			<data offset="784900" size="4" shape="" element_type="f32"/>
			<output>
				<port id="0" precision="FP32"/>
			</output>
		</layer>
		<layer id="278" name="195319578293" type="Const" version="opset1">
			<data offset="784896" size="4" shape="" element_type="f32"/>
			<output>
				<port id="0" precision="FP32"/>
			</output>
		</layer>
		<layer id="279" name="195419587693" type="Const" version="opset1">
			<data offset="784900" size="4" shape="" element_type="f32"/>
			<output>
				<port id="0" precision="FP32"/>
			</output>
		</layer>
		<layer id="280" name="156115658443" type="Const" version="opset1">
			<data offset="784904" size="4" shape="" element_type="f32"/>
			<output>
				<port id="0" precision="FP32"/>
			</output>
		</layer>
		<layer id="281" name="156215667030" type="Const" version="opset1">
			<data offset="784900" size="4" shape="" element_type="f32"/>
			<output>
				<port id="0" precision="FP32"/>
			</output>
		</layer>
		<layer id="282" name="156315678347" type="Const" version="opset1">
			<data offset="784904" size="4" shape="" element_type="f32"/>
			<output>
				<port id="0" precision="FP32"/>
			</output>
		</layer>
		<layer id="283" name="156415687738" type="Const" version="opset1">
			<data offset="784900" size="4" shape="" element_type="f32"/>
			<output>
				<port id="0" precision="FP32"/>
			</output>
		</layer>
		<layer id="284" name="155115557213" type="Const" version="opset1">
			<data offset="784908" size="4" shape="" element_type="f32"/>
			<output>
				<port id="0" precision="FP32"/>
			</output>
		</layer>
		<layer id="285" name="155215566991" type="Const" version="opset1">
			<data offset="784912" size="4" shape="" element_type="f32"/>
			<output>
				<port id="0" precision="FP32"/>
			</output>
		</layer>
		<layer id="286" name="155315577843" type="Const" version="opset1">
			<data offset="784908" size="4" shape="" element_type="f32"/>
			<output>
				<port id="0" precision="FP32"/>
			</output>
		</layer>
		<layer id="287" name="155415587339" type="Const" version="opset1">
			<data offset="784912" size="4" shape="" element_type="f32"/>
			<output>
				<port id="0" precision="FP32"/>
			</output>
		</layer>
		<layer id="288" name="const_fold_opt__2792167180" type="Const" version="opset1">
			<data offset="784916" size="2048" shape="32,16,1,1" element_type="f32"/>
			<rt_info>
				<attribute name="fused_names" version="0" value="const_fold_opt__279"/>
			</rt_info>
			<output>
				<port id="0" precision="FP32" names="const_fold_opt__279">
					<dim>32</dim>
					<dim>16</dim>
					<dim>1</dim>
					<dim>1</dim>
				</port>
			</output>
		</layer>
		<layer id="289" name="model/activation_4/Relu;model/batch_normalization_4/FusedBatchNormV3;model/conv2d_2/BiasAdd/ReadVariableOp/resource;model/conv2d_2/BiasAdd;model/depthwise_conv2d_3/depthwise;model/conv2d_2/Conv2D1/WithoutBiases/fq_weights_1" type="FakeQuantize" version="opset1">
			<data levels="65535" auto_broadcast="numpy"/>
			<input>
				<port id="0">
					<dim>32</dim>
					<dim>16</dim>
					<dim>1</dim>
					<dim>1</dim>
				</port>
				<port id="1"/>
				<port id="2"/>
				<port id="3"/>
				<port id="4"/>
			</input>
			<output>
				<port id="5" precision="FP32">
					<dim>32</dim>
					<dim>16</dim>
					<dim>1</dim>
					<dim>1</dim>
				</port>
			</output>
		</layer>
		<layer id="290" name="7617657675" type="Const" version="opset1">
			<data offset="786964" size="4" shape="" element_type="f32"/>
			<output>
				<port id="0" precision="FP32"/>
			</output>
		</layer>
		<layer id="291" name="7627667882" type="Const" version="opset1">
			<data offset="786968" size="4" shape="" element_type="f32"/>
			<output>
				<port id="0" precision="FP32"/>
			</output>
		</layer>
		<layer id="292" name="7637677639" type="Const" version="opset1">
			<data offset="786964" size="4" shape="" element_type="f32"/>
			<output>
				<port id="0" precision="FP32"/>
			</output>
		</layer>
		<layer id="293" name="7647687588" type="Const" version="opset1">
			<data offset="786968" size="4" shape="" element_type="f32"/>
			<output>
				<port id="0" precision="FP32"/>
			</output>
		</layer>
		<layer id="294" name="201120158311" type="Const" version="opset1">
			<data offset="786972" size="4" shape="" element_type="f32"/>
			<output>
				<port id="0" precision="FP32"/>
			</output>
		</layer>
		<layer id="295" name="201220168092" type="Const" version="opset1">
			<data offset="786976" size="4" shape="" element_type="f32"/>
			<output>
				<port id="0" precision="FP32"/>
			</output>
		</layer>
		<layer id="296" name="201320177831" type="Const" version="opset1">
			<data offset="786972" size="4" shape="" element_type="f32"/>
			<output>
				<port id="0" precision="FP32"/>
			</output>
		</layer>
		<layer id="297" name="201420188164" type="Const" version="opset1">
			<data offset="786976" size="4" shape="" element_type="f32"/>
			<output>
				<port id="0" precision="FP32"/>
			</output>
		</layer>
		<layer id="298" name="8918957231" type="Const" version="opset1">
			<data offset="786980" size="4" shape="" element_type="f32"/>
			<output>
				<port id="0" precision="FP32"/>
			</output>
		</layer>
		<layer id="299" name="8928967657" type="Const" version="opset1">
			<data offset="786984" size="4" shape="" element_type="f32"/>
			<output>
				<port id="0" precision="FP32"/>
			</output>
		</layer>
		<layer id="300" name="8938977783" type="Const" version="opset1">
			<data offset="786980" size="4" shape="" element_type="f32"/>
			<output>
				<port id="0" precision="FP32"/>
			</output>
		</layer>
		<layer id="301" name="8948988170" type="Const" version="opset1">
			<data offset="786984" size="4" shape="" element_type="f32"/>
			<output>
				<port id="0" precision="FP32"/>
			</output>
		</layer>
		<layer id="302" name="137113757963" type="Const" version="opset1">
			<data offset="786988" size="4" shape="" element_type="f32"/>
			<output>
				<port id="0" precision="FP32"/>
			</output>
		</layer>
		<layer id="303" name="137213768143" type="Const" version="opset1">
			<data offset="786984" size="4" shape="" element_type="f32"/>
			<output>
				<port id="0" precision="FP32"/>
			</output>
		</layer>
		<layer id="304" name="137313777609" type="Const" version="opset1">
			<data offset="786988" size="4" shape="" element_type="f32"/>
			<output>
				<port id="0" precision="FP32"/>
			</output>
		</layer>
		<layer id="305" name="137413787336" type="Const" version="opset1">
			<data offset="786984" size="4" shape="" element_type="f32"/>
			<output>
				<port id="0" precision="FP32"/>
			</output>
		</layer>
		<layer id="306" name="136113658446" type="Const" version="opset1">
			<data offset="786992" size="4" shape="" element_type="f32"/>
			<output>
				<port id="0" precision="FP32"/>
			</output>
		</layer>
		<layer id="307" name="136213667078" type="Const" version="opset1">
			<data offset="786996" size="4" shape="" element_type="f32"/>
			<output>
				<port id="0" precision="FP32"/>
			</output>
		</layer>
		<layer id="308" name="136313677525" type="Const" version="opset1">
			<data offset="786992" size="4" shape="" element_type="f32"/>
			<output>
				<port id="0" precision="FP32"/>
			</output>
		</layer>
		<layer id="309" name="136413687207" type="Const" version="opset1">
			<data offset="786996" size="4" shape="" element_type="f32"/>
			<output>
				<port id="0" precision="FP32"/>
			</output>
		</layer>
		<layer id="310" name="const_fold_opt__2872068053" type="Const" version="opset1">
			<data offset="787000" size="512" shape="16,8,1,1" element_type="f32"/>
			<rt_info>
				<attribute name="fused_names" version="0" value="const_fold_opt__287"/>
			</rt_info>
			<output>
				<port id="0" precision="FP32" names="const_fold_opt__287">
					<dim>16</dim>
					<dim>8</dim>
					<dim>1</dim>
					<dim>1</dim>
				</port>
			</output>
		</layer>
		<layer id="311" name="model/activation_2/Relu;model/batch_normalization_2/FusedBatchNormV3;model/conv2d_1/BiasAdd/ReadVariableOp/resource;model/conv2d_1/BiasAdd;model/depthwise_conv2d_1/depthwise;model/conv2d_1/Conv2D1/WithoutBiases/fq_weights_1" type="FakeQuantize" version="opset1">
			<data levels="65535" auto_broadcast="numpy"/>
			<input>
				<port id="0">
					<dim>16</dim>
					<dim>8</dim>
					<dim>1</dim>
					<dim>1</dim>
				</port>
				<port id="1"/>
				<port id="2"/>
				<port id="3"/>
				<port id="4"/>
			</input>
			<output>
				<port id="5" precision="FP32">
					<dim>16</dim>
					<dim>8</dim>
					<dim>1</dim>
					<dim>1</dim>
				</port>
			</output>
		</layer>
		<layer id="312" name="108110857267" type="Const" version="opset1">
			<data offset="787512" size="4" shape="" element_type="f32"/>
			<output>
				<port id="0" precision="FP32"/>
			</output>
		</layer>
		<layer id="313" name="108210867855" type="Const" version="opset1">
			<data offset="787516" size="4" shape="" element_type="f32"/>
			<output>
				<port id="0" precision="FP32"/>
			</output>
		</layer>
		<layer id="314" name="108310877477" type="Const" version="opset1">
			<data offset="787512" size="4" shape="" element_type="f32"/>
			<output>
				<port id="0" precision="FP32"/>
			</output>
		</layer>
		<layer id="315" name="108410887195" type="Const" version="opset1">
			<data offset="787516" size="4" shape="" element_type="f32"/>
			<output>
				<port id="0" precision="FP32"/>
			</output>
		</layer>
		<layer id="316" name="168116858281" type="Const" version="opset1">
			<data offset="787520" size="4" shape="" element_type="f32"/>
			<output>
				<port id="0" precision="FP32"/>
			</output>
		</layer>
		<layer id="317" name="168216867678" type="Const" version="opset1">
			<data offset="787516" size="4" shape="" element_type="f32"/>
			<output>
				<port id="0" precision="FP32"/>
			</output>
		</layer>
		<layer id="318" name="168316877879" type="Const" version="opset1">
			<data offset="787520" size="4" shape="" element_type="f32"/>
			<output>
				<port id="0" precision="FP32"/>
			</output>
		</layer>
		<layer id="319" name="168416887507" type="Const" version="opset1">
			<data offset="787516" size="4" shape="" element_type="f32"/>
			<output>
				<port id="0" precision="FP32"/>
			</output>
		</layer>
		<layer id="320" name="181118158320" type="Const" version="opset1">
			<data offset="787524" size="4" shape="" element_type="f32"/>
			<output>
				<port id="0" precision="FP32"/>
			</output>
		</layer>
		<layer id="321" name="181218168290" type="Const" version="opset1">
			<data offset="787528" size="4" shape="" element_type="f32"/>
			<output>
				<port id="0" precision="FP32"/>
			</output>
		</layer>
		<layer id="322" name="181318177711" type="Const" version="opset1">
			<data offset="787524" size="4" shape="" element_type="f32"/>
			<output>
				<port id="0" precision="FP32"/>
			</output>
		</layer>
		<layer id="323" name="181418187084" type="Const" version="opset1">
			<data offset="787528" size="4" shape="" element_type="f32"/>
			<output>
				<port id="0" precision="FP32"/>
			</output>
		</layer>
		<layer id="324" name="117111758341" type="Const" version="opset1">
			<data offset="787532" size="4" shape="" element_type="f32"/>
			<output>
				<port id="0" precision="FP32"/>
			</output>
		</layer>
		<layer id="325" name="117211768371" type="Const" version="opset1">
			<data offset="787536" size="4" shape="" element_type="f32"/>
			<output>
				<port id="0" precision="FP32"/>
			</output>
		</layer>
		<layer id="326" name="117311777534" type="Const" version="opset1">
			<data offset="787532" size="4" shape="" element_type="f32"/>
			<output>
				<port id="0" precision="FP32"/>
			</output>
		</layer>
		<layer id="327" name="117411787015" type="Const" version="opset1">
			<data offset="787536" size="4" shape="" element_type="f32"/>
			<output>
				<port id="0" precision="FP32"/>
			</output>
		</layer>
		<layer id="328" name="116111657135" type="Const" version="opset1">
			<data offset="787540" size="4" shape="" element_type="f32"/>
			<output>
				<port id="0" precision="FP32"/>
			</output>
		</layer>
		<layer id="329" name="116211667918" type="Const" version="opset1">
			<data offset="787544" size="4" shape="" element_type="f32"/>
			<output>
				<port id="0" precision="FP32"/>
			</output>
		</layer>
		<layer id="330" name="116311677027" type="Const" version="opset1">
			<data offset="787548" size="4" shape="" element_type="f32"/>
			<output>
				<port id="0" precision="FP32"/>
			</output>
		</layer>
		<layer id="331" name="116411687684" type="Const" version="opset1">
			<data offset="787552" size="4" shape="" element_type="f32"/>
			<output>
				<port id="0" precision="FP32"/>
			</output>
		</layer>
		<layer id="332" name="const_fold_opt__3181967807" type="Const" version="opset1">
			<data offset="787556" size="864" shape="8,3,3,3" element_type="f32"/>
			<rt_info>
				<attribute name="fused_names" version="0" value="const_fold_opt__318"/>
			</rt_info>
			<output>
				<port id="0" precision="FP32" names="const_fold_opt__318">
					<dim>8</dim>
					<dim>3</dim>
					<dim>3</dim>
					<dim>3</dim>
				</port>
			</output>
		</layer>
		<layer id="333" name="model/activation/Relu;model/batch_normalization/FusedBatchNormV3;model/conv2d/BiasAdd/ReadVariableOp/resource;model/conv2d/BiasAdd;model/depthwise_conv2d/depthwise;model/conv2d/Conv2D1/WithoutBiases/fq_weights_1" type="FakeQuantize" version="opset1">
			<data levels="65535" auto_broadcast="numpy"/>
			<input>
				<port id="0">
					<dim>8</dim>
					<dim>3</dim>
					<dim>3</dim>
					<dim>3</dim>
				</port>
				<port id="1"/>
				<port id="2"/>
				<port id="3"/>
				<port id="4"/>
			</input>
			<output>
				<port id="5" precision="FP32">
					<dim>8</dim>
					<dim>3</dim>
					<dim>3</dim>
					<dim>3</dim>
				</port>
			</output>
		</layer>
		<layer id="334" name="1211947228" type="Const" version="opset1">
			<data offset="788420" size="32" shape="4" element_type="i64"/>
			<rt_info>
				<attribute name="fused_names" version="0" value="121"/>
			</rt_info>
			<output>
				<port id="0" precision="I64">
					<dim>4</dim>
				</port>
			</output>
		</layer>
		<layer id="335" name="193119357981" type="Const" version="opset1">
			<data offset="788452" size="4" shape="" element_type="f32"/>
			<output>
				<port id="0" precision="FP32"/>
			</output>
		</layer>
		<layer id="336" name="193219367822" type="Const" version="opset1">
			<data offset="788456" size="4" shape="" element_type="f32"/>
			<output>
				<port id="0" precision="FP32"/>
			</output>
		</layer>
		<layer id="337" name="193319376970" type="Const" version="opset1">
			<data offset="788452" size="4" shape="" element_type="f32"/>
			<output>
				<port id="0" precision="FP32"/>
			</output>
		</layer>
		<layer id="338" name="193419388245" type="Const" version="opset1">
			<data offset="788456" size="4" shape="" element_type="f32"/>
			<output>
				<port id="0" precision="FP32"/>
			</output>
		</layer>
		<layer id="340" name="input_1/fq_output_0_0" type="FakeQuantize" version="opset1">
			<data levels="65536" auto_broadcast="numpy"/>
			<input>
				<port id="0">
					<dim>1</dim>
					<dim>96</dim>
					<dim>96</dim>
					<dim>3</dim>
				</port>
				<port id="1"/>
				<port id="2"/>
				<port id="3"/>
				<port id="4"/>
			</input>
			<output>
				<port id="5" precision="FP32">
					<dim>1</dim>
					<dim>96</dim>
					<dim>96</dim>
					<dim>3</dim>
				</port>
			</output>
		</layer>
		<layer id="341" name="model/activation/Relu;model/batch_normalization/FusedBatchNormV3;model/conv2d/BiasAdd/ReadVariableOp/resource;model/conv2d/BiasAdd;model/depthwise_conv2d/depthwise;model/conv2d/Conv2D1__89" type="Transpose" version="opset1">
			<rt_info>
				<attribute name="fused_names" version="0" value="model/activation/Relu;model/batch_normalization/FusedBatchNormV3;model/conv2d/BiasAdd/ReadVariableOp/resource;model/conv2d/BiasAdd;model/depthwise_conv2d/depthwise;model/conv2d/Conv2D1__89"/>
			</rt_info>
			<input>
				<port id="0">
					<dim>1</dim>
					<dim>96</dim>
					<dim>96</dim>
					<dim>3</dim>
				</port>
				<port id="1">
					<dim>4</dim>
				</port>
			</input>
			<output>
				<port id="2" precision="FP32" names="model/activation/Relu;model/batch_normalization/FusedBatchNormV3;model/conv2d/BiasAdd/ReadVariableOp/resource;model/conv2d/BiasAdd;model/depthwise_conv2d/depthwise;model/conv2d/Conv2D1__89:0">
					<dim>1</dim>
					<dim>3</dim>
					<dim>96</dim>
					<dim>96</dim>
				</port>
			</output>
		</layer>
		<layer id="342" name="model/activation/Relu;model/batch_normalization/FusedBatchNormV3;model/conv2d/BiasAdd/ReadVariableOp/resource;model/conv2d/BiasAdd;model/depthwise_conv2d/depthwise;model/conv2d/Conv2D1/WithoutBiases" type="Convolution" version="opset1">
			<data auto_pad="explicit" strides="2,2" dilations="1,1" pads_begin="0,0" pads_end="1,1"/>
			<rt_info>
				<attribute name="fused_names" version="0" value="model/activation/Relu;model/batch_normalization/FusedBatchNormV3;model/conv2d/BiasAdd/ReadVariableOp/resource;model/conv2d/BiasAdd;model/depthwise_conv2d/depthwise;model/conv2d/Conv2D1/WithoutBiases"/>
			</rt_info>
			<input>
				<port id="0">
					<dim>1</dim>
					<dim>3</dim>
					<dim>96</dim>
					<dim>96</dim>
				</port>
				<port id="1">
					<dim>8</dim>
					<dim>3</dim>
					<dim>3</dim>
					<dim>3</dim>
				</port>
			</input>
			<output>
				<port id="2" precision="FP32">
					<dim>1</dim>
					<dim>8</dim>
					<dim>48</dim>
					<dim>48</dim>
				</port>
			</output>
		</layer>
		<layer id="343" name="model/activation/Relu;model/batch_normalization/FusedBatchNormV3;model/conv2d/BiasAdd/ReadVariableOp/resource;model/conv2d/BiasAdd;model/depthwise_conv2d/depthwise;model/conv2d/Conv2D1/Dims11271987099" type="Const" version="opset1">
			<data offset="788460" size="32" shape="1,8,1,1" element_type="f32"/>
			<rt_info>
				<attribute name="fused_names" version="0" value="model/activation/Relu;model/batch_normalization/FusedBatchNormV3;model/conv2d/BiasAdd/ReadVariableOp/resource;model/conv2d/BiasAdd;model/depthwise_conv2d/depthwise;model/conv2d/Conv2D1/Dims1127"/>
			</rt_info>
			<output>
				<port id="0" precision="FP32">
					<dim>1</dim>
					<dim>8</dim>
					<dim>1</dim>
					<dim>1</dim>
				</port>
			</output>
		</layer>
		<layer id="344" name="model/activation/Relu;model/batch_normalization/FusedBatchNormV3;model/conv2d/BiasAdd/ReadVariableOp/resource;model/conv2d/BiasAdd;model/depthwise_conv2d/depthwise;model/conv2d/Conv2D1" type="Add" version="opset1">
			<data auto_broadcast="numpy"/>
			<rt_info>
				<attribute name="fused_names" version="0" value="model/activation/Relu;model/batch_normalization/FusedBatchNormV3;model/conv2d/BiasAdd/ReadVariableOp/resource;model/conv2d/BiasAdd;model/depthwise_conv2d/depthwise;model/conv2d/Conv2D1"/>
			</rt_info>
			<input>
				<port id="0">
					<dim>1</dim>
					<dim>8</dim>
					<dim>48</dim>
					<dim>48</dim>
				</port>
				<port id="1">
					<dim>1</dim>
					<dim>8</dim>
					<dim>1</dim>
					<dim>1</dim>
				</port>
			</input>
			<output>
				<port id="2" precision="FP32">
					<dim>1</dim>
					<dim>8</dim>
					<dim>48</dim>
					<dim>48</dim>
				</port>
			</output>
		</layer>
		<layer id="345" name="model/activation/Relu;model/batch_normalization/FusedBatchNormV3;model/conv2d/BiasAdd/ReadVariableOp/resource;model/conv2d/BiasAdd;model/depthwise_conv2d/depthwise;model/conv2d/Conv2D1/fq_output_0_0" type="FakeQuantize" version="opset1">
			<data levels="4294967296" auto_broadcast="numpy"/>
			<input>
				<port id="0">
					<dim>1</dim>
					<dim>8</dim>
					<dim>48</dim>
					<dim>48</dim>
				</port>
				<port id="1"/>
				<port id="2"/>
				<port id="3"/>
				<port id="4"/>
			</input>
			<output>
				<port id="5" precision="FP32" names="model/activation/Relu;model/batch_normalization/FusedBatchNormV3;model/conv2d/BiasAdd/ReadVariableOp/resource;model/conv2d/BiasAdd;model/depthwise_conv2d/depthwise;model/conv2d/Conv2D1">
					<dim>1</dim>
					<dim>8</dim>
					<dim>48</dim>
					<dim>48</dim>
				</port>
			</output>
		</layer>
		<layer id="346" name="Relu__5" type="ReLU" version="opset1">
			<rt_info>
				<attribute name="fused_names" version="0" value="Relu__5"/>
			</rt_info>
			<input>
				<port id="0">
					<dim>1</dim>
					<dim>8</dim>
					<dim>48</dim>
					<dim>48</dim>
				</port>
			</input>
			<output>
				<port id="1" precision="FP32">
					<dim>1</dim>
					<dim>8</dim>
					<dim>48</dim>
					<dim>48</dim>
				</port>
			</output>
		</layer>
		<layer id="347" name="Relu__5/fq_output_0_0" type="FakeQuantize" version="opset1">
			<data levels="65536" auto_broadcast="numpy"/>
			<input>
				<port id="0">
					<dim>1</dim>
					<dim>8</dim>
					<dim>48</dim>
					<dim>48</dim>
				</port>
				<port id="1"/>
				<port id="2"/>
				<port id="3"/>
				<port id="4"/>
			</input>
			<output>
				<port id="5" precision="FP32" names="Relu__5:0">
					<dim>1</dim>
					<dim>8</dim>
					<dim>48</dim>
					<dim>48</dim>
				</port>
			</output>
		</layer>
		<layer id="348" name="model/activation_1/Relu;model/batch_normalization_1/FusedBatchNormV3;model/depthwise_conv2d/depthwise;model/depthwise_conv2d/BiasAdd;model/depthwise_conv2d/BiasAdd/ReadVariableOp/resource1/WithoutBiases/weights_shape57527045" type="Const" version="opset1">
			<data offset="788492" size="40" shape="5" element_type="i64"/>
			<output>
				<port id="0" precision="I64">
					<dim>5</dim>
				</port>
			</output>
		</layer>
		<layer id="349" name="167116757960" type="Const" version="opset1">
			<data offset="788532" size="4" shape="" element_type="f32"/>
			<output>
				<port id="0" precision="FP32"/>
			</output>
		</layer>
		<layer id="350" name="167216767828" type="Const" version="opset1">
			<data offset="788536" size="4" shape="" element_type="f32"/>
			<output>
				<port id="0" precision="FP32"/>
			</output>
		</layer>
		<layer id="351" name="167316777174" type="Const" version="opset1">
			<data offset="788532" size="4" shape="" element_type="f32"/>
			<output>
				<port id="0" precision="FP32"/>
			</output>
		</layer>
		<layer id="352" name="167416787405" type="Const" version="opset1">
			<data offset="788536" size="4" shape="" element_type="f32"/>
			<output>
				<port id="0" precision="FP32"/>
			</output>
		</layer>
		<layer id="353" name="const_fold_opt__3002017516" type="Const" version="opset1">
			<data offset="788540" size="288" shape="8,1,3,3" element_type="f32"/>
			<rt_info>
				<attribute name="fused_names" version="0" value="const_fold_opt__300"/>
			</rt_info>
			<output>
				<port id="0" precision="FP32" names="const_fold_opt__300">
					<dim>8</dim>
					<dim>1</dim>
					<dim>3</dim>
					<dim>3</dim>
				</port>
			</output>
		</layer>
		<layer id="354" name="model/activation_1/Relu;model/batch_normalization_1/FusedBatchNormV3;model/depthwise_conv2d/depthwise;model/depthwise_conv2d/BiasAdd;model/depthwise_conv2d/BiasAdd/ReadVariableOp/resource1/WithoutBiases/fq_weights_1" type="FakeQuantize" version="opset1">
			<data levels="65535" auto_broadcast="numpy"/>
			<input>
				<port id="0">
					<dim>8</dim>
					<dim>1</dim>
					<dim>3</dim>
					<dim>3</dim>
				</port>
				<port id="1"/>
				<port id="2"/>
				<port id="3"/>
				<port id="4"/>
			</input>
			<output>
				<port id="5" precision="FP32">
					<dim>8</dim>
					<dim>1</dim>
					<dim>3</dim>
					<dim>3</dim>
				</port>
			</output>
		</layer>
		<layer id="355" name="5751" type="Reshape" version="opset1">
			<data special_zero="true"/>
			<input>
				<port id="0">
					<dim>8</dim>
					<dim>1</dim>
					<dim>3</dim>
					<dim>3</dim>
				</port>
				<port id="1">
					<dim>5</dim>
				</port>
			</input>
			<output>
				<port id="2" precision="FP32">
					<dim>8</dim>
					<dim>1</dim>
					<dim>1</dim>
					<dim>3</dim>
					<dim>3</dim>
				</port>
			</output>
		</layer>
		<layer id="356" name="model/activation_1/Relu;model/batch_normalization_1/FusedBatchNormV3;model/depthwise_conv2d/depthwise;model/depthwise_conv2d/BiasAdd;model/depthwise_conv2d/BiasAdd/ReadVariableOp/resource1/WithoutBiases" type="GroupConvolution" version="opset1">
			<data auto_pad="explicit" strides="1,1" dilations="1,1" pads_begin="1,1" pads_end="1,1"/>
			<rt_info>
				<attribute name="fused_names" version="0" value="model/activation_1/Relu;model/batch_normalization_1/FusedBatchNormV3;model/depthwise_conv2d/depthwise;model/depthwise_conv2d/BiasAdd;model/depthwise_conv2d/BiasAdd/ReadVariableOp/resource1/WithoutBiases"/>
			</rt_info>
			<input>
				<port id="0">
					<dim>1</dim>
					<dim>8</dim>
					<dim>48</dim>
					<dim>48</dim>
				</port>
				<port id="1">
					<dim>8</dim>
					<dim>1</dim>
					<dim>1</dim>
					<dim>3</dim>
					<dim>3</dim>
				</port>
			</input>
			<output>
				<port id="2" precision="FP32">
					<dim>1</dim>
					<dim>8</dim>
					<dim>48</dim>
					<dim>48</dim>
				</port>
			</output>
		</layer>
		<layer id="357" name="model/activation_1/Relu;model/batch_normalization_1/FusedBatchNormV3;model/depthwise_conv2d/depthwise;model/depthwise_conv2d/BiasAdd;model/depthwise_conv2d/BiasAdd/ReadVariableOp/resource1/Dims11032038206" type="Const" version="opset1">
			<data offset="788828" size="32" shape="1,8,1,1" element_type="f32"/>
			<rt_info>
				<attribute name="fused_names" version="0" value="model/activation_1/Relu;model/batch_normalization_1/FusedBatchNormV3;model/depthwise_conv2d/depthwise;model/depthwise_conv2d/BiasAdd;model/depthwise_conv2d/BiasAdd/ReadVariableOp/resource1/Dims1103"/>
			</rt_info>
			<output>
				<port id="0" precision="FP32">
					<dim>1</dim>
					<dim>8</dim>
					<dim>1</dim>
					<dim>1</dim>
				</port>
			</output>
		</layer>
		<layer id="358" name="model/activation_1/Relu;model/batch_normalization_1/FusedBatchNormV3;model/depthwise_conv2d/depthwise;model/depthwise_conv2d/BiasAdd;model/depthwise_conv2d/BiasAdd/ReadVariableOp/resource1" type="Add" version="opset1">
			<data auto_broadcast="numpy"/>
			<rt_info>
				<attribute name="fused_names" version="0" value="model/activation_1/Relu;model/batch_normalization_1/FusedBatchNormV3;model/depthwise_conv2d/depthwise;model/depthwise_conv2d/BiasAdd;model/depthwise_conv2d/BiasAdd/ReadVariableOp/resource1"/>
			</rt_info>
			<input>
				<port id="0">
					<dim>1</dim>
					<dim>8</dim>
					<dim>48</dim>
					<dim>48</dim>
				</port>
				<port id="1">
					<dim>1</dim>
					<dim>8</dim>
					<dim>1</dim>
					<dim>1</dim>
				</port>
			</input>
			<output>
				<port id="2" precision="FP32">
					<dim>1</dim>
					<dim>8</dim>
					<dim>48</dim>
					<dim>48</dim>
				</port>
			</output>
		</layer>
		<layer id="359" name="model/activation_1/Relu;model/batch_normalization_1/FusedBatchNormV3;model/depthwise_conv2d/depthwise;model/depthwise_conv2d/BiasAdd;model/depthwise_conv2d/BiasAdd/ReadVariableOp/resource1/fq_output_0_0" type="FakeQuantize" version="opset1">
			<data levels="4294967296" auto_broadcast="numpy"/>
			<input>
				<port id="0">
					<dim>1</dim>
					<dim>8</dim>
					<dim>48</dim>
					<dim>48</dim>
				</port>
				<port id="1"/>
				<port id="2"/>
				<port id="3"/>
				<port id="4"/>
			</input>
			<output>
				<port id="5" precision="FP32" names="model/activation_1/Relu;model/batch_normalization_1/FusedBatchNormV3;model/depthwise_conv2d/depthwise;model/depthwise_conv2d/BiasAdd;model/depthwise_conv2d/BiasAdd/ReadVariableOp/resource1">
					<dim>1</dim>
					<dim>8</dim>
					<dim>48</dim>
					<dim>48</dim>
				</port>
			</output>
		</layer>
		<layer id="360" name="Relu__8" type="ReLU" version="opset1">
			<rt_info>
				<attribute name="fused_names" version="0" value="Relu__8"/>
			</rt_info>
			<input>
				<port id="0">
					<dim>1</dim>
					<dim>8</dim>
					<dim>48</dim>
					<dim>48</dim>
				</port>
			</input>
			<output>
				<port id="1" precision="FP32">
					<dim>1</dim>
					<dim>8</dim>
					<dim>48</dim>
					<dim>48</dim>
				</port>
			</output>
		</layer>
		<layer id="361" name="Relu__8/fq_output_0_0" type="FakeQuantize" version="opset1">
			<data levels="65536" auto_broadcast="numpy"/>
			<input>
				<port id="0">
					<dim>1</dim>
					<dim>8</dim>
					<dim>48</dim>
					<dim>48</dim>
				</port>
				<port id="1"/>
				<port id="2"/>
				<port id="3"/>
				<port id="4"/>
			</input>
			<output>
				<port id="5" precision="FP32" names="Relu__8:0">
					<dim>1</dim>
					<dim>8</dim>
					<dim>48</dim>
					<dim>48</dim>
				</port>
			</output>
		</layer>
		<layer id="362" name="model/activation_2/Relu;model/batch_normalization_2/FusedBatchNormV3;model/conv2d_1/BiasAdd/ReadVariableOp/resource;model/conv2d_1/BiasAdd;model/depthwise_conv2d_1/depthwise;model/conv2d_1/Conv2D1/WithoutBiases" type="Convolution" version="opset1">
			<data auto_pad="explicit" strides="1,1" dilations="1,1" pads_begin="0,0" pads_end="0,0"/>
			<rt_info>
				<attribute name="fused_names" version="0" value="model/activation_2/Relu;model/batch_normalization_2/FusedBatchNormV3;model/conv2d_1/BiasAdd/ReadVariableOp/resource;model/conv2d_1/BiasAdd;model/depthwise_conv2d_1/depthwise;model/conv2d_1/Conv2D1/WithoutBiases"/>
			</rt_info>
			<input>
				<port id="0">
					<dim>1</dim>
					<dim>8</dim>
					<dim>48</dim>
					<dim>48</dim>
				</port>
				<port id="1">
					<dim>16</dim>
					<dim>8</dim>
					<dim>1</dim>
					<dim>1</dim>
				</port>
			</input>
			<output>
				<port id="2" precision="FP32">
					<dim>1</dim>
					<dim>16</dim>
					<dim>48</dim>
					<dim>48</dim>
				</port>
			</output>
		</layer>
		<layer id="363" name="model/activation_2/Relu;model/batch_normalization_2/FusedBatchNormV3;model/conv2d_1/BiasAdd/ReadVariableOp/resource;model/conv2d_1/BiasAdd;model/depthwise_conv2d_1/depthwise;model/conv2d_1/Conv2D1/Dims10972086997" type="Const" version="opset1">
			<data offset="788860" size="64" shape="1,16,1,1" element_type="f32"/>
			<rt_info>
				<attribute name="fused_names" version="0" value="model/activation_2/Relu;model/batch_normalization_2/FusedBatchNormV3;model/conv2d_1/BiasAdd/ReadVariableOp/resource;model/conv2d_1/BiasAdd;model/depthwise_conv2d_1/depthwise;model/conv2d_1/Conv2D1/Dims1097"/>
			</rt_info>
			<output>
				<port id="0" precision="FP32">
					<dim>1</dim>
					<dim>16</dim>
					<dim>1</dim>
					<dim>1</dim>
				</port>
			</output>
		</layer>
		<layer id="364" name="model/activation_2/Relu;model/batch_normalization_2/FusedBatchNormV3;model/conv2d_1/BiasAdd/ReadVariableOp/resource;model/conv2d_1/BiasAdd;model/depthwise_conv2d_1/depthwise;model/conv2d_1/Conv2D1" type="Add" version="opset1">
			<data auto_broadcast="numpy"/>
			<rt_info>
				<attribute name="fused_names" version="0" value="model/activation_2/Relu;model/batch_normalization_2/FusedBatchNormV3;model/conv2d_1/BiasAdd/ReadVariableOp/resource;model/conv2d_1/BiasAdd;model/depthwise_conv2d_1/depthwise;model/conv2d_1/Conv2D1"/>
			</rt_info>
			<input>
				<port id="0">
					<dim>1</dim>
					<dim>16</dim>
					<dim>48</dim>
					<dim>48</dim>
				</port>
				<port id="1">
					<dim>1</dim>
					<dim>16</dim>
					<dim>1</dim>
					<dim>1</dim>
				</port>
			</input>
			<output>
				<port id="2" precision="FP32">
					<dim>1</dim>
					<dim>16</dim>
					<dim>48</dim>
					<dim>48</dim>
				</port>
			</output>
		</layer>
		<layer id="365" name="model/activation_2/Relu;model/batch_normalization_2/FusedBatchNormV3;model/conv2d_1/BiasAdd/ReadVariableOp/resource;model/conv2d_1/BiasAdd;model/depthwise_conv2d_1/depthwise;model/conv2d_1/Conv2D1/fq_output_0_0" type="FakeQuantize" version="opset1">
			<data levels="4294967296" auto_broadcast="numpy"/>
			<input>
				<port id="0">
					<dim>1</dim>
					<dim>16</dim>
					<dim>48</dim>
					<dim>48</dim>
				</port>
				<port id="1"/>
				<port id="2"/>
				<port id="3"/>
				<port id="4"/>
			</input>
			<output>
				<port id="5" precision="FP32" names="model/activation_2/Relu;model/batch_normalization_2/FusedBatchNormV3;model/conv2d_1/BiasAdd/ReadVariableOp/resource;model/conv2d_1/BiasAdd;model/depthwise_conv2d_1/depthwise;model/conv2d_1/Conv2D1">
					<dim>1</dim>
					<dim>16</dim>
					<dim>48</dim>
					<dim>48</dim>
				</port>
			</output>
		</layer>
		<layer id="366" name="Relu__11" type="ReLU" version="opset1">
			<rt_info>
				<attribute name="fused_names" version="0" value="Relu__11"/>
			</rt_info>
			<input>
				<port id="0">
					<dim>1</dim>
					<dim>16</dim>
					<dim>48</dim>
					<dim>48</dim>
				</port>
			</input>
			<output>
				<port id="1" precision="FP32">
					<dim>1</dim>
					<dim>16</dim>
					<dim>48</dim>
					<dim>48</dim>
				</port>
			</output>
		</layer>
		<layer id="367" name="Relu__11/fq_output_0_0" type="FakeQuantize" version="opset1">
			<data levels="65536" auto_broadcast="numpy"/>
			<input>
				<port id="0">
					<dim>1</dim>
					<dim>16</dim>
					<dim>48</dim>
					<dim>48</dim>
				</port>
				<port id="1"/>
				<port id="2"/>
				<port id="3"/>
				<port id="4"/>
			</input>
			<output>
				<port id="5" precision="FP32" names="Relu__11:0">
					<dim>1</dim>
					<dim>16</dim>
					<dim>48</dim>
					<dim>48</dim>
				</port>
			</output>
		</layer>
		<layer id="368" name="model/activation_3/Relu;model/batch_normalization_3/FusedBatchNormV3;model/depthwise_conv2d_1/depthwise;model/depthwise_conv2d_1/BiasAdd;model/depthwise_conv2d_1/BiasAdd/ReadVariableOp/resource1/WithoutBiases/weights_shape57667726" type="Const" version="opset1">
			<data offset="788924" size="40" shape="5" element_type="i64"/>
			<output>
				<port id="0" precision="I64">
					<dim>5</dim>
				</port>
			</output>
		</layer>
		<layer id="369" name="200120057768" type="Const" version="opset1">
			<data offset="788964" size="4" shape="" element_type="f32"/>
			<output>
				<port id="0" precision="FP32"/>
			</output>
		</layer>
		<layer id="370" name="200220068212" type="Const" version="opset1">
			<data offset="788968" size="4" shape="" element_type="f32"/>
			<output>
				<port id="0" precision="FP32"/>
			</output>
		</layer>
		<layer id="371" name="200320077714" type="Const" version="opset1">
			<data offset="788964" size="4" shape="" element_type="f32"/>
			<output>
				<port id="0" precision="FP32"/>
			</output>
		</layer>
		<layer id="372" name="200420087399" type="Const" version="opset1">
			<data offset="788968" size="4" shape="" element_type="f32"/>
			<output>
				<port id="0" precision="FP32"/>
			</output>
		</layer>
		<layer id="373" name="const_fold_opt__3272118197" type="Const" version="opset1">
			<data offset="788972" size="576" shape="16,1,3,3" element_type="f32"/>
			<rt_info>
				<attribute name="fused_names" version="0" value="const_fold_opt__327"/>
			</rt_info>
			<output>
				<port id="0" precision="FP32" names="const_fold_opt__327">
					<dim>16</dim>
					<dim>1</dim>
					<dim>3</dim>
					<dim>3</dim>
				</port>
			</output>
		</layer>
		<layer id="374" name="model/activation_3/Relu;model/batch_normalization_3/FusedBatchNormV3;model/depthwise_conv2d_1/depthwise;model/depthwise_conv2d_1/BiasAdd;model/depthwise_conv2d_1/BiasAdd/ReadVariableOp/resource1/WithoutBiases/fq_weights_1" type="FakeQuantize" version="opset1">
			<data levels="65535" auto_broadcast="numpy"/>
			<input>
				<port id="0">
					<dim>16</dim>
					<dim>1</dim>
					<dim>3</dim>
					<dim>3</dim>
				</port>
				<port id="1"/>
				<port id="2"/>
				<port id="3"/>
				<port id="4"/>
			</input>
			<output>
				<port id="5" precision="FP32">
					<dim>16</dim>
					<dim>1</dim>
					<dim>3</dim>
					<dim>3</dim>
				</port>
			</output>
		</layer>
		<layer id="375" name="5765" type="Reshape" version="opset1">
			<data special_zero="true"/>
			<input>
				<port id="0">
					<dim>16</dim>
					<dim>1</dim>
					<dim>3</dim>
					<dim>3</dim>
				</port>
				<port id="1">
					<dim>5</dim>
				</port>
			</input>
			<output>
				<port id="2" precision="FP32">
					<dim>16</dim>
					<dim>1</dim>
					<dim>1</dim>
					<dim>3</dim>
					<dim>3</dim>
				</port>
			</output>
		</layer>
		<layer id="376" name="model/activation_3/Relu;model/batch_normalization_3/FusedBatchNormV3;model/depthwise_conv2d_1/depthwise;model/depthwise_conv2d_1/BiasAdd;model/depthwise_conv2d_1/BiasAdd/ReadVariableOp/resource1/WithoutBiases" type="GroupConvolution" version="opset1">
			<data auto_pad="explicit" strides="2,2" dilations="1,1" pads_begin="0,0" pads_end="1,1"/>
			<rt_info>
				<attribute name="fused_names" version="0" value="model/activation_3/Relu;model/batch_normalization_3/FusedBatchNormV3;model/depthwise_conv2d_1/depthwise;model/depthwise_conv2d_1/BiasAdd;model/depthwise_conv2d_1/BiasAdd/ReadVariableOp/resource1/WithoutBiases"/>
			</rt_info>
			<input>
				<port id="0">
					<dim>1</dim>
					<dim>16</dim>
					<dim>48</dim>
					<dim>48</dim>
				</port>
				<port id="1">
					<dim>16</dim>
					<dim>1</dim>
					<dim>1</dim>
					<dim>3</dim>
					<dim>3</dim>
				</port>
			</input>
			<output>
				<port id="2" precision="FP32">
					<dim>1</dim>
					<dim>16</dim>
					<dim>24</dim>
					<dim>24</dim>
				</port>
			</output>
		</layer>
		<layer id="377" name="model/activation_3/Relu;model/batch_normalization_3/FusedBatchNormV3;model/depthwise_conv2d_1/depthwise;model/depthwise_conv2d_1/BiasAdd;model/depthwise_conv2d_1/BiasAdd/ReadVariableOp/resource1/Dims11632137792" type="Const" version="opset1">
			<data offset="789548" size="64" shape="1,16,1,1" element_type="f32"/>
			<rt_info>
				<attribute name="fused_names" version="0" value="model/activation_3/Relu;model/batch_normalization_3/FusedBatchNormV3;model/depthwise_conv2d_1/depthwise;model/depthwise_conv2d_1/BiasAdd;model/depthwise_conv2d_1/BiasAdd/ReadVariableOp/resource1/Dims1163"/>
			</rt_info>
			<output>
				<port id="0" precision="FP32">
					<dim>1</dim>
					<dim>16</dim>
					<dim>1</dim>
					<dim>1</dim>
				</port>
			</output>
		</layer>
		<layer id="378" name="model/activation_3/Relu;model/batch_normalization_3/FusedBatchNormV3;model/depthwise_conv2d_1/depthwise;model/depthwise_conv2d_1/BiasAdd;model/depthwise_conv2d_1/BiasAdd/ReadVariableOp/resource1" type="Add" version="opset1">
			<data auto_broadcast="numpy"/>
			<rt_info>
				<attribute name="fused_names" version="0" value="model/activation_3/Relu;model/batch_normalization_3/FusedBatchNormV3;model/depthwise_conv2d_1/depthwise;model/depthwise_conv2d_1/BiasAdd;model/depthwise_conv2d_1/BiasAdd/ReadVariableOp/resource1"/>
			</rt_info>
			<input>
				<port id="0">
					<dim>1</dim>
					<dim>16</dim>
					<dim>24</dim>
					<dim>24</dim>
				</port>
				<port id="1">
					<dim>1</dim>
					<dim>16</dim>
					<dim>1</dim>
					<dim>1</dim>
				</port>
			</input>
			<output>
				<port id="2" precision="FP32">
					<dim>1</dim>
					<dim>16</dim>
					<dim>24</dim>
					<dim>24</dim>
				</port>
			</output>
		</layer>
		<layer id="379" name="model/activation_3/Relu;model/batch_normalization_3/FusedBatchNormV3;model/depthwise_conv2d_1/depthwise;model/depthwise_conv2d_1/BiasAdd;model/depthwise_conv2d_1/BiasAdd/ReadVariableOp/resource1/fq_output_0_0" type="FakeQuantize" version="opset1">
			<data levels="4294967296" auto_broadcast="numpy"/>
			<input>
				<port id="0">
					<dim>1</dim>
					<dim>16</dim>
					<dim>24</dim>
					<dim>24</dim>
				</port>
				<port id="1"/>
				<port id="2"/>
				<port id="3"/>
				<port id="4"/>
			</input>
			<output>
				<port id="5" precision="FP32" names="model/activation_3/Relu;model/batch_normalization_3/FusedBatchNormV3;model/depthwise_conv2d_1/depthwise;model/depthwise_conv2d_1/BiasAdd;model/depthwise_conv2d_1/BiasAdd/ReadVariableOp/resource1">
					<dim>1</dim>
					<dim>16</dim>
					<dim>24</dim>
					<dim>24</dim>
				</port>
			</output>
		</layer>
		<layer id="380" name="Relu__14" type="ReLU" version="opset1">
			<rt_info>
				<attribute name="fused_names" version="0" value="Relu__14"/>
			</rt_info>
			<input>
				<port id="0">
					<dim>1</dim>
					<dim>16</dim>
					<dim>24</dim>
					<dim>24</dim>
				</port>
			</input>
			<output>
				<port id="1" precision="FP32">
					<dim>1</dim>
					<dim>16</dim>
					<dim>24</dim>
					<dim>24</dim>
				</port>
			</output>
		</layer>
		<layer id="381" name="Relu__14/fq_output_0_0" type="FakeQuantize" version="opset1">
			<data levels="65536" auto_broadcast="numpy"/>
			<input>
				<port id="0">
					<dim>1</dim>
					<dim>16</dim>
					<dim>24</dim>
					<dim>24</dim>
				</port>
				<port id="1"/>
				<port id="2"/>
				<port id="3"/>
				<port id="4"/>
			</input>
			<output>
				<port id="5" precision="FP32" names="Relu__14:0">
					<dim>1</dim>
					<dim>16</dim>
					<dim>24</dim>
					<dim>24</dim>
				</port>
			</output>
		</layer>
		<layer id="382" name="model/activation_4/Relu;model/batch_normalization_4/FusedBatchNormV3;model/conv2d_2/BiasAdd/ReadVariableOp/resource;model/conv2d_2/BiasAdd;model/depthwise_conv2d_3/depthwise;model/conv2d_2/Conv2D1/WithoutBiases" type="Convolution" version="opset1">
			<data auto_pad="explicit" strides="1,1" dilations="1,1" pads_begin="0,0" pads_end="0,0"/>
			<rt_info>
				<attribute name="fused_names" version="0" value="model/activation_4/Relu;model/batch_normalization_4/FusedBatchNormV3;model/conv2d_2/BiasAdd/ReadVariableOp/resource;model/conv2d_2/BiasAdd;model/depthwise_conv2d_3/depthwise;model/conv2d_2/Conv2D1/WithoutBiases"/>
			</rt_info>
			<input>
				<port id="0">
					<dim>1</dim>
					<dim>16</dim>
					<dim>24</dim>
					<dim>24</dim>
				</port>
				<port id="1">
					<dim>32</dim>
					<dim>16</dim>
					<dim>1</dim>
					<dim>1</dim>
				</port>
			</input>
			<output>
				<port id="2" precision="FP32">
					<dim>1</dim>
					<dim>32</dim>
					<dim>24</dim>
					<dim>24</dim>
				</port>
			</output>
		</layer>
		<layer id="383" name="model/activation_4/Relu;model/batch_normalization_4/FusedBatchNormV3;model/conv2d_2/BiasAdd/ReadVariableOp/resource;model/conv2d_2/BiasAdd;model/depthwise_conv2d_3/depthwise;model/conv2d_2/Conv2D1/Dims11812188047" type="Const" version="opset1">
			<data offset="789612" size="128" shape="1,32,1,1" element_type="f32"/>
			<rt_info>
				<attribute name="fused_names" version="0" value="model/activation_4/Relu;model/batch_normalization_4/FusedBatchNormV3;model/conv2d_2/BiasAdd/ReadVariableOp/resource;model/conv2d_2/BiasAdd;model/depthwise_conv2d_3/depthwise;model/conv2d_2/Conv2D1/Dims1181"/>
			</rt_info>
			<output>
				<port id="0" precision="FP32">
					<dim>1</dim>
					<dim>32</dim>
					<dim>1</dim>
					<dim>1</dim>
				</port>
			</output>
		</layer>
		<layer id="384" name="model/activation_4/Relu;model/batch_normalization_4/FusedBatchNormV3;model/conv2d_2/BiasAdd/ReadVariableOp/resource;model/conv2d_2/BiasAdd;model/depthwise_conv2d_3/depthwise;model/conv2d_2/Conv2D1" type="Add" version="opset1">
			<data auto_broadcast="numpy"/>
			<rt_info>
				<attribute name="fused_names" version="0" value="model/activation_4/Relu;model/batch_normalization_4/FusedBatchNormV3;model/conv2d_2/BiasAdd/ReadVariableOp/resource;model/conv2d_2/BiasAdd;model/depthwise_conv2d_3/depthwise;model/conv2d_2/Conv2D1"/>
			</rt_info>
			<input>
				<port id="0">
					<dim>1</dim>
					<dim>32</dim>
					<dim>24</dim>
					<dim>24</dim>
				</port>
				<port id="1">
					<dim>1</dim>
					<dim>32</dim>
					<dim>1</dim>
					<dim>1</dim>
				</port>
			</input>
			<output>
				<port id="2" precision="FP32">
					<dim>1</dim>
					<dim>32</dim>
					<dim>24</dim>
					<dim>24</dim>
				</port>
			</output>
		</layer>
		<layer id="385" name="model/activation_4/Relu;model/batch_normalization_4/FusedBatchNormV3;model/conv2d_2/BiasAdd/ReadVariableOp/resource;model/conv2d_2/BiasAdd;model/depthwise_conv2d_3/depthwise;model/conv2d_2/Conv2D1/fq_output_0_0" type="FakeQuantize" version="opset1">
			<data levels="4294967296" auto_broadcast="numpy"/>
			<input>
				<port id="0">
					<dim>1</dim>
					<dim>32</dim>
					<dim>24</dim>
					<dim>24</dim>
				</port>
				<port id="1"/>
				<port id="2"/>
				<port id="3"/>
				<port id="4"/>
			</input>
			<output>
				<port id="5" precision="FP32" names="model/activation_4/Relu;model/batch_normalization_4/FusedBatchNormV3;model/conv2d_2/BiasAdd/ReadVariableOp/resource;model/conv2d_2/BiasAdd;model/depthwise_conv2d_3/depthwise;model/conv2d_2/Conv2D1">
					<dim>1</dim>
					<dim>32</dim>
					<dim>24</dim>
					<dim>24</dim>
				</port>
			</output>
		</layer>
		<layer id="386" name="Relu__17" type="ReLU" version="opset1">
			<rt_info>
				<attribute name="fused_names" version="0" value="Relu__17"/>
			</rt_info>
			<input>
				<port id="0">
					<dim>1</dim>
					<dim>32</dim>
					<dim>24</dim>
					<dim>24</dim>
				</port>
			</input>
			<output>
				<port id="1" precision="FP32">
					<dim>1</dim>
					<dim>32</dim>
					<dim>24</dim>
					<dim>24</dim>
				</port>
			</output>
		</layer>
		<layer id="387" name="Relu__17/fq_output_0_0" type="FakeQuantize" version="opset1">
			<data levels="65536" auto_broadcast="numpy"/>
			<input>
				<port id="0">
					<dim>1</dim>
					<dim>32</dim>
					<dim>24</dim>
					<dim>24</dim>
				</port>
				<port id="1"/>
				<port id="2"/>
				<port id="3"/>
				<port id="4"/>
			</input>
			<output>
				<port id="5" precision="FP32" names="Relu__17:0">
					<dim>1</dim>
					<dim>32</dim>
					<dim>24</dim>
					<dim>24</dim>
				</port>
			</output>
		</layer>
		<layer id="388" name="model/activation_5/Relu;model/batch_normalization_5/FusedBatchNormV3;model/depthwise_conv2d_2/depthwise;model/depthwise_conv2d_2/BiasAdd;model/depthwise_conv2d_3/depthwise;model/depthwise_conv2d_2/BiasAdd/ReadVariableOp/resource1/WithoutBiases/weights_shape57807864" type="Const" version="opset1">
			<data offset="789740" size="40" shape="5" element_type="i64"/>
			<output>
				<port id="0" precision="I64">
					<dim>5</dim>
				</port>
			</output>
		</layer>
		<layer id="389" name="226122658278" type="Const" version="opset1">
			<data offset="789780" size="4" shape="" element_type="f32"/>
			<output>
				<port id="0" precision="FP32"/>
			</output>
		</layer>
		<layer id="390" name="226222667252" type="Const" version="opset1">
			<data offset="789784" size="4" shape="" element_type="f32"/>
			<output>
				<port id="0" precision="FP32"/>
			</output>
		</layer>
		<layer id="391" name="226322678089" type="Const" version="opset1">
			<data offset="789780" size="4" shape="" element_type="f32"/>
			<output>
				<port id="0" precision="FP32"/>
			</output>
		</layer>
		<layer id="392" name="226422687171" type="Const" version="opset1">
			<data offset="789784" size="4" shape="" element_type="f32"/>
			<output>
				<port id="0" precision="FP32"/>
			</output>
		</layer>
		<layer id="393" name="const_fold_opt__3232217435" type="Const" version="opset1">
			<data offset="789788" size="1152" shape="32,1,3,3" element_type="f32"/>
			<rt_info>
				<attribute name="fused_names" version="0" value="const_fold_opt__323"/>
			</rt_info>
			<output>
				<port id="0" precision="FP32" names="const_fold_opt__323">
					<dim>32</dim>
					<dim>1</dim>
					<dim>3</dim>
					<dim>3</dim>
				</port>
			</output>
		</layer>
		<layer id="394" name="model/activation_5/Relu;model/batch_normalization_5/FusedBatchNormV3;model/depthwise_conv2d_2/depthwise;model/depthwise_conv2d_2/BiasAdd;model/depthwise_conv2d_3/depthwise;model/depthwise_conv2d_2/BiasAdd/ReadVariableOp/resource1/WithoutBiases/fq_weights_1" type="FakeQuantize" version="opset1">
			<data levels="65535" auto_broadcast="numpy"/>
			<input>
				<port id="0">
					<dim>32</dim>
					<dim>1</dim>
					<dim>3</dim>
					<dim>3</dim>
				</port>
				<port id="1"/>
				<port id="2"/>
				<port id="3"/>
				<port id="4"/>
			</input>
			<output>
				<port id="5" precision="FP32">
					<dim>32</dim>
					<dim>1</dim>
					<dim>3</dim>
					<dim>3</dim>
				</port>
			</output>
		</layer>
		<layer id="395" name="5779" type="Reshape" version="opset1">
			<data special_zero="true"/>
			<input>
				<port id="0">
					<dim>32</dim>
					<dim>1</dim>
					<dim>3</dim>
					<dim>3</dim>
				</port>
				<port id="1">
					<dim>5</dim>
				</port>
			</input>
			<output>
				<port id="2" precision="FP32">
					<dim>32</dim>
					<dim>1</dim>
					<dim>1</dim>
					<dim>3</dim>
					<dim>3</dim>
				</port>
			</output>
		</layer>
		<layer id="396" name="model/activation_5/Relu;model/batch_normalization_5/FusedBatchNormV3;model/depthwise_conv2d_2/depthwise;model/depthwise_conv2d_2/BiasAdd;model/depthwise_conv2d_3/depthwise;model/depthwise_conv2d_2/BiasAdd/ReadVariableOp/resource1/WithoutBiases" type="GroupConvolution" version="opset1">
			<data auto_pad="explicit" strides="1,1" dilations="1,1" pads_begin="1,1" pads_end="1,1"/>
			<rt_info>
				<attribute name="fused_names" version="0" value="model/activation_5/Relu;model/batch_normalization_5/FusedBatchNormV3;model/depthwise_conv2d_2/depthwise;model/depthwise_conv2d_2/BiasAdd;model/depthwise_conv2d_3/depthwise;model/depthwise_conv2d_2/BiasAdd/ReadVariableOp/resource1/WithoutBiases"/>
			</rt_info>
			<input>
				<port id="0">
					<dim>1</dim>
					<dim>32</dim>
					<dim>24</dim>
					<dim>24</dim>
				</port>
				<port id="1">
					<dim>32</dim>
					<dim>1</dim>
					<dim>1</dim>
					<dim>3</dim>
					<dim>3</dim>
				</port>
			</input>
			<output>
				<port id="2" precision="FP32">
					<dim>1</dim>
					<dim>32</dim>
					<dim>24</dim>
					<dim>24</dim>
				</port>
			</output>
		</layer>
		<layer id="397" name="model/activation_5/Relu;model/batch_normalization_5/FusedBatchNormV3;model/depthwise_conv2d_2/depthwise;model/depthwise_conv2d_2/BiasAdd;model/depthwise_conv2d_3/depthwise;model/depthwise_conv2d_2/BiasAdd/ReadVariableOp/resource1/Dims12412237354" type="Const" version="opset1">
			<data offset="790940" size="128" shape="1,32,1,1" element_type="f32"/>
			<rt_info>
				<attribute name="fused_names" version="0" value="model/activation_5/Relu;model/batch_normalization_5/FusedBatchNormV3;model/depthwise_conv2d_2/depthwise;model/depthwise_conv2d_2/BiasAdd;model/depthwise_conv2d_3/depthwise;model/depthwise_conv2d_2/BiasAdd/ReadVariableOp/resource1/Dims1241"/>
			</rt_info>
			<output>
				<port id="0" precision="FP32">
					<dim>1</dim>
					<dim>32</dim>
					<dim>1</dim>
					<dim>1</dim>
				</port>
			</output>
		</layer>
		<layer id="398" name="model/activation_5/Relu;model/batch_normalization_5/FusedBatchNormV3;model/depthwise_conv2d_2/depthwise;model/depthwise_conv2d_2/BiasAdd;model/depthwise_conv2d_3/depthwise;model/depthwise_conv2d_2/BiasAdd/ReadVariableOp/resource1" type="Add" version="opset1">
			<data auto_broadcast="numpy"/>
			<rt_info>
				<attribute name="fused_names" version="0" value="model/activation_5/Relu;model/batch_normalization_5/FusedBatchNormV3;model/depthwise_conv2d_2/depthwise;model/depthwise_conv2d_2/BiasAdd;model/depthwise_conv2d_3/depthwise;model/depthwise_conv2d_2/BiasAdd/ReadVariableOp/resource1"/>
			</rt_info>
			<input>
				<port id="0">
					<dim>1</dim>
					<dim>32</dim>
					<dim>24</dim>
					<dim>24</dim>
				</port>
				<port id="1">
					<dim>1</dim>
					<dim>32</dim>
					<dim>1</dim>
					<dim>1</dim>
				</port>
			</input>
			<output>
				<port id="2" precision="FP32">
					<dim>1</dim>
					<dim>32</dim>
					<dim>24</dim>
					<dim>24</dim>
				</port>
			</output>
		</layer>
		<layer id="399" name="model/activation_5/Relu;model/batch_normalization_5/FusedBatchNormV3;model/depthwise_conv2d_2/depthwise;model/depthwise_conv2d_2/BiasAdd;model/depthwise_conv2d_3/depthwise;model/depthwise_conv2d_2/BiasAdd/ReadVariableOp/resource1/fq_output_0_0" type="FakeQuantize" version="opset1">
			<data levels="4294967296" auto_broadcast="numpy"/>
			<input>
				<port id="0">
					<dim>1</dim>
					<dim>32</dim>
					<dim>24</dim>
					<dim>24</dim>
				</port>
				<port id="1"/>
				<port id="2"/>
				<port id="3"/>
				<port id="4"/>
			</input>
			<output>
				<port id="5" precision="FP32" names="model/activation_5/Relu;model/batch_normalization_5/FusedBatchNormV3;model/depthwise_conv2d_2/depthwise;model/depthwise_conv2d_2/BiasAdd;model/depthwise_conv2d_3/depthwise;model/depthwise_conv2d_2/BiasAdd/ReadVariableOp/resource1">
					<dim>1</dim>
					<dim>32</dim>
					<dim>24</dim>
					<dim>24</dim>
				</port>
			</output>
		</layer>
		<layer id="400" name="Relu__20" type="ReLU" version="opset1">
			<rt_info>
				<attribute name="fused_names" version="0" value="Relu__20"/>
			</rt_info>
			<input>
				<port id="0">
					<dim>1</dim>
					<dim>32</dim>
					<dim>24</dim>
					<dim>24</dim>
				</port>
			</input>
			<output>
				<port id="1" precision="FP32">
					<dim>1</dim>
					<dim>32</dim>
					<dim>24</dim>
					<dim>24</dim>
				</port>
			</output>
		</layer>
		<layer id="401" name="Relu__20/fq_output_0_0" type="FakeQuantize" version="opset1">
			<data levels="65536" auto_broadcast="numpy"/>
			<input>
				<port id="0">
					<dim>1</dim>
					<dim>32</dim>
					<dim>24</dim>
					<dim>24</dim>
				</port>
				<port id="1"/>
				<port id="2"/>
				<port id="3"/>
				<port id="4"/>
			</input>
			<output>
				<port id="5" precision="FP32" names="Relu__20:0">
					<dim>1</dim>
					<dim>32</dim>
					<dim>24</dim>
					<dim>24</dim>
				</port>
			</output>
		</layer>
		<layer id="402" name="model/activation_6/Relu;model/batch_normalization_6/FusedBatchNormV3;model/conv2d_3/BiasAdd/ReadVariableOp/resource;model/conv2d_3/BiasAdd;model/depthwise_conv2d_3/depthwise;model/conv2d_3/Conv2D1/WithoutBiases" type="Convolution" version="opset1">
			<data auto_pad="explicit" strides="1,1" dilations="1,1" pads_begin="0,0" pads_end="0,0"/>
			<rt_info>
				<attribute name="fused_names" version="0" value="model/activation_6/Relu;model/batch_normalization_6/FusedBatchNormV3;model/conv2d_3/BiasAdd/ReadVariableOp/resource;model/conv2d_3/BiasAdd;model/depthwise_conv2d_3/depthwise;model/conv2d_3/Conv2D1/WithoutBiases"/>
			</rt_info>
			<input>
				<port id="0">
					<dim>1</dim>
					<dim>32</dim>
					<dim>24</dim>
					<dim>24</dim>
				</port>
				<port id="1">
					<dim>32</dim>
					<dim>32</dim>
					<dim>1</dim>
					<dim>1</dim>
				</port>
			</input>
			<output>
				<port id="2" precision="FP32">
					<dim>1</dim>
					<dim>32</dim>
					<dim>24</dim>
					<dim>24</dim>
				</port>
			</output>
		</layer>
		<layer id="403" name="model/activation_6/Relu;model/batch_normalization_6/FusedBatchNormV3;model/conv2d_3/BiasAdd/ReadVariableOp/resource;model/conv2d_3/BiasAdd;model/depthwise_conv2d_3/depthwise;model/conv2d_3/Conv2D1/Dims12172288326" type="Const" version="opset1">
			<data offset="791068" size="128" shape="1,32,1,1" element_type="f32"/>
			<rt_info>
				<attribute name="fused_names" version="0" value="model/activation_6/Relu;model/batch_normalization_6/FusedBatchNormV3;model/conv2d_3/BiasAdd/ReadVariableOp/resource;model/conv2d_3/BiasAdd;model/depthwise_conv2d_3/depthwise;model/conv2d_3/Conv2D1/Dims1217"/>
			</rt_info>
			<output>
				<port id="0" precision="FP32">
					<dim>1</dim>
					<dim>32</dim>
					<dim>1</dim>
					<dim>1</dim>
				</port>
			</output>
		</layer>
		<layer id="404" name="model/activation_6/Relu;model/batch_normalization_6/FusedBatchNormV3;model/conv2d_3/BiasAdd/ReadVariableOp/resource;model/conv2d_3/BiasAdd;model/depthwise_conv2d_3/depthwise;model/conv2d_3/Conv2D1" type="Add" version="opset1">
			<data auto_broadcast="numpy"/>
			<rt_info>
				<attribute name="fused_names" version="0" value="model/activation_6/Relu;model/batch_normalization_6/FusedBatchNormV3;model/conv2d_3/BiasAdd/ReadVariableOp/resource;model/conv2d_3/BiasAdd;model/depthwise_conv2d_3/depthwise;model/conv2d_3/Conv2D1"/>
			</rt_info>
			<input>
				<port id="0">
					<dim>1</dim>
					<dim>32</dim>
					<dim>24</dim>
					<dim>24</dim>
				</port>
				<port id="1">
					<dim>1</dim>
					<dim>32</dim>
					<dim>1</dim>
					<dim>1</dim>
				</port>
			</input>
			<output>
				<port id="2" precision="FP32">
					<dim>1</dim>
					<dim>32</dim>
					<dim>24</dim>
					<dim>24</dim>
				</port>
			</output>
		</layer>
		<layer id="405" name="model/activation_6/Relu;model/batch_normalization_6/FusedBatchNormV3;model/conv2d_3/BiasAdd/ReadVariableOp/resource;model/conv2d_3/BiasAdd;model/depthwise_conv2d_3/depthwise;model/conv2d_3/Conv2D1/fq_output_0_0" type="FakeQuantize" version="opset1">
			<data levels="4294967296" auto_broadcast="numpy"/>
			<input>
				<port id="0">
					<dim>1</dim>
					<dim>32</dim>
					<dim>24</dim>
					<dim>24</dim>
				</port>
				<port id="1"/>
				<port id="2"/>
				<port id="3"/>
				<port id="4"/>
			</input>
			<output>
				<port id="5" precision="FP32" names="model/activation_6/Relu;model/batch_normalization_6/FusedBatchNormV3;model/conv2d_3/BiasAdd/ReadVariableOp/resource;model/conv2d_3/BiasAdd;model/depthwise_conv2d_3/depthwise;model/conv2d_3/Conv2D1">
					<dim>1</dim>
					<dim>32</dim>
					<dim>24</dim>
					<dim>24</dim>
				</port>
			</output>
		</layer>
		<layer id="406" name="Relu__23" type="ReLU" version="opset1">
			<rt_info>
				<attribute name="fused_names" version="0" value="Relu__23"/>
			</rt_info>
			<input>
				<port id="0">
					<dim>1</dim>
					<dim>32</dim>
					<dim>24</dim>
					<dim>24</dim>
				</port>
			</input>
			<output>
				<port id="1" precision="FP32">
					<dim>1</dim>
					<dim>32</dim>
					<dim>24</dim>
					<dim>24</dim>
				</port>
			</output>
		</layer>
		<layer id="407" name="Relu__23/fq_output_0_0" type="FakeQuantize" version="opset1">
			<data levels="65536" auto_broadcast="numpy"/>
			<input>
				<port id="0">
					<dim>1</dim>
					<dim>32</dim>
					<dim>24</dim>
					<dim>24</dim>
				</port>
				<port id="1"/>
				<port id="2"/>
				<port id="3"/>
				<port id="4"/>
			</input>
			<output>
				<port id="5" precision="FP32" names="Relu__23:0">
					<dim>1</dim>
					<dim>32</dim>
					<dim>24</dim>
					<dim>24</dim>
				</port>
			</output>
		</layer>
		<layer id="408" name="model/activation_7/Relu;model/batch_normalization_7/FusedBatchNormV3;model/depthwise_conv2d_3/depthwise;model/depthwise_conv2d_3/BiasAdd;model/depthwise_conv2d_3/BiasAdd/ReadVariableOp/resource1/WithoutBiases/weights_shape57947705" type="Const" version="opset1">
			<data offset="789740" size="40" shape="5" element_type="i64"/>
			<output>
				<port id="0" precision="I64">
					<dim>5</dim>
				</port>
			</output>
		</layer>
		<layer id="409" name="139113958104" type="Const" version="opset1">
			<data offset="791196" size="4" shape="" element_type="f32"/>
			<output>
				<port id="0" precision="FP32"/>
			</output>
		</layer>
		<layer id="410" name="139213967021" type="Const" version="opset1">
			<data offset="791200" size="4" shape="" element_type="f32"/>
			<output>
				<port id="0" precision="FP32"/>
			</output>
		</layer>
		<layer id="411" name="139313977024" type="Const" version="opset1">
			<data offset="791196" size="4" shape="" element_type="f32"/>
			<output>
				<port id="0" precision="FP32"/>
			</output>
		</layer>
		<layer id="412" name="139413987234" type="Const" version="opset1">
			<data offset="791200" size="4" shape="" element_type="f32"/>
			<output>
				<port id="0" precision="FP32"/>
			</output>
		</layer>
		<layer id="413" name="const_fold_opt__3042317087" type="Const" version="opset1">
			<data offset="791204" size="1152" shape="32,1,3,3" element_type="f32"/>
			<rt_info>
				<attribute name="fused_names" version="0" value="const_fold_opt__304"/>
			</rt_info>
			<output>
				<port id="0" precision="FP32" names="const_fold_opt__304">
					<dim>32</dim>
					<dim>1</dim>
					<dim>3</dim>
					<dim>3</dim>
				</port>
			</output>
		</layer>
		<layer id="414" name="model/activation_7/Relu;model/batch_normalization_7/FusedBatchNormV3;model/depthwise_conv2d_3/depthwise;model/depthwise_conv2d_3/BiasAdd;model/depthwise_conv2d_3/BiasAdd/ReadVariableOp/resource1/WithoutBiases/fq_weights_1" type="FakeQuantize" version="opset1">
			<data levels="65535" auto_broadcast="numpy"/>
			<input>
				<port id="0">
					<dim>32</dim>
					<dim>1</dim>
					<dim>3</dim>
					<dim>3</dim>
				</port>
				<port id="1"/>
				<port id="2"/>
				<port id="3"/>
				<port id="4"/>
			</input>
			<output>
				<port id="5" precision="FP32">
					<dim>32</dim>
					<dim>1</dim>
					<dim>3</dim>
					<dim>3</dim>
				</port>
			</output>
		</layer>
		<layer id="415" name="5793" type="Reshape" version="opset1">
			<data special_zero="true"/>
			<input>
				<port id="0">
					<dim>32</dim>
					<dim>1</dim>
					<dim>3</dim>
					<dim>3</dim>
				</port>
				<port id="1">
					<dim>5</dim>
				</port>
			</input>
			<output>
				<port id="2" precision="FP32">
					<dim>32</dim>
					<dim>1</dim>
					<dim>1</dim>
					<dim>3</dim>
					<dim>3</dim>
				</port>
			</output>
		</layer>
		<layer id="416" name="model/activation_7/Relu;model/batch_normalization_7/FusedBatchNormV3;model/depthwise_conv2d_3/depthwise;model/depthwise_conv2d_3/BiasAdd;model/depthwise_conv2d_3/BiasAdd/ReadVariableOp/resource1/WithoutBiases" type="GroupConvolution" version="opset1">
			<data auto_pad="explicit" strides="2,2" dilations="1,1" pads_begin="0,0" pads_end="1,1"/>
			<rt_info>
				<attribute name="fused_names" version="0" value="model/activation_7/Relu;model/batch_normalization_7/FusedBatchNormV3;model/depthwise_conv2d_3/depthwise;model/depthwise_conv2d_3/BiasAdd;model/depthwise_conv2d_3/BiasAdd/ReadVariableOp/resource1/WithoutBiases"/>
			</rt_info>
			<input>
				<port id="0">
					<dim>1</dim>
					<dim>32</dim>
					<dim>24</dim>
					<dim>24</dim>
				</port>
				<port id="1">
					<dim>32</dim>
					<dim>1</dim>
					<dim>1</dim>
					<dim>3</dim>
					<dim>3</dim>
				</port>
			</input>
			<output>
				<port id="2" precision="FP32">
					<dim>1</dim>
					<dim>32</dim>
					<dim>12</dim>
					<dim>12</dim>
				</port>
			</output>
		</layer>
		<layer id="417" name="model/activation_7/Relu;model/batch_normalization_7/FusedBatchNormV3;model/depthwise_conv2d_3/depthwise;model/depthwise_conv2d_3/BiasAdd;model/depthwise_conv2d_3/BiasAdd/ReadVariableOp/resource1/Dims11392337468" type="Const" version="opset1">
			<data offset="792356" size="128" shape="1,32,1,1" element_type="f32"/>
			<rt_info>
				<attribute name="fused_names" version="0" value="model/activation_7/Relu;model/batch_normalization_7/FusedBatchNormV3;model/depthwise_conv2d_3/depthwise;model/depthwise_conv2d_3/BiasAdd;model/depthwise_conv2d_3/BiasAdd/ReadVariableOp/resource1/Dims1139"/>
			</rt_info>
			<output>
				<port id="0" precision="FP32">
					<dim>1</dim>
					<dim>32</dim>
					<dim>1</dim>
					<dim>1</dim>
				</port>
			</output>
		</layer>
		<layer id="418" name="model/activation_7/Relu;model/batch_normalization_7/FusedBatchNormV3;model/depthwise_conv2d_3/depthwise;model/depthwise_conv2d_3/BiasAdd;model/depthwise_conv2d_3/BiasAdd/ReadVariableOp/resource1" type="Add" version="opset1">
			<data auto_broadcast="numpy"/>
			<rt_info>
				<attribute name="fused_names" version="0" value="model/activation_7/Relu;model/batch_normalization_7/FusedBatchNormV3;model/depthwise_conv2d_3/depthwise;model/depthwise_conv2d_3/BiasAdd;model/depthwise_conv2d_3/BiasAdd/ReadVariableOp/resource1"/>
			</rt_info>
			<input>
				<port id="0">
					<dim>1</dim>
					<dim>32</dim>
					<dim>12</dim>
					<dim>12</dim>
				</port>
				<port id="1">
					<dim>1</dim>
					<dim>32</dim>
					<dim>1</dim>
					<dim>1</dim>
				</port>
			</input>
			<output>
				<port id="2" precision="FP32">
					<dim>1</dim>
					<dim>32</dim>
					<dim>12</dim>
					<dim>12</dim>
				</port>
			</output>
		</layer>
		<layer id="419" name="model/activation_7/Relu;model/batch_normalization_7/FusedBatchNormV3;model/depthwise_conv2d_3/depthwise;model/depthwise_conv2d_3/BiasAdd;model/depthwise_conv2d_3/BiasAdd/ReadVariableOp/resource1/fq_output_0_0" type="FakeQuantize" version="opset1">
			<data levels="4294967296" auto_broadcast="numpy"/>
			<input>
				<port id="0">
					<dim>1</dim>
					<dim>32</dim>
					<dim>12</dim>
					<dim>12</dim>
				</port>
				<port id="1"/>
				<port id="2"/>
				<port id="3"/>
				<port id="4"/>
			</input>
			<output>
				<port id="5" precision="FP32" names="model/activation_7/Relu;model/batch_normalization_7/FusedBatchNormV3;model/depthwise_conv2d_3/depthwise;model/depthwise_conv2d_3/BiasAdd;model/depthwise_conv2d_3/BiasAdd/ReadVariableOp/resource1">
					<dim>1</dim>
					<dim>32</dim>
					<dim>12</dim>
					<dim>12</dim>
				</port>
			</output>
		</layer>
		<layer id="420" name="Relu__26" type="ReLU" version="opset1">
			<rt_info>
				<attribute name="fused_names" version="0" value="Relu__26"/>
			</rt_info>
			<input>
				<port id="0">
					<dim>1</dim>
					<dim>32</dim>
					<dim>12</dim>
					<dim>12</dim>
				</port>
			</input>
			<output>
				<port id="1" precision="FP32">
					<dim>1</dim>
					<dim>32</dim>
					<dim>12</dim>
					<dim>12</dim>
				</port>
			</output>
		</layer>
		<layer id="421" name="Relu__26/fq_output_0_0" type="FakeQuantize" version="opset1">
			<data levels="65536" auto_broadcast="numpy"/>
			<input>
				<port id="0">
					<dim>1</dim>
					<dim>32</dim>
					<dim>12</dim>
					<dim>12</dim>
				</port>
				<port id="1"/>
				<port id="2"/>
				<port id="3"/>
				<port id="4"/>
			</input>
			<output>
				<port id="5" precision="FP32" names="Relu__26:0">
					<dim>1</dim>
					<dim>32</dim>
					<dim>12</dim>
					<dim>12</dim>
				</port>
			</output>
		</layer>
		<layer id="422" name="model/activation_8/Relu;model/batch_normalization_8/FusedBatchNormV3;model/conv2d_4/BiasAdd/ReadVariableOp/resource;model/conv2d_4/BiasAdd;model/depthwise_conv2d_5/depthwise;model/conv2d_4/Conv2D1/WithoutBiases" type="Convolution" version="opset1">
			<data auto_pad="explicit" strides="1,1" dilations="1,1" pads_begin="0,0" pads_end="0,0"/>
			<rt_info>
				<attribute name="fused_names" version="0" value="model/activation_8/Relu;model/batch_normalization_8/FusedBatchNormV3;model/conv2d_4/BiasAdd/ReadVariableOp/resource;model/conv2d_4/BiasAdd;model/depthwise_conv2d_5/depthwise;model/conv2d_4/Conv2D1/WithoutBiases"/>
			</rt_info>
			<input>
				<port id="0">
					<dim>1</dim>
					<dim>32</dim>
					<dim>12</dim>
					<dim>12</dim>
				</port>
				<port id="1">
					<dim>64</dim>
					<dim>32</dim>
					<dim>1</dim>
					<dim>1</dim>
				</port>
			</input>
			<output>
				<port id="2" precision="FP32">
					<dim>1</dim>
					<dim>64</dim>
					<dim>12</dim>
					<dim>12</dim>
				</port>
			</output>
		</layer>
		<layer id="423" name="model/activation_8/Relu;model/batch_normalization_8/FusedBatchNormV3;model/conv2d_4/BiasAdd/ReadVariableOp/resource;model/conv2d_4/BiasAdd;model/depthwise_conv2d_5/depthwise;model/conv2d_4/Conv2D1/Dims12352387177" type="Const" version="opset1">
			<data offset="792484" size="256" shape="1,64,1,1" element_type="f32"/>
			<rt_info>
				<attribute name="fused_names" version="0" value="model/activation_8/Relu;model/batch_normalization_8/FusedBatchNormV3;model/conv2d_4/BiasAdd/ReadVariableOp/resource;model/conv2d_4/BiasAdd;model/depthwise_conv2d_5/depthwise;model/conv2d_4/Conv2D1/Dims1235"/>
			</rt_info>
			<output>
				<port id="0" precision="FP32">
					<dim>1</dim>
					<dim>64</dim>
					<dim>1</dim>
					<dim>1</dim>
				</port>
			</output>
		</layer>
		<layer id="424" name="model/activation_8/Relu;model/batch_normalization_8/FusedBatchNormV3;model/conv2d_4/BiasAdd/ReadVariableOp/resource;model/conv2d_4/BiasAdd;model/depthwise_conv2d_5/depthwise;model/conv2d_4/Conv2D1" type="Add" version="opset1">
			<data auto_broadcast="numpy"/>
			<rt_info>
				<attribute name="fused_names" version="0" value="model/activation_8/Relu;model/batch_normalization_8/FusedBatchNormV3;model/conv2d_4/BiasAdd/ReadVariableOp/resource;model/conv2d_4/BiasAdd;model/depthwise_conv2d_5/depthwise;model/conv2d_4/Conv2D1"/>
			</rt_info>
			<input>
				<port id="0">
					<dim>1</dim>
					<dim>64</dim>
					<dim>12</dim>
					<dim>12</dim>
				</port>
				<port id="1">
					<dim>1</dim>
					<dim>64</dim>
					<dim>1</dim>
					<dim>1</dim>
				</port>
			</input>
			<output>
				<port id="2" precision="FP32">
					<dim>1</dim>
					<dim>64</dim>
					<dim>12</dim>
					<dim>12</dim>
				</port>
			</output>
		</layer>
		<layer id="425" name="model/activation_8/Relu;model/batch_normalization_8/FusedBatchNormV3;model/conv2d_4/BiasAdd/ReadVariableOp/resource;model/conv2d_4/BiasAdd;model/depthwise_conv2d_5/depthwise;model/conv2d_4/Conv2D1/fq_output_0_0" type="FakeQuantize" version="opset1">
			<data levels="4294967296" auto_broadcast="numpy"/>
			<input>
				<port id="0">
					<dim>1</dim>
					<dim>64</dim>
					<dim>12</dim>
					<dim>12</dim>
				</port>
				<port id="1"/>
				<port id="2"/>
				<port id="3"/>
				<port id="4"/>
			</input>
			<output>
				<port id="5" precision="FP32" names="model/activation_8/Relu;model/batch_normalization_8/FusedBatchNormV3;model/conv2d_4/BiasAdd/ReadVariableOp/resource;model/conv2d_4/BiasAdd;model/depthwise_conv2d_5/depthwise;model/conv2d_4/Conv2D1">
					<dim>1</dim>
					<dim>64</dim>
					<dim>12</dim>
					<dim>12</dim>
				</port>
			</output>
		</layer>
		<layer id="426" name="Relu__29" type="ReLU" version="opset1">
			<rt_info>
				<attribute name="fused_names" version="0" value="Relu__29"/>
			</rt_info>
			<input>
				<port id="0">
					<dim>1</dim>
					<dim>64</dim>
					<dim>12</dim>
					<dim>12</dim>
				</port>
			</input>
			<output>
				<port id="1" precision="FP32">
					<dim>1</dim>
					<dim>64</dim>
					<dim>12</dim>
					<dim>12</dim>
				</port>
			</output>
		</layer>
		<layer id="427" name="Relu__29/fq_output_0_0" type="FakeQuantize" version="opset1">
			<data levels="65536" auto_broadcast="numpy"/>
			<input>
				<port id="0">
					<dim>1</dim>
					<dim>64</dim>
					<dim>12</dim>
					<dim>12</dim>
				</port>
				<port id="1"/>
				<port id="2"/>
				<port id="3"/>
				<port id="4"/>
			</input>
			<output>
				<port id="5" precision="FP32" names="Relu__29:0">
					<dim>1</dim>
					<dim>64</dim>
					<dim>12</dim>
					<dim>12</dim>
				</port>
			</output>
		</layer>
		<layer id="428" name="model/activation_9/Relu;model/batch_normalization_9/FusedBatchNormV3;model/depthwise_conv2d_4/depthwise;model/depthwise_conv2d_4/BiasAdd;model/depthwise_conv2d_5/depthwise;model/depthwise_conv2d_4/BiasAdd/ReadVariableOp/resource1/WithoutBiases/weights_shape58087912" type="Const" version="opset1">
			<data offset="792740" size="40" shape="5" element_type="i64"/>
			<output>
				<port id="0" precision="I64">
					<dim>5</dim>
				</port>
			</output>
		</layer>
		<layer id="429" name="189118958158" type="Const" version="opset1">
			<data offset="792780" size="4" shape="" element_type="f32"/>
			<output>
				<port id="0" precision="FP32"/>
			</output>
		</layer>
		<layer id="430" name="189218967606" type="Const" version="opset1">
			<data offset="792784" size="4" shape="" element_type="f32"/>
			<output>
				<port id="0" precision="FP32"/>
			</output>
		</layer>
		<layer id="431" name="189318977636" type="Const" version="opset1">
			<data offset="792780" size="4" shape="" element_type="f32"/>
			<output>
				<port id="0" precision="FP32"/>
			</output>
		</layer>
		<layer id="432" name="189418988071" type="Const" version="opset1">
			<data offset="792784" size="4" shape="" element_type="f32"/>
			<output>
				<port id="0" precision="FP32"/>
			</output>
		</layer>
		<layer id="433" name="const_fold_opt__3362418134" type="Const" version="opset1">
			<data offset="792788" size="2304" shape="64,1,3,3" element_type="f32"/>
			<rt_info>
				<attribute name="fused_names" version="0" value="const_fold_opt__336"/>
			</rt_info>
			<output>
				<port id="0" precision="FP32" names="const_fold_opt__336">
					<dim>64</dim>
					<dim>1</dim>
					<dim>3</dim>
					<dim>3</dim>
				</port>
			</output>
		</layer>
		<layer id="434" name="model/activation_9/Relu;model/batch_normalization_9/FusedBatchNormV3;model/depthwise_conv2d_4/depthwise;model/depthwise_conv2d_4/BiasAdd;model/depthwise_conv2d_5/depthwise;model/depthwise_conv2d_4/BiasAdd/ReadVariableOp/resource1/WithoutBiases/fq_weights_1" type="FakeQuantize" version="opset1">
			<data levels="65535" auto_broadcast="numpy"/>
			<input>
				<port id="0">
					<dim>64</dim>
					<dim>1</dim>
					<dim>3</dim>
					<dim>3</dim>
				</port>
				<port id="1"/>
				<port id="2"/>
				<port id="3"/>
				<port id="4"/>
			</input>
			<output>
				<port id="5" precision="FP32">
					<dim>64</dim>
					<dim>1</dim>
					<dim>3</dim>
					<dim>3</dim>
				</port>
			</output>
		</layer>
		<layer id="435" name="5807" type="Reshape" version="opset1">
			<data special_zero="true"/>
			<input>
				<port id="0">
					<dim>64</dim>
					<dim>1</dim>
					<dim>3</dim>
					<dim>3</dim>
				</port>
				<port id="1">
					<dim>5</dim>
				</port>
			</input>
			<output>
				<port id="2" precision="FP32">
					<dim>64</dim>
					<dim>1</dim>
					<dim>1</dim>
					<dim>3</dim>
					<dim>3</dim>
				</port>
			</output>
		</layer>
		<layer id="436" name="model/activation_9/Relu;model/batch_normalization_9/FusedBatchNormV3;model/depthwise_conv2d_4/depthwise;model/depthwise_conv2d_4/BiasAdd;model/depthwise_conv2d_5/depthwise;model/depthwise_conv2d_4/BiasAdd/ReadVariableOp/resource1/WithoutBiases" type="GroupConvolution" version="opset1">
			<data auto_pad="explicit" strides="1,1" dilations="1,1" pads_begin="1,1" pads_end="1,1"/>
			<rt_info>
				<attribute name="fused_names" version="0" value="model/activation_9/Relu;model/batch_normalization_9/FusedBatchNormV3;model/depthwise_conv2d_4/depthwise;model/depthwise_conv2d_4/BiasAdd;model/depthwise_conv2d_5/depthwise;model/depthwise_conv2d_4/BiasAdd/ReadVariableOp/resource1/WithoutBiases"/>
			</rt_info>
			<input>
				<port id="0">
					<dim>1</dim>
					<dim>64</dim>
					<dim>12</dim>
					<dim>12</dim>
				</port>
				<port id="1">
					<dim>64</dim>
					<dim>1</dim>
					<dim>1</dim>
					<dim>3</dim>
					<dim>3</dim>
				</port>
			</input>
			<output>
				<port id="2" precision="FP32">
					<dim>1</dim>
					<dim>64</dim>
					<dim>12</dim>
					<dim>12</dim>
				</port>
			</output>
		</layer>
		<layer id="437" name="model/activation_9/Relu;model/batch_normalization_9/FusedBatchNormV3;model/depthwise_conv2d_4/depthwise;model/depthwise_conv2d_4/BiasAdd;model/depthwise_conv2d_5/depthwise;model/depthwise_conv2d_4/BiasAdd/ReadVariableOp/resource1/Dims11332437342" type="Const" version="opset1">
			<data offset="795092" size="256" shape="1,64,1,1" element_type="f32"/>
			<rt_info>
				<attribute name="fused_names" version="0" value="model/activation_9/Relu;model/batch_normalization_9/FusedBatchNormV3;model/depthwise_conv2d_4/depthwise;model/depthwise_conv2d_4/BiasAdd;model/depthwise_conv2d_5/depthwise;model/depthwise_conv2d_4/BiasAdd/ReadVariableOp/resource1/Dims1133"/>
			</rt_info>
			<output>
				<port id="0" precision="FP32">
					<dim>1</dim>
					<dim>64</dim>
					<dim>1</dim>
					<dim>1</dim>
				</port>
			</output>
		</layer>
		<layer id="438" name="model/activation_9/Relu;model/batch_normalization_9/FusedBatchNormV3;model/depthwise_conv2d_4/depthwise;model/depthwise_conv2d_4/BiasAdd;model/depthwise_conv2d_5/depthwise;model/depthwise_conv2d_4/BiasAdd/ReadVariableOp/resource1" type="Add" version="opset1">
			<data auto_broadcast="numpy"/>
			<rt_info>
				<attribute name="fused_names" version="0" value="model/activation_9/Relu;model/batch_normalization_9/FusedBatchNormV3;model/depthwise_conv2d_4/depthwise;model/depthwise_conv2d_4/BiasAdd;model/depthwise_conv2d_5/depthwise;model/depthwise_conv2d_4/BiasAdd/ReadVariableOp/resource1"/>
			</rt_info>
			<input>
				<port id="0">
					<dim>1</dim>
					<dim>64</dim>
					<dim>12</dim>
					<dim>12</dim>
				</port>
				<port id="1">
					<dim>1</dim>
					<dim>64</dim>
					<dim>1</dim>
					<dim>1</dim>
				</port>
			</input>
			<output>
				<port id="2" precision="FP32">
					<dim>1</dim>
					<dim>64</dim>
					<dim>12</dim>
					<dim>12</dim>
				</port>
			</output>
		</layer>
		<layer id="439" name="model/activation_9/Relu;model/batch_normalization_9/FusedBatchNormV3;model/depthwise_conv2d_4/depthwise;model/depthwise_conv2d_4/BiasAdd;model/depthwise_conv2d_5/depthwise;model/depthwise_conv2d_4/BiasAdd/ReadVariableOp/resource1/fq_output_0_0" type="FakeQuantize" version="opset1">
			<data levels="4294967296" auto_broadcast="numpy"/>
			<input>
				<port id="0">
					<dim>1</dim>
					<dim>64</dim>
					<dim>12</dim>
					<dim>12</dim>
				</port>
				<port id="1"/>
				<port id="2"/>
				<port id="3"/>
				<port id="4"/>
			</input>
			<output>
				<port id="5" precision="FP32" names="model/activation_9/Relu;model/batch_normalization_9/FusedBatchNormV3;model/depthwise_conv2d_4/depthwise;model/depthwise_conv2d_4/BiasAdd;model/depthwise_conv2d_5/depthwise;model/depthwise_conv2d_4/BiasAdd/ReadVariableOp/resource1">
					<dim>1</dim>
					<dim>64</dim>
					<dim>12</dim>
					<dim>12</dim>
				</port>
			</output>
		</layer>
		<layer id="440" name="Relu__32" type="ReLU" version="opset1">
			<rt_info>
				<attribute name="fused_names" version="0" value="Relu__32"/>
			</rt_info>
			<input>
				<port id="0">
					<dim>1</dim>
					<dim>64</dim>
					<dim>12</dim>
					<dim>12</dim>
				</port>
			</input>
			<output>
				<port id="1" precision="FP32">
					<dim>1</dim>
					<dim>64</dim>
					<dim>12</dim>
					<dim>12</dim>
				</port>
			</output>
		</layer>
		<layer id="441" name="Relu__32/fq_output_0_0" type="FakeQuantize" version="opset1">
			<data levels="65536" auto_broadcast="numpy"/>
			<input>
				<port id="0">
					<dim>1</dim>
					<dim>64</dim>
					<dim>12</dim>
					<dim>12</dim>
				</port>
				<port id="1"/>
				<port id="2"/>
				<port id="3"/>
				<port id="4"/>
			</input>
			<output>
				<port id="5" precision="FP32" names="Relu__32:0">
					<dim>1</dim>
					<dim>64</dim>
					<dim>12</dim>
					<dim>12</dim>
				</port>
			</output>
		</layer>
		<layer id="442" name="model/activation_10/Relu;model/batch_normalization_10/FusedBatchNormV3;model/conv2d_5/BiasAdd/ReadVariableOp/resource;model/conv2d_5/BiasAdd;model/depthwise_conv2d_5/depthwise;model/conv2d_5/Conv2D1/WithoutBiases" type="Convolution" version="opset1">
			<data auto_pad="explicit" strides="1,1" dilations="1,1" pads_begin="0,0" pads_end="0,0"/>
			<rt_info>
				<attribute name="fused_names" version="0" value="model/activation_10/Relu;model/batch_normalization_10/FusedBatchNormV3;model/conv2d_5/BiasAdd/ReadVariableOp/resource;model/conv2d_5/BiasAdd;model/depthwise_conv2d_5/depthwise;model/conv2d_5/Conv2D1/WithoutBiases"/>
			</rt_info>
			<input>
				<port id="0">
					<dim>1</dim>
					<dim>64</dim>
					<dim>12</dim>
					<dim>12</dim>
				</port>
				<port id="1">
					<dim>64</dim>
					<dim>64</dim>
					<dim>1</dim>
					<dim>1</dim>
				</port>
			</input>
			<output>
				<port id="2" precision="FP32">
					<dim>1</dim>
					<dim>64</dim>
					<dim>12</dim>
					<dim>12</dim>
				</port>
			</output>
		</layer>
		<layer id="443" name="model/activation_10/Relu;model/batch_normalization_10/FusedBatchNormV3;model/conv2d_5/BiasAdd/ReadVariableOp/resource;model/conv2d_5/BiasAdd;model/depthwise_conv2d_5/depthwise;model/conv2d_5/Conv2D1/Dims12232487417" type="Const" version="opset1">
			<data offset="795348" size="256" shape="1,64,1,1" element_type="f32"/>
			<rt_info>
				<attribute name="fused_names" version="0" value="model/activation_10/Relu;model/batch_normalization_10/FusedBatchNormV3;model/conv2d_5/BiasAdd/ReadVariableOp/resource;model/conv2d_5/BiasAdd;model/depthwise_conv2d_5/depthwise;model/conv2d_5/Conv2D1/Dims1223"/>
			</rt_info>
			<output>
				<port id="0" precision="FP32">
					<dim>1</dim>
					<dim>64</dim>
					<dim>1</dim>
					<dim>1</dim>
				</port>
			</output>
		</layer>
		<layer id="444" name="model/activation_10/Relu;model/batch_normalization_10/FusedBatchNormV3;model/conv2d_5/BiasAdd/ReadVariableOp/resource;model/conv2d_5/BiasAdd;model/depthwise_conv2d_5/depthwise;model/conv2d_5/Conv2D1" type="Add" version="opset1">
			<data auto_broadcast="numpy"/>
			<rt_info>
				<attribute name="fused_names" version="0" value="model/activation_10/Relu;model/batch_normalization_10/FusedBatchNormV3;model/conv2d_5/BiasAdd/ReadVariableOp/resource;model/conv2d_5/BiasAdd;model/depthwise_conv2d_5/depthwise;model/conv2d_5/Conv2D1"/>
			</rt_info>
			<input>
				<port id="0">
					<dim>1</dim>
					<dim>64</dim>
					<dim>12</dim>
					<dim>12</dim>
				</port>
				<port id="1">
					<dim>1</dim>
					<dim>64</dim>
					<dim>1</dim>
					<dim>1</dim>
				</port>
			</input>
			<output>
				<port id="2" precision="FP32">
					<dim>1</dim>
					<dim>64</dim>
					<dim>12</dim>
					<dim>12</dim>
				</port>
			</output>
		</layer>
		<layer id="445" name="model/activation_10/Relu;model/batch_normalization_10/FusedBatchNormV3;model/conv2d_5/BiasAdd/ReadVariableOp/resource;model/conv2d_5/BiasAdd;model/depthwise_conv2d_5/depthwise;model/conv2d_5/Conv2D1/fq_output_0_0" type="FakeQuantize" version="opset1">
			<data levels="4294967296" auto_broadcast="numpy"/>
			<input>
				<port id="0">
					<dim>1</dim>
					<dim>64</dim>
					<dim>12</dim>
					<dim>12</dim>
				</port>
				<port id="1"/>
				<port id="2"/>
				<port id="3"/>
				<port id="4"/>
			</input>
			<output>
				<port id="5" precision="FP32" names="model/activation_10/Relu;model/batch_normalization_10/FusedBatchNormV3;model/conv2d_5/BiasAdd/ReadVariableOp/resource;model/conv2d_5/BiasAdd;model/depthwise_conv2d_5/depthwise;model/conv2d_5/Conv2D1">
					<dim>1</dim>
					<dim>64</dim>
					<dim>12</dim>
					<dim>12</dim>
				</port>
			</output>
		</layer>
		<layer id="446" name="Relu__35" type="ReLU" version="opset1">
			<rt_info>
				<attribute name="fused_names" version="0" value="Relu__35"/>
			</rt_info>
			<input>
				<port id="0">
					<dim>1</dim>
					<dim>64</dim>
					<dim>12</dim>
					<dim>12</dim>
				</port>
			</input>
			<output>
				<port id="1" precision="FP32">
					<dim>1</dim>
					<dim>64</dim>
					<dim>12</dim>
					<dim>12</dim>
				</port>
			</output>
		</layer>
		<layer id="447" name="Relu__35/fq_output_0_0" type="FakeQuantize" version="opset1">
			<data levels="65536" auto_broadcast="numpy"/>
			<input>
				<port id="0">
					<dim>1</dim>
					<dim>64</dim>
					<dim>12</dim>
					<dim>12</dim>
				</port>
				<port id="1"/>
				<port id="2"/>
				<port id="3"/>
				<port id="4"/>
			</input>
			<output>
				<port id="5" precision="FP32" names="Relu__35:0">
					<dim>1</dim>
					<dim>64</dim>
					<dim>12</dim>
					<dim>12</dim>
				</port>
			</output>
		</layer>
		<layer id="448" name="model/activation_11/Relu;model/batch_normalization_11/FusedBatchNormV3;model/depthwise_conv2d_5/depthwise;model/depthwise_conv2d_5/BiasAdd;model/depthwise_conv2d_5/BiasAdd/ReadVariableOp/resource1/WithoutBiases/weights_shape58227603" type="Const" version="opset1">
			<data offset="792740" size="40" shape="5" element_type="i64"/>
			<output>
				<port id="0" precision="I64">
					<dim>5</dim>
				</port>
			</output>
		</layer>
		<layer id="449" name="105110558098" type="Const" version="opset1">
			<data offset="795604" size="4" shape="" element_type="f32"/>
			<output>
				<port id="0" precision="FP32"/>
			</output>
		</layer>
		<layer id="450" name="105210568248" type="Const" version="opset1">
			<data offset="795608" size="4" shape="" element_type="f32"/>
			<output>
				<port id="0" precision="FP32"/>
			</output>
		</layer>
		<layer id="451" name="105310577393" type="Const" version="opset1">
			<data offset="795604" size="4" shape="" element_type="f32"/>
			<output>
				<port id="0" precision="FP32"/>
			</output>
		</layer>
		<layer id="452" name="105410588251" type="Const" version="opset1">
			<data offset="795608" size="4" shape="" element_type="f32"/>
			<output>
				<port id="0" precision="FP32"/>
			</output>
		</layer>
		<layer id="453" name="const_fold_opt__3152517102" type="Const" version="opset1">
			<data offset="795612" size="2304" shape="64,1,3,3" element_type="f32"/>
			<rt_info>
				<attribute name="fused_names" version="0" value="const_fold_opt__315"/>
			</rt_info>
			<output>
				<port id="0" precision="FP32" names="const_fold_opt__315">
					<dim>64</dim>
					<dim>1</dim>
					<dim>3</dim>
…
		<edge from-layer="131" from-port="0" to-layer="135" to-port="2"/>
		<edge from-layer="132" from-port="0" to-layer="135" to-port="3"/>
		<edge from-layer="133" from-port="0" to-layer="135" to-port="4"/>
		<edge from-layer="156" from-port="0" to-layer="157" to-port="0"/>
		<edge from-layer="152" from-port="0" to-layer="157" to-port="1"/>
		<edge from-layer="153" from-port="0" to-layer="157" to-port="2"/>
		<edge from-layer="154" from-port="0" to-layer="157" to-port="3"/>
		<edge from-layer="155" from-port="0" to-layer="157" to-port="4"/>
		<edge from-layer="178" from-port="0" to-layer="179" to-port="0"/>
		<edge from-layer="174" from-port="0" to-layer="179" to-port="1"/>
		<edge from-layer="175" from-port="0" to-layer="179" to-port="2"/>
		<edge from-layer="176" from-port="0" to-layer="179" to-port="3"/>
		<edge from-layer="177" from-port="0" to-layer="179" to-port="4"/>
		<edge from-layer="200" from-port="0" to-layer="201" to-port="0"/>
		<edge from-layer="196" from-port="0" to-layer="201" to-port="1"/>
		<edge from-layer="197" from-port="0" to-layer="201" to-port="2"/>
		<edge from-layer="198" from-port="0" to-layer="201" to-port="3"/>
		<edge from-layer="199" from-port="0" to-layer="201" to-port="4"/>
		<edge from-layer="222" from-port="0" to-layer="223" to-port="0"/>
		<edge from-layer="218" from-port="0" to-layer="223" to-port="1"/>
		<edge from-layer="219" from-port="0" to-layer="223" to-port="2"/>
		<edge from-layer="220" from-port="0" to-layer="223" to-port="3"/>
		<edge from-layer="221" from-port="0" to-layer="223" to-port="4"/>
		<edge from-layer="244" from-port="0" to-layer="245" to-port="0"/>
		<edge from-layer="240" from-port="0" to-layer="245" to-port="1"/>
		<edge from-layer="241" from-port="0" to-layer="245" to-port="2"/>
		<edge from-layer="242" from-port="0" to-layer="245" to-port="3"/>
		<edge from-layer="243" from-port="0" to-layer="245" to-port="4"/>
		<edge from-layer="266" from-port="0" to-layer="267" to-port="0"/>
		<edge from-layer="262" from-port="0" to-layer="267" to-port="1"/>
		<edge from-layer="263" from-port="0" to-layer="267" to-port="2"/>
		<edge from-layer="264" from-port="0" to-layer="267" to-port="3"/>
		<edge from-layer="265" from-port="0" to-layer="267" to-port="4"/>
		<edge from-layer="288" from-port="0" to-layer="289" to-port="0"/>
		<edge from-layer="284" from-port="0" to-layer="289" to-port="1"/>
		<edge from-layer="285" from-port="0" to-layer="289" to-port="2"/>
		<edge from-layer="286" from-port="0" to-layer="289" to-port="3"/>
		<edge from-layer="287" from-port="0" to-layer="289" to-port="4"/>
		<edge from-layer="310" from-port="0" to-layer="311" to-port="0"/>
		<edge from-layer="306" from-port="0" to-layer="311" to-port="1"/>
		<edge from-layer="307" from-port="0" to-layer="311" to-port="2"/>
		<edge from-layer="308" from-port="0" to-layer="311" to-port="3"/>
		<edge from-layer="309" from-port="0" to-layer="311" to-port="4"/>
		<edge from-layer="332" from-port="0" to-layer="333" to-port="0"/>
		<edge from-layer="328" from-port="0" to-layer="333" to-port="1"/>
		<edge from-layer="329" from-port="0" to-layer="333" to-port="2"/>
		<edge from-layer="330" from-port="0" to-layer="333" to-port="3"/>
		<edge from-layer="331" from-port="0" to-layer="333" to-port="4"/>
		<edge from-layer="339" from-port="0" to-layer="340" to-port="0"/>
		<edge from-layer="335" from-port="0" to-layer="340" to-port="1"/>
		<edge from-layer="336" from-port="0" to-layer="340" to-port="2"/>
		<edge from-layer="337" from-port="0" to-layer="340" to-port="3"/>
		<edge from-layer="338" from-port="0" to-layer="340" to-port="4"/>
		<edge from-layer="340" from-port="5" to-layer="341" to-port="0"/>
		<edge from-layer="334" from-port="0" to-layer="341" to-port="1"/>
		<edge from-layer="341" from-port="2" to-layer="342" to-port="0"/>
		<edge from-layer="333" from-port="5" to-layer="342" to-port="1"/>
		<edge from-layer="342" from-port="2" to-layer="344" to-port="0"/>
		<edge from-layer="343" from-port="0" to-layer="344" to-port="1"/>
		<edge from-layer="344" from-port="2" to-layer="345" to-port="0"/>
		<edge from-layer="324" from-port="0" to-layer="345" to-port="1"/>
		<edge from-layer="325" from-port="0" to-layer="345" to-port="2"/>
		<edge from-layer="326" from-port="0" to-layer="345" to-port="3"/>
		<edge from-layer="327" from-port="0" to-layer="345" to-port="4"/>
		<edge from-layer="345" from-port="5" to-layer="346" to-port="0"/>
		<edge from-layer="346" from-port="1" to-layer="347" to-port="0"/>
		<edge from-layer="320" from-port="0" to-layer="347" to-port="1"/>
		<edge from-layer="321" from-port="0" to-layer="347" to-port="2"/>
		<edge from-layer="322" from-port="0" to-layer="347" to-port="3"/>
		<edge from-layer="323" from-port="0" to-layer="347" to-port="4"/>
		<edge from-layer="353" from-port="0" to-layer="354" to-port="0"/>
		<edge from-layer="349" from-port="0" to-layer="354" to-port="1"/>
		<edge from-layer="350" from-port="0" to-layer="354" to-port="2"/>
		<edge from-layer="351" from-port="0" to-layer="354" to-port="3"/>
		<edge from-layer="352" from-port="0" to-layer="354" to-port="4"/>
		<edge from-layer="354" from-port="5" to-layer="355" to-port="0"/>
		<edge from-layer="348" from-port="0" to-layer="355" to-port="1"/>
		<edge from-layer="347" from-port="5" to-layer="356" to-port="0"/>
		<edge from-layer="355" from-port="2" to-layer="356" to-port="1"/>
		<edge from-layer="356" from-port="2" to-layer="358" to-port="0"/>
		<edge from-layer="357" from-port="0" to-layer="358" to-port="1"/>
		<edge from-layer="358" from-port="2" to-layer="359" to-port="0"/>
		<edge from-layer="316" from-port="0" to-layer="359" to-port="1"/>
		<edge from-layer="317" from-port="0" to-layer="359" to-port="2"/>
		<edge from-layer="318" from-port="0" to-layer="359" to-port="3"/>
		<edge from-layer="319" from-port="0" to-layer="359" to-port="4"/>
		<edge from-layer="359" from-port="5" to-layer="360" to-port="0"/>
		<edge from-layer="360" from-port="1" to-layer="361" to-port="0"/>
		<edge from-layer="312" from-port="0" to-layer="361" to-port="1"/>
		<edge from-layer="313" from-port="0" to-layer="361" to-port="2"/>
		<edge from-layer="314" from-port="0" to-layer="361" to-port="3"/>
		<edge from-layer="315" from-port="0" to-layer="361" to-port="4"/>
		<edge from-layer="361" from-port="5" to-layer="362" to-port="0"/>
		<edge from-layer="311" from-port="5" to-layer="362" to-port="1"/>
		<edge from-layer="362" from-port="2" to-layer="364" to-port="0"/>
		<edge from-layer="363" from-port="0" to-layer="364" to-port="1"/>
		<edge from-layer="364" from-port="2" to-layer="365" to-port="0"/>
		<edge from-layer="302" from-port="0" to-layer="365" to-port="1"/>
		<edge from-layer="303" from-port="0" to-layer="365" to-port="2"/>
		<edge from-layer="304" from-port="0" to-layer="365" to-port="3"/>
		<edge from-layer="305" from-port="0" to-layer="365" to-port="4"/>
		<edge from-layer="365" from-port="5" to-layer="366" to-port="0"/>
		<edge from-layer="366" from-port="1" to-layer="367" to-port="0"/>
		<edge from-layer="298" from-port="0" to-layer="367" to-port="1"/>
		<edge from-layer="299" from-port="0" to-layer="367" to-port="2"/>
		<edge from-layer="300" from-port="0" to-layer="367" to-port="3"/>
		<edge from-layer="301" from-port="0" to-layer="367" to-port="4"/>
		<edge from-layer="373" from-port="0" to-layer="374" to-port="0"/>
		<edge from-layer="369" from-port="0" to-layer="374" to-port="1"/>
		<edge from-layer="370" from-port="0" to-layer="374" to-port="2"/>
		<edge from-layer="371" from-port="0" to-layer="374" to-port="3"/>
		<edge from-layer="372" from-port="0" to-layer="374" to-port="4"/>
		<edge from-layer="374" from-port="5" to-layer="375" to-port="0"/>
		<edge from-layer="368" from-port="0" to-layer="375" to-port="1"/>
		<edge from-layer="367" from-port="5" to-layer="376" to-port="0"/>
		<edge from-layer="375" from-port="2" to-layer="376" to-port="1"/>
		<edge from-layer="376" from-port="2" to-layer="378" to-port="0"/>
		<edge from-layer="377" from-port="0" to-layer="378" to-port="1"/>
		<edge from-layer="378" from-port="2" to-layer="379" to-port="0"/>
		<edge from-layer="294" from-port="0" to-layer="379" to-port="1"/>
		<edge from-layer="295" from-port="0" to-layer="379" to-port="2"/>
		<edge from-layer="296" from-port="0" to-layer="379" to-port="3"/>
		<edge from-layer="297" from-port="0" to-layer="379" to-port="4"/>
		<edge from-layer="379" from-port="5" to-layer="380" to-port="0"/>
		<edge from-layer="380" from-port="1" to-layer="381" to-port="0"/>
		<edge from-layer="290" from-port="0" to-layer="381" to-port="1"/>
		<edge from-layer="291" from-port="0" to-layer="381" to-port="2"/>
		<edge from-layer="292" from-port="0" to-layer="381" to-port="3"/>
		<edge from-layer="293" from-port="0" to-layer="381" to-port="4"/>
		<edge from-layer="381" from-port="5" to-layer="382" to-port="0"/>
		<edge from-layer="289" from-port="5" to-layer="382" to-port="1"/>
		<edge from-layer="382" from-port="2" to-layer="384" to-port="0"/>
		<edge from-layer="383" from-port="0" to-layer="384" to-port="1"/>
		<edge from-layer="384" from-port="2" to-layer="385" to-port="0"/>
		<edge from-layer="280" from-port="0" to-layer="385" to-port="1"/>
		<edge from-layer="281" from-port="0" to-layer="385" to-port="2"/>
		<edge from-layer="282" from-port="0" to-layer="385" to-port="3"/>
		<edge from-layer="283" from-port="0" to-layer="385" to-port="4"/>
		<edge from-layer="385" from-port="5" to-layer="386" to-port="0"/>
		<edge from-layer="386" from-port="1" to-layer="387" to-port="0"/>
		<edge from-layer="276" from-port="0" to-layer="387" to-port="1"/>
		<edge from-layer="277" from-port="0" to-layer="387" to-port="2"/>
		<edge from-layer="278" from-port="0" to-layer="387" to-port="3"/>
		<edge from-layer="279" from-port="0" to-layer="387" to-port="4"/>
		<edge from-layer="393" from-port="0" to-layer="394" to-port="0"/>
		<edge from-layer="389" from-port="0" to-layer="394" to-port="1"/>
		<edge from-layer="390" from-port="0" to-layer="394" to-port="2"/>
		<edge from-layer="391" from-port="0" to-layer="394" to-port="3"/>
		<edge from-layer="392" from-port="0" to-layer="394" to-port="4"/>
		<edge from-layer="394" from-port="5" to-layer="395" to-port="0"/>
		<edge from-layer="388" from-port="0" to-layer="395" to-port="1"/>
		<edge from-layer="387" from-port="5" to-layer="396" to-port="0"/>
		<edge from-layer="395" from-port="2" to-layer="396" to-port="1"/>
		<edge from-layer="396" from-port="2" to-layer="398" to-port="0"/>
		<edge from-layer="397" from-port="0" to-layer="398" to-port="1"/>
		<edge from-layer="398" from-port="2" to-layer="399" to-port="0"/>
		<edge from-layer="272" from-port="0" to-layer="399" to-port="1"/>
		<edge from-layer="273" from-port="0" to-layer="399" to-port="2"/>
		<edge from-layer="274" from-port="0" to-layer="399" to-port="3"/>
		<edge from-layer="275" from-port="0" to-layer="399" to-port="4"/>
		<edge from-layer="399" from-port="5" to-layer="400" to-port="0"/>
		<edge from-layer="400" from-port="1" to-layer="401" to-port="0"/>
		<edge from-layer="268" from-port="0" to-layer="401" to-port="1"/>
		<edge from-layer="269" from-port="0" to-layer="401" to-port="2"/>
		<edge from-layer="270" from-port="0" to-layer="401" to-port="3"/>
		<edge from-layer="271" from-port="0" to-layer="401" to-port="4"/>
		<edge from-layer="401" from-port="5" to-layer="402" to-port="0"/>
		<edge from-layer="267" from-port="5" to-layer="402" to-port="1"/>
		<edge from-layer="402" from-port="2" to-layer="404" to-port="0"/>
		<edge from-layer="403" from-port="0" to-layer="404" to-port="1"/>
		<edge from-layer="404" from-port="2" to-layer="405" to-port="0"/>
		<edge from-layer="258" from-port="0" to-layer="405" to-port="1"/>
		<edge from-layer="259" from-port="0" to-layer="405" to-port="2"/>
		<edge from-layer="260" from-port="0" to-layer="405" to-port="3"/>
		<edge from-layer="261" from-port="0" to-layer="405" to-port="4"/>
		<edge from-layer="405" from-port="5" to-layer="406" to-port="0"/>
		<edge from-layer="406" from-port="1" to-layer="407" to-port="0"/>
		<edge from-layer="254" from-port="0" to-layer="407" to-port="1"/>
		<edge from-layer="255" from-port="0" to-layer="407" to-port="2"/>
		<edge from-layer="256" from-port="0" to-layer="407" to-port="3"/>
		<edge from-layer="257" from-port="0" to-layer="407" to-port="4"/>
		<edge from-layer="413" from-port="0" to-layer="414" to-port="0"/>
		<edge from-layer="409" from-port="0" to-layer="414" to-port="1"/>
		<edge from-layer="410" from-port="0" to-layer="414" to-port="2"/>
		<edge from-layer="411" from-port="0" to-layer="414" to-port="3"/>
		<edge from-layer="412" from-port="0" to-layer="414" to-port="4"/>
		<edge from-layer="414" from-port="5" to-layer="415" to-port="0"/>
		<edge from-layer="408" from-port="0" to-layer="415" to-port="1"/>
		<edge from-layer="407" from-port="5" to-layer="416" to-port="0"/>
		<edge from-layer="415" from-port="2" to-layer="416" to-port="1"/>
		<edge from-layer="416" from-port="2" to-layer="418" to-port="0"/>
		<edge from-layer="417" from-port="0" to-layer="418" to-port="1"/>
		<edge from-layer="418" from-port="2" to-layer="419" to-port="0"/>
		<edge from-layer="250" from-port="0" to-layer="419" to-port="1"/>
		<edge from-layer="251" from-port="0" to-layer="419" to-port="2"/>
		<edge from-layer="252" from-port="0" to-layer="419" to-port="3"/>
		<edge from-layer="253" from-port="0" to-layer="419" to-port="4"/>
		<edge from-layer="419" from-port="5" to-layer="420" to-port="0"/>
		<edge from-layer="420" from-port="1" to-layer="421" to-port="0"/>
		<edge from-layer="246" from-port="0" to-layer="421" to-port="1"/>
		<edge from-layer="247" from-port="0" to-layer="421" to-port="2"/>
		<edge from-layer="248" from-port="0" to-layer="421" to-port="3"/>
		<edge from-layer="249" from-port="0" to-layer="421" to-port="4"/>
		<edge from-layer="421" from-port="5" to-layer="422" to-port="0"/>
		<edge from-layer="245" from-port="5" to-layer="422" to-port="1"/>
		<edge from-layer="422" from-port="2" to-layer="424" to-port="0"/>
		<edge from-layer="423" from-port="0" to-layer="424" to-port="1"/>
		<edge from-layer="424" from-port="2" to-layer="425" to-port="0"/>
		<edge from-layer="236" from-port="0" to-layer="425" to-port="1"/>
		<edge from-layer="237" from-port="0" to-layer="425" to-port="2"/>
		<edge from-layer="238" from-port="0" to-layer="425" to-port="3"/>
		<edge from-layer="239" from-port="0" to-layer="425" to-port="4"/>
		<edge from-layer="425" from-port="5" to-layer="426" to-port="0"/>
		<edge from-layer="426" from-port="1" to-layer="427" to-port="0"/>
		<edge from-layer="232" from-port="0" to-layer="427" to-port="1"/>
		<edge from-layer="233" from-port="0" to-layer="427" to-port="2"/>
		<edge from-layer="234" from-port="0" to-layer="427" to-port="3"/>
		<edge from-layer="235" from-port="0" to-layer="427" to-port="4"/>
		<edge from-layer="433" from-port="0" to-layer="434" to-port="0"/>
		<edge from-layer="429" from-port="0" to-layer="434" to-port="1"/>
		<edge from-layer="430" from-port="0" to-layer="434" to-port="2"/>
		<edge from-layer="431" from-port="0" to-layer="434" to-port="3"/>
		<edge from-layer="432" from-port="0" to-layer="434" to-port="4"/>
		<edge from-layer="434" from-port="5" to-layer="435" to-port="0"/>
		<edge from-layer="428" from-port="0" to-layer="435" to-port="1"/>
		<edge from-layer="427" from-port="5" to-layer="436" to-port="0"/>
		<edge from-layer="435" from-port="2" to-layer="436" to-port="1"/>
		<edge from-layer="436" from-port="2" to-layer="438" to-port="0"/>
		<edge from-layer="437" from-port="0" to-layer="438" to-port="1"/>
		<edge from-layer="438" from-port="2" to-layer="439" to-port="0"/>
		<edge from-layer="228" from-port="0" to-layer="439" to-port="1"/>
		<edge from-layer="229" from-port="0" to-layer="439" to-port="2"/>
		<edge from-layer="230" from-port="0" to-layer="439" to-port="3"/>
		<edge from-layer="231" from-port="0" to-layer="439" to-port="4"/>
		<edge from-layer="439" from-port="5" to-layer="440" to-port="0"/>
		<edge from-layer="440" from-port="1" to-layer="441" to-port="0"/>
		<edge from-layer="224" from-port="0" to-layer="441" to-port="1"/>
		<edge from-layer="225" from-port="0" to-layer="441" to-port="2"/>
		<edge from-layer="226" from-port="0" to-layer="441" to-port="3"/>
		<edge from-layer="227" from-port="0" to-layer="441" to-port="4"/>
		<edge from-layer="441" from-port="5" to-layer="442" to-port="0"/>
		<edge from-layer="223" from-port="5" to-layer="442" to-port="1"/>
		<edge from-layer="442" from-port="2" to-layer="444" to-port="0"/>
		<edge from-layer="443" from-port="0" to-layer="444" to-port="1"/>
		<edge from-layer="444" from-port="2" to-layer="445" to-port="0"/>
		<edge from-layer="214" from-port="0" to-layer="445" to-port="1"/>
		<edge from-layer="215" from-port="0" to-layer="445" to-port="2"/>
		<edge from-layer="216" from-port="0" to-layer="445" to-port="3"/>
		<edge from-layer="217" from-port="0" to-layer="445" to-port="4"/>
		<edge from-layer="445" from-port="5" to-layer="446" to-port="0"/>
		<edge from-layer="446" from-port="1" to-layer="447" to-port="0"/>
		<edge from-layer="210" from-port="0" to-layer="447" to-port="1"/>
		<edge from-layer="211" from-port="0" to-layer="447" to-port="2"/>
		<edge from-layer="212" from-port="0" to-layer="447" to-port="3"/>
		<edge from-layer="213" from-port="0" to-layer="447" to-port="4"/>
		<edge from-layer="453" from-port="0" to-layer="454" to-port="0"/>
		<edge from-layer="449" from-port="0" to-layer="454" to-port="1"/>
		<edge from-layer="450" from-port="0" to-layer="454" to-port="2"/>
		<edge from-layer="451" from-port="0" to-layer="454" to-port="3"/>
		<edge from-layer="452" from-port="0" to-layer="454" to-port="4"/>
		<edge from-layer="454" from-port="5" to-layer="455" to-port="0"/>
		<edge from-layer="448" from-port="0" to-layer="455" to-port="1"/>
		<edge from-layer="447" from-port="5" to-layer="456" to-port="0"/>
		<edge from-layer="455" from-port="2" to-layer="456" to-port="1"/>
		<edge from-layer="456" from-port="2" to-layer="458" to-port="0"/>
		<edge from-layer="457" from-port="0" to-layer="458" to-port="1"/>
		<edge from-layer="458" from-port="2" to-layer="459" to-port="0"/>
		<edge from-layer="206" from-port="0" to-layer="459" to-port="1"/>
		<edge from-layer="207" from-port="0" to-layer="459" to-port="2"/>
		<edge from-layer="208" from-port="0" to-layer="459" to-port="3"/>
		<edge from-layer="209" from-port="0" to-layer="459" to-port="4"/>
		<edge from-layer="459" from-port="5" to-layer="460" to-port="0"/>
		<edge from-layer="460" from-port="1" to-layer="461" to-port="0"/>
		<edge from-layer="202" from-port="0" to-layer="461" to-port="1"/>
		<edge from-layer="203" from-port="0" to-layer="461" to-port="2"/>
		<edge from-layer="204" from-port="0" to-layer="461" to-port="3"/>
		<edge from-layer="205" from-port="0" to-layer="461" to-port="4"/>
		<edge from-layer="461" from-port="5" to-layer="462" to-port="0"/>
		<edge from-layer="201" from-port="5" to-layer="462" to-port="1"/>
		<edge from-layer="462" from-port="2" to-layer="464" to-port="0"/>
		<edge from-layer="463" from-port="0" to-layer="464" to-port="1"/>
		<edge from-layer="464" from-port="2" to-layer="465" to-port="0"/>
		<edge from-layer="192" from-port="0" to-layer="465" to-port="1"/>
		<edge from-layer="193" from-port="0" to-layer="465" to-port="2"/>
		<edge from-layer="194" from-port="0" to-layer="465" to-port="3"/>
		<edge from-layer="195" from-port="0" to-layer="465" to-port="4"/>
		<edge from-layer="465" from-port="5" to-layer="466" to-port="0"/>
		<edge from-layer="466" from-port="1" to-layer="467" to-port="0"/>
		<edge from-layer="188" from-port="0" to-layer="467" to-port="1"/>
		<edge from-layer="189" from-port="0" to-layer="467" to-port="2"/>
		<edge from-layer="190" from-port="0" to-layer="467" to-port="3"/>
		<edge from-layer="191" from-port="0" to-layer="467" to-port="4"/>
		<edge from-layer="473" from-port="0" to-layer="474" to-port="0"/>
		<edge from-layer="469" from-port="0" to-layer="474" to-port="1"/>
		<edge from-layer="470" from-port="0" to-layer="474" to-port="2"/>
		<edge from-layer="471" from-port="0" to-layer="474" to-port="3"/>
		<edge from-layer="472" from-port="0" to-layer="474" to-port="4"/>
		<edge from-layer="474" from-port="5" to-layer="475" to-port="0"/>
		<edge from-layer="468" from-port="0" to-layer="475" to-port="1"/>
		<edge from-layer="467" from-port="5" to-layer="476" to-port="0"/>
		<edge from-layer="475" from-port="2" to-layer="476" to-port="1"/>
		<edge from-layer="476" from-port="2" to-layer="478" to-port="0"/>
		<edge from-layer="477" from-port="0" to-layer="478" to-port="1"/>
		<edge from-layer="478" from-port="2" to-layer="479" to-port="0"/>
		<edge from-layer="184" from-port="0" to-layer="479" to-port="1"/>
		<edge from-layer="185" from-port="0" to-layer="479" to-port="2"/>
		<edge from-layer="186" from-port="0" to-layer="479" to-port="3"/>
		<edge from-layer="187" from-port="0" to-layer="479" to-port="4"/>
		<edge from-layer="479" from-port="5" to-layer="480" to-port="0"/>
		<edge from-layer="480" from-port="1" to-layer="481" to-port="0"/>
		<edge from-layer="180" from-port="0" to-layer="481" to-port="1"/>
		<edge from-layer="181" from-port="0" to-layer="481" to-port="2"/>
		<edge from-layer="182" from-port="0" to-layer="481" to-port="3"/>
		<edge from-layer="183" from-port="0" to-layer="481" to-port="4"/>
		<edge from-layer="481" from-port="5" to-layer="482" to-port="0"/>
		<edge from-layer="179" from-port="5" to-layer="482" to-port="1"/>
		<edge from-layer="482" from-port="2" to-layer="484" to-port="0"/>
		<edge from-layer="483" from-port="0" to-layer="484" to-port="1"/>
		<edge from-layer="484" from-port="2" to-layer="485" to-port="0"/>
		<edge from-layer="170" from-port="0" to-layer="485" to-port="1"/>
		<edge from-layer="171" from-port="0" to-layer="485" to-port="2"/>
		<edge from-layer="172" from-port="0" to-layer="485" to-port="3"/>
		<edge from-layer="173" from-port="0" to-layer="485" to-port="4"/>
		<edge from-layer="485" from-port="5" to-layer="486" to-port="0"/>
		<edge from-layer="486" from-port="1" to-layer="487" to-port="0"/>
		<edge from-layer="166" from-port="0" to-layer="487" to-port="1"/>
		<edge from-layer="167" from-port="0" to-layer="487" to-port="2"/>
		<edge from-layer="168" from-port="0" to-layer="487" to-port="3"/>
		<edge from-layer="169" from-port="0" to-layer="487" to-port="4"/>
		<edge from-layer="493" from-port="0" to-layer="494" to-port="0"/>
		<edge from-layer="489" from-port="0" to-layer="494" to-port="1"/>
		<edge from-layer="490" from-port="0" to-layer="494" to-port="2"/>
		<edge from-layer="491" from-port="0" to-layer="494" to-port="3"/>
		<edge from-layer="492" from-port="0" to-layer="494" to-port="4"/>
		<edge from-layer="494" from-port="5" to-layer="495" to-port="0"/>
		<edge from-layer="488" from-port="0" to-layer="495" to-port="1"/>
		<edge from-layer="487" from-port="5" to-layer="496" to-port="0"/>
		<edge from-layer="495" from-port="2" to-layer="496" to-port="1"/>
		<edge from-layer="496" from-port="2" to-layer="498" to-port="0"/>
		<edge from-layer="497" from-port="0" to-layer="498" to-port="1"/>
		<edge from-layer="498" from-port="2" to-layer="499" to-port="0"/>
		<edge from-layer="162" from-port="0" to-layer="499" to-port="1"/>
		<edge from-layer="163" from-port="0" to-layer="499" to-port="2"/>
		<edge from-layer="164" from-port="0" to-layer="499" to-port="3"/>
		<edge from-layer="165" from-port="0" to-layer="499" to-port="4"/>
		<edge from-layer="499" from-port="5" to-layer="500" to-port="0"/>
		<edge from-layer="500" from-port="1" to-layer="501" to-port="0"/>
		<edge from-layer="158" from-port="0" to-layer="501" to-port="1"/>
		<edge from-layer="159" from-port="0" to-layer="501" to-port="2"/>
		<edge from-layer="160" from-port="0" to-layer="501" to-port="3"/>
		<edge from-layer="161" from-port="0" to-layer="501" to-port="4"/>
		<edge from-layer="501" from-port="5" to-layer="502" to-port="0"/>
		<edge from-layer="157" from-port="5" to-layer="502" to-port="1"/>
		<edge from-layer="502" from-port="2" to-layer="504" to-port="0"/>
		<edge from-layer="503" from-port="0" to-layer="504" to-port="1"/>
		<edge from-layer="504" from-port="2" to-layer="505" to-port="0"/>
		<edge from-layer="148" from-port="0" to-layer="505" to-port="1"/>
		<edge from-layer="149" from-port="0" to-layer="505" to-port="2"/>
		<edge from-layer="150" from-port="0" to-layer="505" to-port="3"/>
		<edge from-layer="151" from-port="0" to-layer="505" to-port="4"/>
		<edge from-layer="505" from-port="5" to-layer="506" to-port="0"/>
		<edge from-layer="506" from-port="1" to-layer="507" to-port="0"/>
		<edge from-layer="144" from-port="0" to-layer="507" to-port="1"/>
		<edge from-layer="145" from-port="0" to-layer="507" to-port="2"/>
		<edge from-layer="146" from-port="0" to-layer="507" to-port="3"/>
		<edge from-layer="147" from-port="0" to-layer="507" to-port="4"/>
		<edge from-layer="513" from-port="0" to-layer="514" to-port="0"/>
		<edge from-layer="509" from-port="0" to-layer="514" to-port="1"/>
		<edge from-layer="510" from-port="0" to-layer="514" to-port="2"/>
		<edge from-layer="511" from-port="0" to-layer="514" to-port="3"/>
		<edge from-layer="512" from-port="0" to-layer="514" to-port="4"/>
		<edge from-layer="514" from-port="5" to-layer="515" to-port="0"/>
		<edge from-layer="508" from-port="0" to-layer="515" to-port="1"/>
		<edge from-layer="507" from-port="5" to-layer="516" to-port="0"/>
		<edge from-layer="515" from-port="2" to-layer="516" to-port="1"/>
		<edge from-layer="516" from-port="2" to-layer="518" to-port="0"/>
		<edge from-layer="517" from-port="0" to-layer="518" to-port="1"/>
		<edge from-layer="518" from-port="2" to-layer="519" to-port="0"/>
		<edge from-layer="140" from-port="0" to-layer="519" to-port="1"/>
		<edge from-layer="141" from-port="0" to-layer="519" to-port="2"/>
		<edge from-layer="142" from-port="0" to-layer="519" to-port="3"/>
		<edge from-layer="143" from-port="0" to-layer="519" to-port="4"/>
		<edge from-layer="519" from-port="5" to-layer="520" to-port="0"/>
		<edge from-layer="520" from-port="1" to-layer="521" to-port="0"/>
		<edge from-layer="136" from-port="0" to-layer="521" to-port="1"/>
		<edge from-layer="137" from-port="0" to-layer="521" to-port="2"/>
		<edge from-layer="138" from-port="0" to-layer="521" to-port="3"/>
		<edge from-layer="139" from-port="0" to-layer="521" to-port="4"/>
		<edge from-layer="521" from-port="5" to-layer="522" to-port="0"/>
		<edge from-layer="135" from-port="5" to-layer="522" to-port="1"/>
		<edge from-layer="522" from-port="2" to-layer="524" to-port="0"/>
		<edge from-layer="523" from-port="0" to-layer="524" to-port="1"/>
		<edge from-layer="524" from-port="2" to-layer="525" to-port="0"/>
		<edge from-layer="126" from-port="0" to-layer="525" to-port="1"/>
		<edge from-layer="127" from-port="0" to-layer="525" to-port="2"/>
		<edge from-layer="128" from-port="0" to-layer="525" to-port="3"/>
		<edge from-layer="129" from-port="0" to-layer="525" to-port="4"/>
		<edge from-layer="525" from-port="5" to-layer="526" to-port="0"/>
		<edge from-layer="526" from-port="1" to-layer="527" to-port="0"/>
		<edge from-layer="122" from-port="0" to-layer="527" to-port="1"/>
		<edge from-layer="123" from-port="0" to-layer="527" to-port="2"/>
		<edge from-layer="124" from-port="0" to-layer="527" to-port="3"/>
		<edge from-layer="125" from-port="0" to-layer="527" to-port="4"/>
		<edge from-layer="533" from-port="0" to-layer="534" to-port="0"/>
		<edge from-layer="529" from-port="0" to-layer="534" to-port="1"/>
		<edge from-layer="530" from-port="0" to-layer="534" to-port="2"/>
		<edge from-layer="531" from-port="0" to-layer="534" to-port="3"/>
		<edge from-layer="532" from-port="0" to-layer="534" to-port="4"/>
		<edge from-layer="534" from-port="5" to-layer="535" to-port="0"/>
		<edge from-layer="528" from-port="0" to-layer="535" to-port="1"/>
		<edge from-layer="527" from-port="5" to-layer="536" to-port="0"/>
		<edge from-layer="535" from-port="2" to-layer="536" to-port="1"/>
		<edge from-layer="536" from-port="2" to-layer="538" to-port="0"/>
		<edge from-layer="537" from-port="0" to-layer="538" to-port="1"/>
		<edge from-layer="538" from-port="2" to-layer="539" to-port="0"/>
		<edge from-layer="118" from-port="0" to-layer="539" to-port="1"/>
		<edge from-layer="119" from-port="0" to-layer="539" to-port="2"/>
		<edge from-layer="120" from-port="0" to-layer="539" to-port="3"/>
		<edge from-layer="121" from-port="0" to-layer="539" to-port="4"/>
		<edge from-layer="539" from-port="5" to-layer="540" to-port="0"/>
		<edge from-layer="540" from-port="1" to-layer="541" to-port="0"/>
		<edge from-layer="114" from-port="0" to-layer="541" to-port="1"/>
		<edge from-layer="115" from-port="0" to-layer="541" to-port="2"/>
		<edge from-layer="116" from-port="0" to-layer="541" to-port="3"/>
		<edge from-layer="117" from-port="0" to-layer="541" to-port="4"/>
		<edge from-layer="541" from-port="5" to-layer="542" to-port="0"/>
		<edge from-layer="113" from-port="5" to-layer="542" to-port="1"/>
		<edge from-layer="542" from-port="2" to-layer="544" to-port="0"/>
		<edge from-layer="543" from-port="0" to-layer="544" to-port="1"/>
		<edge from-layer="544" from-port="2" to-layer="545" to-port="0"/>
		<edge from-layer="104" from-port="0" to-layer="545" to-port="1"/>
		<edge from-layer="105" from-port="0" to-layer="545" to-port="2"/>
		<edge from-layer="106" from-port="0" to-layer="545" to-port="3"/>
		<edge from-layer="107" from-port="0" to-layer="545" to-port="4"/>
		<edge from-layer="545" from-port="5" to-layer="546" to-port="0"/>
		<edge from-layer="546" from-port="1" to-layer="547" to-port="0"/>
		<edge from-layer="100" from-port="0" to-layer="547" to-port="1"/>
		<edge from-layer="101" from-port="0" to-layer="547" to-port="2"/>
		<edge from-layer="102" from-port="0" to-layer="547" to-port="3"/>
		<edge from-layer="103" from-port="0" to-layer="547" to-port="4"/>
		<edge from-layer="553" from-port="0" to-layer="554" to-port="0"/>
		<edge from-layer="549" from-port="0" to-layer="554" to-port="1"/>
		<edge from-layer="550" from-port="0" to-layer="554" to-port="2"/>
		<edge from-layer="551" from-port="0" to-layer="554" to-port="3"/>
		<edge from-layer="552" from-port="0" to-layer="554" to-port="4"/>
		<edge from-layer="554" from-port="5" to-layer="555" to-port="0"/>
		<edge from-layer="548" from-port="0" to-layer="555" to-port="1"/>
		<edge from-layer="547" from-port="5" to-layer="556" to-port="0"/>
		<edge from-layer="555" from-port="2" to-layer="556" to-port="1"/>
		<edge from-layer="556" from-port="2" to-layer="558" to-port="0"/>
		<edge from-layer="557" from-port="0" to-layer="558" to-port="1"/>
		<edge from-layer="558" from-port="2" to-layer="559" to-port="0"/>
		<edge from-layer="96" from-port="0" to-layer="559" to-port="1"/>
		<edge from-layer="97" from-port="0" to-layer="559" to-port="2"/>
		<edge from-layer="98" from-port="0" to-layer="559" to-port="3"/>
		<edge from-layer="99" from-port="0" to-layer="559" to-port="4"/>
		<edge from-layer="559" from-port="5" to-layer="560" to-port="0"/>
		<edge from-layer="560" from-port="1" to-layer="561" to-port="0"/>
		<edge from-layer="92" from-port="0" to-layer="561" to-port="1"/>
		<edge from-layer="93" from-port="0" to-layer="561" to-port="2"/>
		<edge from-layer="94" from-port="0" to-layer="561" to-port="3"/>
		<edge from-layer="95" from-port="0" to-layer="561" to-port="4"/>
		<edge from-layer="561" from-port="5" to-layer="562" to-port="0"/>
		<edge from-layer="91" from-port="5" to-layer="562" to-port="1"/>
		<edge from-layer="562" from-port="2" to-layer="564" to-port="0"/>
		<edge from-layer="563" from-port="0" to-layer="564" to-port="1"/>
		<edge from-layer="564" from-port="2" to-layer="565" to-port="0"/>
		<edge from-layer="82" from-port="0" to-layer="565" to-port="1"/>
		<edge from-layer="83" from-port="0" to-layer="565" to-port="2"/>
		<edge from-layer="84" from-port="0" to-layer="565" to-port="3"/>
		<edge from-layer="85" from-port="0" to-layer="565" to-port="4"/>
		<edge from-layer="565" from-port="5" to-layer="566" to-port="0"/>
		<edge from-layer="566" from-port="1" to-layer="567" to-port="0"/>
		<edge from-layer="78" from-port="0" to-layer="567" to-port="1"/>
		<edge from-layer="79" from-port="0" to-layer="567" to-port="2"/>
		<edge from-layer="80" from-port="0" to-layer="567" to-port="3"/>
		<edge from-layer="81" from-port="0" to-layer="567" to-port="4"/>
		<edge from-layer="573" from-port="0" to-layer="574" to-port="0"/>
		<edge from-layer="569" from-port="0" to-layer="574" to-port="1"/>
		<edge from-layer="570" from-port="0" to-layer="574" to-port="2"/>
		<edge from-layer="571" from-port="0" to-layer="574" to-port="3"/>
		<edge from-layer="572" from-port="0" to-layer="574" to-port="4"/>
		<edge from-layer="574" from-port="5" to-layer="575" to-port="0"/>
		<edge from-layer="568" from-port="0" to-layer="575" to-port="1"/>
		<edge from-layer="567" from-port="5" to-layer="576" to-port="0"/>
		<edge from-layer="575" from-port="2" to-layer="576" to-port="1"/>
		<edge from-layer="576" from-port="2" to-layer="578" to-port="0"/>
		<edge from-layer="577" from-port="0" to-layer="578" to-port="1"/>
		<edge from-layer="578" from-port="2" to-layer="579" to-port="0"/>
		<edge from-layer="74" from-port="0" to-layer="579" to-port="1"/>
		<edge from-layer="75" from-port="0" to-layer="579" to-port="2"/>
		<edge from-layer="76" from-port="0" to-layer="579" to-port="3"/>
		<edge from-layer="77" from-port="0" to-layer="579" to-port="4"/>
		<edge from-layer="579" from-port="5" to-layer="580" to-port="0"/>
		<edge from-layer="580" from-port="1" to-layer="581" to-port="0"/>
		<edge from-layer="70" from-port="0" to-layer="581" to-port="1"/>
		<edge from-layer="71" from-port="0" to-layer="581" to-port="2"/>
		<edge from-layer="72" from-port="0" to-layer="581" to-port="3"/>
		<edge from-layer="73" from-port="0" to-layer="581" to-port="4"/>
		<edge from-layer="581" from-port="5" to-layer="582" to-port="0"/>
		<edge from-layer="69" from-port="5" to-layer="582" to-port="1"/>
		<edge from-layer="582" from-port="2" to-layer="584" to-port="0"/>
		<edge from-layer="583" from-port="0" to-layer="584" to-port="1"/>
		<edge from-layer="584" from-port="2" to-layer="585" to-port="0"/>
		<edge from-layer="60" from-port="0" to-layer="585" to-port="1"/>
		<edge from-layer="61" from-port="0" to-layer="585" to-port="2"/>
		<edge from-layer="62" from-port="0" to-layer="585" to-port="3"/>
		<edge from-layer="63" from-port="0" to-layer="585" to-port="4"/>
		<edge from-layer="585" from-port="5" to-layer="586" to-port="0"/>
		<edge from-layer="586" from-port="1" to-layer="587" to-port="0"/>
		<edge from-layer="56" from-port="0" to-layer="587" to-port="1"/>
		<edge from-layer="57" from-port="0" to-layer="587" to-port="2"/>
		<edge from-layer="58" from-port="0" to-layer="587" to-port="3"/>
		<edge from-layer="59" from-port="0" to-layer="587" to-port="4"/>
		<edge from-layer="593" from-port="0" to-layer="594" to-port="0"/>
		<edge from-layer="589" from-port="0" to-layer="594" to-port="1"/>
		<edge from-layer="590" from-port="0" to-layer="594" to-port="2"/>
		<edge from-layer="591" from-port="0" to-layer="594" to-port="3"/>
		<edge from-layer="592" from-port="0" to-layer="594" to-port="4"/>
		<edge from-layer="594" from-port="5" to-layer="595" to-port="0"/>
		<edge from-layer="588" from-port="0" to-layer="595" to-port="1"/>
		<edge from-layer="587" from-port="5" to-layer="596" to-port="0"/>
		<edge from-layer="595" from-port="2" to-layer="596" to-port="1"/>
		<edge from-layer="596" from-port="2" to-layer="598" to-port="0"/>
		<edge from-layer="597" from-port="0" to-layer="598" to-port="1"/>
		<edge from-layer="598" from-port="2" to-layer="599" to-port="0"/>
		<edge from-layer="52" from-port="0" to-layer="599" to-port="1"/>
		<edge from-layer="53" from-port="0" to-layer="599" to-port="2"/>
		<edge from-layer="54" from-port="0" to-layer="599" to-port="3"/>
		<edge from-layer="55" from-port="0" to-layer="599" to-port="4"/>
		<edge from-layer="599" from-port="5" to-layer="600" to-port="0"/>
		<edge from-layer="600" from-port="1" to-layer="601" to-port="0"/>
		<edge from-layer="48" from-port="0" to-layer="601" to-port="1"/>
		<edge from-layer="49" from-port="0" to-layer="601" to-port="2"/>
		<edge from-layer="50" from-port="0" to-layer="601" to-port="3"/>
		<edge from-layer="51" from-port="0" to-layer="601" to-port="4"/>
		<edge from-layer="601" from-port="5" to-layer="602" to-port="0"/>
		<edge from-layer="47" from-port="5" to-layer="602" to-port="1"/>
		<edge from-layer="602" from-port="2" to-layer="604" to-port="0"/>
		<edge from-layer="603" from-port="0" to-layer="604" to-port="1"/>
		<edge from-layer="604" from-port="2" to-layer="605" to-port="0"/>
		<edge from-layer="38" from-port="0" to-layer="605" to-port="1"/>
		<edge from-layer="39" from-port="0" to-layer="605" to-port="2"/>
		<edge from-layer="40" from-port="0" to-layer="605" to-port="3"/>
		<edge from-layer="41" from-port="0" to-layer="605" to-port="4"/>
		<edge from-layer="605" from-port="5" to-layer="606" to-port="0"/>
		<edge from-layer="606" from-port="1" to-layer="607" to-port="0"/>
		<edge from-layer="34" from-port="0" to-layer="607" to-port="1"/>
		<edge from-layer="35" from-port="0" to-layer="607" to-port="2"/>
		<edge from-layer="36" from-port="0" to-layer="607" to-port="3"/>
		<edge from-layer="37" from-port="0" to-layer="607" to-port="4"/>
		<edge from-layer="607" from-port="5" to-layer="608" to-port="0"/>
		<edge from-layer="608" from-port="1" to-layer="609" to-port="0"/>
		<edge from-layer="30" from-port="0" to-layer="609" to-port="1"/>
		<edge from-layer="31" from-port="0" to-layer="609" to-port="2"/>
		<edge from-layer="32" from-port="0" to-layer="609" to-port="3"/>
		<edge from-layer="33" from-port="0" to-layer="609" to-port="4"/>
		<edge from-layer="609" from-port="5" to-layer="610" to-port="0"/>
		<edge from-layer="29" from-port="0" to-layer="610" to-port="1"/>
		<edge from-layer="610" from-port="2" to-layer="611" to-port="0"/>
		<edge from-layer="28" from-port="5" to-layer="611" to-port="1"/>
		<edge from-layer="611" from-port="2" to-layer="613" to-port="0"/>
		<edge from-layer="612" from-port="0" to-layer="613" to-port="1"/>
		<edge from-layer="613" from-port="2" to-layer="614" to-port="0"/>
		<edge from-layer="19" from-port="0" to-layer="614" to-port="1"/>
		<edge from-layer="20" from-port="0" to-layer="614" to-port="2"/>
		<edge from-layer="21" from-port="0" to-layer="614" to-port="3"/>
		<edge from-layer="22" from-port="0" to-layer="614" to-port="4"/>
		<edge from-layer="614" from-port="5" to-layer="615" to-port="0"/>
		<edge from-layer="18" from-port="0" to-layer="615" to-port="1"/>
		<edge from-layer="615" from-port="2" to-layer="616" to-port="0"/>
		<edge from-layer="17" from-port="0" to-layer="616" to-port="1"/>
		<edge from-layer="628" from-port="0" to-layer="629" to-port="0"/>
		<edge from-layer="624" from-port="0" to-layer="629" to-port="1"/>
		<edge from-layer="625" from-port="0" to-layer="629" to-port="2"/>
		<edge from-layer="626" from-port="0" to-layer="629" to-port="3"/>
		<edge from-layer="627" from-port="0" to-layer="629" to-port="4"/>
		<edge from-layer="640" from-port="0" to-layer="641" to-port="0"/>
		<edge from-layer="636" from-port="0" to-layer="641" to-port="1"/>
		<edge from-layer="637" from-port="0" to-layer="641" to-port="2"/>
		<edge from-layer="638" from-port="0" to-layer="641" to-port="3"/>
		<edge from-layer="639" from-port="0" to-layer="641" to-port="4"/>
		<edge from-layer="616" from-port="2" to-layer="644" to-port="0"/>
		<edge from-layer="643" from-port="0" to-layer="644" to-port="1"/>
		<edge from-layer="644" from-port="2" to-layer="645" to-port="0"/>
		<edge from-layer="642" from-port="0" to-layer="645" to-port="1"/>
		<edge from-layer="645" from-port="2" to-layer="646" to-port="0"/>
		<edge from-layer="641" from-port="5" to-layer="646" to-port="1"/>
		<edge from-layer="646" from-port="2" to-layer="647" to-port="0"/>
		<edge from-layer="635" from-port="0" to-layer="647" to-port="1"/>
		<edge from-layer="647" from-port="2" to-layer="648" to-port="0"/>
		<edge from-layer="631" from-port="0" to-layer="648" to-port="1"/>
		<edge from-layer="632" from-port="0" to-layer="648" to-port="2"/>
		<edge from-layer="633" from-port="0" to-layer="648" to-port="3"/>
		<edge from-layer="634" from-port="0" to-layer="648" to-port="4"/>
		<edge from-layer="648" from-port="5" to-layer="649" to-port="0"/>
		<edge from-layer="649" from-port="1" to-layer="650" to-port="0"/>
		<edge from-layer="630" from-port="0" to-layer="650" to-port="1"/>
		<edge from-layer="650" from-port="2" to-layer="651" to-port="0"/>
		<edge from-layer="629" from-port="5" to-layer="651" to-port="1"/>
		<edge from-layer="651" from-port="2" to-layer="652" to-port="0"/>
		<edge from-layer="623" from-port="0" to-layer="652" to-port="1"/>
		<edge from-layer="652" from-port="2" to-layer="653" to-port="0"/>
		<edge from-layer="619" from-port="0" to-layer="653" to-port="1"/>
		<edge from-layer="620" from-port="0" to-layer="653" to-port="2"/>
		<edge from-layer="621" from-port="0" to-layer="653" to-port="3"/>
		<edge from-layer="622" from-port="0" to-layer="653" to-port="4"/>
		<edge from-layer="653" from-port="5" to-layer="654" to-port="0"/>
		<edge from-layer="618" from-port="0" to-layer="654" to-port="1"/>
		<edge from-layer="654" from-port="2" to-layer="655" to-port="0"/>
		<edge from-layer="617" from-port="0" to-layer="655" to-port="1"/>
		<edge from-layer="616" from-port="2" to-layer="656" to-port="0"/>
		<edge from-layer="655" from-port="2" to-layer="656" to-port="1"/>
		<edge from-layer="656" from-port="2" to-layer="657" to-port="0"/>
		<edge from-layer="13" from-port="0" to-layer="657" to-port="1"/>
		<edge from-layer="14" from-port="0" to-layer="657" to-port="2"/>
		<edge from-layer="15" from-port="0" to-layer="657" to-port="3"/>
		<edge from-layer="16" from-port="0" to-layer="657" to-port="4"/>
		<edge from-layer="662" from-port="0" to-layer="663" to-port="0"/>
		<edge from-layer="658" from-port="0" to-layer="663" to-port="1"/>
		<edge from-layer="659" from-port="0" to-layer="663" to-port="2"/>
		<edge from-layer="660" from-port="0" to-layer="663" to-port="3"/>
		<edge from-layer="661" from-port="0" to-layer="663" to-port="4"/>
		<edge from-layer="657" from-port="5" to-layer="664" to-port="0"/>
		<edge from-layer="663" from-port="5" to-layer="664" to-port="1"/>
		<edge from-layer="664" from-port="2" to-layer="665" to-port="0"/>
		<edge from-layer="9" from-port="0" to-layer="665" to-port="1"/>
		<edge from-layer="10" from-port="0" to-layer="665" to-port="2"/>
		<edge from-layer="11" from-port="0" to-layer="665" to-port="3"/>
		<edge from-layer="12" from-port="0" to-layer="665" to-port="4"/>
		<edge from-layer="681" from-port="0" to-layer="682" to-port="0"/>
		<edge from-layer="677" from-port="0" to-layer="682" to-port="1"/>
		<edge from-layer="678" from-port="0" to-layer="682" to-port="2"/>
		<edge from-layer="679" from-port="0" to-layer="682" to-port="3"/>
		<edge from-layer="680" from-port="0" to-layer="682" to-port="4"/>
		<edge from-layer="695" from-port="0" to-layer="696" to-port="0"/>
		<edge from-layer="691" from-port="0" to-layer="696" to-port="1"/>
		<edge from-layer="692" from-port="0" to-layer="696" to-port="2"/>
		<edge from-layer="693" from-port="0" to-layer="696" to-port="3"/>
		<edge from-layer="694" from-port="0" to-layer="696" to-port="4"/>
		<edge from-layer="657" from-port="5" to-layer="703" to-port="0"/>
		<edge from-layer="703" from-port="1" to-layer="704" to-port="0"/>
		<edge from-layer="699" from-port="0" to-layer="704" to-port="1"/>
		<edge from-layer="700" from-port="0" to-layer="704" to-port="2"/>
		<edge from-layer="701" from-port="0" to-layer="704" to-port="3"/>
		<edge from-layer="702" from-port="0" to-layer="704" to-port="4"/>
		<edge from-layer="704" from-port="5" to-layer="705" to-port="0"/>
		<edge from-layer="698" from-port="0" to-layer="705" to-port="1"/>
		<edge from-layer="705" from-port="2" to-layer="706" to-port="0"/>
		<edge from-layer="697" from-port="0" to-layer="706" to-port="1"/>
		<edge from-layer="706" from-port="2" to-layer="707" to-port="0"/>
		<edge from-layer="696" from-port="5" to-layer="707" to-port="1"/>
		<edge from-layer="707" from-port="2" to-layer="708" to-port="0"/>
		<edge from-layer="690" from-port="0" to-layer="708" to-port="1"/>
		<edge from-layer="708" from-port="2" to-layer="709" to-port="0"/>
		<edge from-layer="686" from-port="0" to-layer="709" to-port="1"/>
		<edge from-layer="687" from-port="0" to-layer="709" to-port="2"/>
		<edge from-layer="688" from-port="0" to-layer="709" to-port="3"/>
		<edge from-layer="689" from-port="0" to-layer="709" to-port="4"/>
		<edge from-layer="709" from-port="5" to-layer="710" to-port="0"/>
		<edge from-layer="685" from-port="0" to-layer="710" to-port="1"/>
		<edge from-layer="710" from-port="2" to-layer="711" to-port="0"/>
		<edge from-layer="684" from-port="0" to-layer="711" to-port="1"/>
		<edge from-layer="711" from-port="2" to-layer="712" to-port="0"/>
		<edge from-layer="683" from-port="0" to-layer="712" to-port="1"/>
		<edge from-layer="712" from-port="2" to-layer="713" to-port="0"/>
		<edge from-layer="682" from-port="5" to-layer="713" to-port="1"/>
		<edge from-layer="713" from-port="2" to-layer="714" to-port="0"/>
		<edge from-layer="676" from-port="0" to-layer="714" to-port="1"/>
		<edge from-layer="714" from-port="2" to-layer="715" to-port="0"/>
		<edge from-layer="672" from-port="0" to-layer="715" to-port="1"/>
		<edge from-layer="673" from-port="0" to-layer="715" to-port="2"/>
		<edge from-layer="674" from-port="0" to-layer="715" to-port="3"/>
		<edge from-layer="675" from-port="0" to-layer="715" to-port="4"/>
		<edge from-layer="715" from-port="5" to-layer="716" to-port="0"/>
		<edge from-layer="671" from-port="0" to-layer="716" to-port="1"/>
		<edge from-layer="716" from-port="2" to-layer="717" to-port="0"/>
		<edge from-layer="670" from-port="0" to-layer="717" to-port="1"/>
		<edge from-layer="717" from-port="2" to-layer="718" to-port="0"/>
		<edge from-layer="718" from-port="1" to-layer="719" to-port="0"/>
		<edge from-layer="666" from-port="0" to-layer="719" to-port="1"/>
		<edge from-layer="667" from-port="0" to-layer="719" to-port="2"/>
		<edge from-layer="668" from-port="0" to-layer="719" to-port="3"/>
		<edge from-layer="669" from-port="0" to-layer="719" to-port="4"/>
		<edge from-layer="665" from-port="5" to-layer="720" to-port="0"/>
		<edge from-layer="719" from-port="5" to-layer="720" to-port="1"/>
		<edge from-layer="720" from-port="2" to-layer="721" to-port="0"/>
		<edge from-layer="5" from-port="0" to-layer="721" to-port="1"/>
		<edge from-layer="6" from-port="0" to-layer="721" to-port="2"/>
		<edge from-layer="7" from-port="0" to-layer="721" to-port="3"/>
		<edge from-layer="8" from-port="0" to-layer="721" to-port="4"/>
		<edge from-layer="721" from-port="5" to-layer="722" to-port="0"/>
		<edge from-layer="722" from-port="1" to-layer="723" to-port="0"/>
		<edge from-layer="1" from-port="0" to-layer="723" to-port="1"/>
		<edge from-layer="2" from-port="0" to-layer="723" to-port="2"/>
		<edge from-layer="3" from-port="0" to-layer="723" to-port="3"/>
		<edge from-layer="4" from-port="0" to-layer="723" to-port="4"/>
		<edge from-layer="723" from-port="5" to-layer="724" to-port="0"/>
		<edge from-layer="0" from-port="0" to-layer="724" to-port="1"/>
		<edge from-layer="724" from-port="2" to-layer="725" to-port="0"/>
	</edges>
	<rt_info>
		<MO_version value="custom_master_ed65d199bb3365c9bb296ce1ec1c1acda81b096a"/>
		<Runtime_version value="custom_master_ed65d199bb3365c9bb296ce1ec1c1acda81b096a"/>
		<conversion_parameters>
			<caffe_parser_path value="DIR"/>
			<compress_fp16 value="False"/>
			<data_type value="float"/>
			<disable_nhwc_to_nchw value="False"/>
			<disable_omitting_optional value="False"/>
			<disable_resnet_optimization value="False"/>
			<disable_weights_compression value="False"/>
			<enable_concat_optimization value="False"/>
			<enable_flattening_nested_params value="False"/>
			<enable_ssd_gluoncv value="False"/>
			<extensions value="DIR"/>
			<framework value="onnx"/>
			<freeze_placeholder_with_value value="{}"/>
			<input_model value="DIR\vww_96_float.onnx"/>
			<input_model_is_text value="False"/>
			<input_shape value="[1,96,96,3]"/>
			<k value="DIR\CustomLayersMapping.xml"/>
			<layout value="()"/>
			<layout_values value="{}"/>
			<legacy_mxnet_model value="False"/>
			<log_level value="ERROR"/>
			<mean_scale_values value="{}"/>
			<mean_values value="()"/>
			<model_name value="vww_96_float"/>
			<output_dir value="DIR"/>
			<packed_user_shapes value="defaultdict(&lt;class 'list'&gt;, {'input_1': [{'shape': (1, 96, 96, 3), 'port': None, 'added': True}]})"/>
			<placeholder_data_types value="{}"/>
			<placeholder_shapes value="(1, 96, 96, 3)"/>
			<progress value="False"/>
			<remove_memory value="False"/>
			<remove_output_softmax value="False"/>
			<reverse_input_channels value="False"/>
			<save_params_from_nd value="False"/>
			<scale_values value="()"/>
			<silent value="False"/>
			<source_layout value="()"/>
			<static_shape value="True"/>
			<stream_output value="False"/>
			<target_layout value="()"/>
			<transform value=""/>
			<unset value="batch, counts, disable_fusing, finegrain_fusing, input, input_checkpoint, input_meta_graph, input_proto, input_symbol, mean_file, mean_file_offsets, nd_prefix_name, output, pretrained_model_name, saved_model_dir, saved_model_tags, scale, tensorboard_logdir, tensorflow_custom_layer_libraries, tensorflow_custom_operations_config_update, tensorflow_object_detection_api_pipeline_config, tensorflow_use_custom_operations_config, transformations_config"/>
			<use_legacy_frontend value="False"/>
			<use_new_frontend value="False"/>
		</conversion_parameters>
		<legacy_path value="True"/>
		<optimization value="None"/>
	</rt_info>
	<quantization_parameters>
		<config/>
		<version value="{}"/>
		<cli_params value="{}"/>
	</quantization_parameters>
</net>
